…
I0412 06:14:27.086447   410 net.cpp:323] The NetState phase (0) differed from the phase (1) specified by a rule in layer loss3/top-1
I0412 06:14:27.087147   410 net.cpp:52] Initializing net from parameters:
state {
phase: TRAIN
}
layer {
name: "train-data"
type: "Data"
top: "data"
top: "label"
include {
phase: TRAIN
}
transform_param {
mirror: true
crop_size: 224
mean_file: "/opt/DIGITS/digits/jobs/20180412-060316-1124/mean.binaryproto"
}
data_param {
source: "/opt/DIGITS/digits/jobs/20180412-060316-1124/train_db"
batch_size: 32
backend: LMDB
}
}
layer {
name: "conv1/7x7_s2"
type: "Convolution"
bottom: "data"
top: "conv1/7x7_s2"
param {
lr_mult: 1
decay_mult: 1
}
param {
lr_mult: 2
decay_mult: 0
}
convolution_param {
num_output: 64
pad: 3
kernel_size: 7
stride: 2
weight_filler {
type: "xavier"
std: 0.1
}
bias_filler {
type: "constant"
value: 0.2
}
}
}
layer {
name: "conv1/relu_7x7"
type: "ReLU"
bottom: "conv1/7x7_s2"
top: "conv1/7x7_s2"
}
layer {
name: "pool1/3x3_s2"
type: "Pooling"
bottom: "conv1/7x7_s2"
top: "pool1/3x3_s2"
pooling_param {
pool: MAX
kernel_size: 3
stride: 2
}
}
layer {
name: "pool1/norm1"
type: "LRN"
bottom: "pool1/3x3_s2"
top: "pool1/norm1"
lrn_param {
local_size: 5
alpha: 0.0001
beta: 0.75
}
}
layer {
name: "conv2/3x3_reduce"
type: "Convolution"
bottom: "pool1/norm1"
top: "conv2/3x3_reduce"
param {
lr_mult: 1
decay_mult: 1
}
param {
lr_mult: 2
decay_mult: 0
}
convolution_param {
num_output: 64
kernel_size: 1
weight_filler {
type: "xavier"
std: 0.1
}
bias_filler {
type: "constant"
value: 0.2
}
}
}
layer {
name: "conv2/relu_3x3_reduce"
type: "ReLU"
bottom: "conv2/3x3_reduce"
top: "conv2/3x3_reduce"
}
layer {
name: "conv2/3x3"
type: "Convolution"
bottom: "conv2/3x3_reduce"
top: "conv2/3x3"
param {
lr_mult: 1
decay_mult: 1
}
param {
lr_mult: 2
decay_mult: 0
}
convolution_param {
num_output: 192
pad: 1
kernel_size: 3
weight_filler {
type: "xavier"
std: 0.03
}
bias_filler {
type: "constant"
value: 0.2
}
}
}
layer {
name: "conv2/relu_3x3"
type: "ReLU"
bottom: "conv2/3x3"
top: "conv2/3x3"
}
layer {
name: "conv2/norm2"
type: "LRN"
bottom: "conv2/3x3"
top: "conv2/norm2"
lrn_param {
local_size: 5
alpha: 0.0001
beta: 0.75
}
}
layer {
name: "pool2/3x3_s2"
type: "Pooling"
bottom: "conv2/norm2"
top: "pool2/3x3_s2"
pooling_param {
pool: MAX
kernel_size: 3
stride: 2
}
}
layer {
name: "inception_3a/1x1"
type: "Convolution"
bottom: "pool2/3x3_s2"
top: "inception_3a/1x1"
param {
lr_mult: 1
decay_mult: 1
}
param {
lr_mult: 2
decay_mult: 0
}
convolution_param {
num_output: 64
kernel_size: 1
weight_filler {
type: "xavier"
std: 0.03
}
bias_filler {
type: "constant"
value: 0.2
}
}
}
layer {
name: "inception_3a/relu_1x1"
type: "ReLU"
bottom: "inception_3a/1x1"
top: "inception_3a/1x1"
}
layer {
name: "inception_3a/3x3_reduce"
type: "Convolution"
bottom: "pool2/3x3_s2"
top: "inception_3a/3x3_reduce"
param {
lr_mult: 1
decay_mult: 1
}
param {
lr_mult: 2
decay_mult: 0
}
convolution_param {
num_output: 96
kernel_size: 1
weight_filler {
type: "xavier"
std: 0.09
}
bias_filler {
type: "constant"
value: 0.2
}
}
}
layer {
name: "inception_3a/relu_3x3_reduce"
type: "ReLU"
bottom: "inception_3a/3x3_reduce"
top: "inception_3a/3x3_reduce"
}
layer {
name: "inception_3a/3x3"
type: "Convolution"
bottom: "inception_3a/3x3_reduce"
top: "inception_3a/3x3"
param {
lr_mult: 1
decay_mult: 1
}
param {
lr_mult: 2
decay_mult: 0
}
convolution_param {
num_output: 128
pad: 1
kernel_size: 3
weight_filler {
type: "xavier"
std: 0.03
}
bias_filler {
type: "constant"
value: 0.2
}
}
}
layer {
name: "inception_3a/relu_3x3"
type: "ReLU"
bottom: "inception_3a/3x3"
top: "inception_3a/3x3"
}
layer {
name: "inception_3a/5x5_reduce"
type: "Convolution"
bottom: "pool2/3x3_s2"
top: "inception_3a/5x5_reduce"
param {
lr_mult: 1
decay_mult: 1
}
param {
lr_mult: 2
decay_mult: 0
}
convolution_param {
num_output: 16
kernel_size: 1
weight_filler {
type: "xavier"
std: 0.2
}
bias_filler {
type: "constant"
value: 0.2
}
}
}
layer {
name: "inception_3a/relu_5x5_reduce"
type: "ReLU"
bottom: "inception_3a/5x5_reduce"
top: "inception_3a/5x5_reduce"
}
layer {
name: "inception_3a/5x5"
type: "Convolution"
bottom: "inception_3a/5x5_reduce"
top: "inception_3a/5x5"
param {
lr_mult: 1
decay_mult: 1
}
param {
lr_mult: 2
decay_mult: 0
}
convolution_param {
num_output: 32
pad: 2
kernel_size: 5
weight_filler {
type: "xavier"
std: 0.03
}
bias_filler {
type: "constant"
value: 0.2
}
}
}
layer {
name: "inception_3a/relu_5x5"
type: "ReLU"
bottom: "inception_3a/5x5"
top: "inception_3a/5x5"
}
layer {
name: "inception_3a/pool"
type: "Pooling"
bottom: "pool2/3x3_s2"
top: "inception_3a/pool"
pooling_param {
pool: MAX
kernel_size: 3
stride: 1
pad: 1
}
}
layer {
name: "inception_3a/pool_proj"
type: "Convolution"
bottom: "inception_3a/pool"
top: "inception_3a/pool_proj"
param {
lr_mult: 1
decay_mult: 1
}
param {
lr_mult: 2
decay_mult: 0
}
convolution_param {
num_output: 32
kernel_size: 1
weight_filler {
type: "xavier"
std: 0.1
}
bias_filler {
type: "constant"
value: 0.2
}
}
}
layer {
name: "inception_3a/relu_pool_proj"
type: "ReLU"
bottom: "inception_3a/pool_proj"
top: "inception_3a/pool_proj"
}
layer {
name: "inception_3a/output"
type: "Concat"
bottom: "inception_3a/1x1"
bottom: "inception_3a/3x3"
bottom: "inception_3a/5x5"
bottom: "inception_3a/pool_proj"
top: "inception_3a/output"
}
layer {
name: "inception_3b/1x1"
type: "Convolution"
bottom: "inception_3a/output"
top: "inception_3b/1x1"
param {
lr_mult: 1
decay_mult: 1
}
param {
lr_mult: 2
decay_mult: 0
}
convolution_param {
num_output: 128
kernel_size: 1
weight_filler {
type: "xavier"
std: 0.03
}
bias_filler {
type: "constant"
value: 0.2
}
}
}
layer {
name: "inception_3b/relu_1x1"
type: "ReLU"
bottom: "inception_3b/1x1"
top: "inception_3b/1x1"
}
layer {
name: "inception_3b/3x3_reduce"
type: "Convolution"
bottom: "inception_3a/output"
top: "inception_3b/3x3_reduce"
param {
lr_mult: 1
decay_mult: 1
}
param {
lr_mult: 2
decay_mult: 0
}
convolution_param {
num_output: 128
kernel_size: 1
weight_filler {
type: "xavier"
std: 0.09
}
bias_filler {
type: "constant"
value: 0.2
}
}
}
layer {
name: "inception_3b/relu_3x3_reduce"
type: "ReLU"
bottom: "inception_3b/3x3_reduce"
top: "inception_3b/3x3_reduce"
}
layer {
name: "inception_3b/3x3"
type: "Convolution"
bottom: "inception_3b/3x3_reduce"
top: "inception_3b/3x3"
param {
lr_mult: 1
decay_mult: 1
}
param {
lr_mult: 2
decay_mult: 0
}
convolution_param {
num_output: 192
pad: 1
kernel_size: 3
weight_filler {
type: "xavier"
std: 0.03
}
bias_filler {
type: "constant"
value: 0.2
}
}
}
layer {
name: "inception_3b/relu_3x3"
type: "ReLU"
bottom: "inception_3b/3x3"
top: "inception_3b/3x3"
}
layer {
name: "inception_3b/5x5_reduce"
type: "Convolution"
bottom: "inception_3a/output"
top: "inception_3b/5x5_reduce"
param {
lr_mult: 1
decay_mult: 1
}
param {
lr_mult: 2
decay_mult: 0
}
convolution_param {
num_output: 32
kernel_size: 1
weight_filler {
type: "xavier"
std: 0.2
}
bias_filler {
type: "constant"
value: 0.2
}
}
}
layer {
name: "inception_3b/relu_5x5_reduce"
type: "ReLU"
bottom: "inception_3b/5x5_reduce"
top: "inception_3b/5x5_reduce"
}
layer {
name: "inception_3b/5x5"
type: "Convolution"
bottom: "inception_3b/5x5_reduce"
top: "inception_3b/5x5"
param {
lr_mult: 1
decay_mult: 1
}
param {
lr_mult: 2
decay_mult: 0
}
convolution_param {
num_output: 96
pad: 2
kernel_size: 5
weight_filler {
type: "xavier"
std: 0.03
}
bias_filler {
type: "constant"
value: 0.2
}
}
}
layer {
name: "inception_3b/relu_5x5"
type: "ReLU"
bottom: "inception_3b/5x5"
top: "inception_3b/5x5"
}
layer {
name: "inception_3b/pool"
type: "Pooling"
bottom: "inception_3a/output"
top: "inception_3b/pool"
pooling_param {
pool: MAX
kernel_size: 3
stride: 1
pad: 1
}
}
layer {
name: "inception_3b/pool_proj"
type: "Convolution"
bottom: "inception_3b/pool"
top: "inception_3b/pool_proj"
param {
lr_mult: 1
decay_mult: 1
}
param {
lr_mult: 2
decay_mult: 0
}
convolution_param {
num_output: 64
kernel_size: 1
weight_filler {
type: "xavier"
std: 0.1
}
bias_filler {
type: "constant"
value: 0.2
}
}
}
layer {
name: "inception_3b/relu_pool_proj"
type: "ReLU"
bottom: "inception_3b/pool_proj"
top: "inception_3b/pool_proj"
}
layer {
name: "inception_3b/output"
type: "Concat"
bottom: "inception_3b/1x1"
bottom: "inception_3b/3x3"
bottom: "inception_3b/5x5"
bottom: "inception_3b/pool_proj"
top: "inception_3b/output"
}
layer {
name: "pool3/3x3_s2"
type: "Pooling"
bottom: "inception_3b/output"
top: "pool3/3x3_s2"
pooling_param {
pool: MAX
kernel_size: 3
stride: 2
}
}
layer {
name: "inception_4a/1x1"
type: "Convolution"
bottom: "pool3/3x3_s2"
top: "inception_4a/1x1"
param {
lr_mult: 1
decay_mult: 1
}
param {
lr_mult: 2
decay_mult: 0
}
convolution_param {
num_output: 192
kernel_size: 1
weight_filler {
type: "xavier"
std: 0.03
}
bias_filler {
type: "constant"
value: 0.2
}
}
}
layer {
name: "inception_4a/relu_1x1"
type: "ReLU"
bottom: "inception_4a/1x1"
top: "inception_4a/1x1"
}
layer {
name: "inception_4a/3x3_reduce"
type: "Convolution"
bottom: "pool3/3x3_s2"
top: "inception_4a/3x3_reduce"
param {
lr_mult: 1
decay_mult: 1
}
param {
lr_mult: 2
decay_mult: 0
}
convolution_param {
num_output: 96
kernel_size: 1
weight_filler {
type: "xavier"
std: 0.09
}
bias_filler {
type: "constant"
value: 0.2
}
}
}
layer {
name: "inception_4a/relu_3x3_reduce"
type: "ReLU"
bottom: "inception_4a/3x3_reduce"
top: "inception_4a/3x3_reduce"
}
layer {
name: "inception_4a/3x3"
type: "Convolution"
bottom: "inception_4a/3x3_reduce"
top: "inception_4a/3x3"
param {
lr_mult: 1
decay_mult: 1
}
param {
lr_mult: 2
decay_mult: 0
}
convolution_param {
num_output: 208
pad: 1
kernel_size: 3
weight_filler {
type: "xavier"
std: 0.03
}
bias_filler {
type: "constant"
value: 0.2
}
}
}
layer {
name: "inception_4a/relu_3x3"
type: "ReLU"
bottom: "inception_4a/3x3"
top: "inception_4a/3x3"
}
layer {
name: "inception_4a/5x5_reduce"
type: "Convolution"
bottom: "pool3/3x3_s2"
top: "inception_4a/5x5_reduce"
param {
lr_mult: 1
decay_mult: 1
}
param {
lr_mult: 2
decay_mult: 0
}
convolution_param {
num_output: 16
kernel_size: 1
weight_filler {
type: "xavier"
std: 0.2
}
bias_filler {
type: "constant"
value: 0.2
}
}
}
layer {
name: "inception_4a/relu_5x5_reduce"
type: "ReLU"
bottom: "inception_4a/5x5_reduce"
top: "inception_4a/5x5_reduce"
}
layer {
name: "inception_4a/5x5"
type: "Convolution"
bottom: "inception_4a/5x5_reduce"
top: "inception_4a/5x5"
param {
lr_mult: 1
decay_mult: 1
}
param {
lr_mult: 2
decay_mult: 0
}
convolution_param {
num_output: 48
pad: 2
kernel_size: 5
weight_filler {
type: "xavier"
std: 0.03
}
bias_filler {
type: "constant"
value: 0.2
}
}
}
layer {
name: "inception_4a/relu_5x5"
type: "ReLU"
bottom: "inception_4a/5x5"
top: "inception_4a/5x5"
}
layer {
name: "inception_4a/pool"
type: "Pooling"
bottom: "pool3/3x3_s2"
top: "inception_4a/pool"
pooling_param {
pool: MAX
kernel_size: 3
stride: 1
pad: 1
}
}
layer {
name: "inception_4a/pool_proj"
type: "Convolution"
bottom: "inception_4a/pool"
top: "inception_4a/pool_proj"
param {
lr_mult: 1
decay_mult: 1
}
param {
lr_mult: 2
decay_mult: 0
}
convolution_param {
num_output: 64
kernel_size: 1
weight_filler {
type: "xavier"
std: 0.1
}
bias_filler {
type: "constant"
value: 0.2
}
}
}
layer {
name: "inception_4a/relu_pool_proj"
type: "ReLU"
bottom: "inception_4a/pool_proj"
top: "inception_4a/pool_proj"
}
layer {
name: "inception_4a/output"
type: "Concat"
bottom: "inception_4a/1x1"
bottom: "inception_4a/3x3"
bottom: "inception_4a/5x5"
bottom: "inception_4a/pool_proj"
top: "inception_4a/output"
}
layer {
name: "loss1/ave_pool"
type: "Pooling"
bottom: "inception_4a/output"
top: "loss1/ave_pool"
pooling_param {
pool: AVE
kernel_size: 5
stride: 3
}
}
layer {
name: "loss1/conv"
type: "Convolution"
bottom: "loss1/ave_pool"
top: "loss1/conv"
param {
lr_mult: 1
decay_mult: 1
}
param {
lr_mult: 2
decay_mult: 0
}
convolution_param {
num_output: 128
kernel_size: 1
weight_filler {
type: "xavier"
std: 0.08
}
bias_filler {
type: "constant"
value: 0.2
}
}
}
layer {
name: "loss1/relu_conv"
type: "ReLU"
bottom: "loss1/conv"
top: "loss1/conv"
}
layer {
name: "loss1/fc"
type: "InnerProduct"
bottom: "loss1/conv"
top: "loss1/fc"
param {
lr_mult: 1
decay_mult: 1
}
param {
lr_mult: 2
decay_mult: 0
}
inner_product_param {
num_output: 1024
weight_filler {
type: "xavier"
std: 0.02
}
bias_filler {
type: "constant"
value: 0.2
}
}
}
layer {
name: "loss1/relu_fc"
type: "ReLU"
bottom: "loss1/fc"
top: "loss1/fc"
}
layer {
name: "loss1/drop_fc"
type: "Dropout"
bottom: "loss1/fc"
top: "loss1/fc"
dropout_param {
dropout_ratio: 0.7
}
}
layer {
name: "loss1/classifier"
type: "InnerProduct"
bottom: "loss1/fc"
top: "loss1/classifier"
param {
lr_mult: 1
decay_mult: 1
}
param {
lr_mult: 2
decay_mult: 0
}
inner_product_param {
num_output: 3
weight_filler {
type: "xavier"
std: 0.0009765625
}
bias_filler {
type: "constant"
value: 0
}
}
}
layer {
name: "loss1/loss"
type: "SoftmaxWithLoss"
bottom: "loss1/classifier"
bottom: "label"
top: "loss1/loss"
loss_weight: 0.3
}
layer {
name: "inception_4b/1x1"
type: "Convolution"
bottom: "inception_4a/output"
top: "inception_4b/1x1"
param {
lr_mult: 1
decay_mult: 1
}
param {
lr_mult: 2
decay_mult: 0
}
convolution_param {
num_output: 160
kernel_size: 1
weight_filler {
type: "xavier"
std: 0.03
}
bias_filler {
type: "constant"
value: 0.2
}
}
}
layer {
name: "inception_4b/relu_1x1"
type: "ReLU"
bottom: "inception_4b/1x1"
top: "inception_4b/1x1"
}
layer {
name: "inception_4b/3x3_reduce"
type: "Convolution"
bottom: "inception_4a/output"
top: "inception_4b/3x3_reduce"
param {
lr_mult: 1
decay_mult: 1
}
param {
lr_mult: 2
decay_mult: 0
}
convolution_param {
num_output: 112
kernel_size: 1
weight_filler {
type: "xavier"
std: 0.09
}
bias_filler {
type: "constant"
value: 0.2
}
}
}
layer {
name: "inception_4b/relu_3x3_reduce"
type: "ReLU"
bottom: "inception_4b/3x3_reduce"
top: "inception_4b/3x3_reduce"
}
layer {
name: "inception_4b/3x3"
type: "Convolution"
bottom: "inception_4b/3x3_reduce"
top: "inception_4b/3x3"
param {
lr_mult: 1
decay_mult: 1
}
param {
lr_mult: 2
decay_mult: 0
}
convolution_param {
num_output: 224
pad: 1
kernel_size: 3
weight_filler {
type: "xavier"
std: 0.03
}
bias_filler {
type: "constant"
value: 0.2
}
}
}
layer {
name: "inception_4b/relu_3x3"
type: "ReLU"
bottom: "inception_4b/3x3"
top: "inception_4b/3x3"
}
layer {
name: "inception_4b/5x5_reduce"
type: "Convolution"
bottom: "inception_4a/output"
top: "inception_4b/5x5_reduce"
param {
lr_mult: 1
decay_mult: 1
}
param {
lr_mult: 2
decay_mult: 0
}
convolution_param {
num_output: 24
kernel_size: 1
weight_filler {
type: "xavier"
std: 0.2
}
bias_filler {
type: "constant"
value: 0.2
}
}
}
layer {
name: "inception_4b/relu_5x5_reduce"
type: "ReLU"
bottom: "inception_4b/5x5_reduce"
top: "inception_4b/5x5_reduce"
}
layer {
name: "inception_4b/5x5"
type: "Convolution"
bottom: "inception_4b/5x5_reduce"
top: "inception_4b/5x5"
param {
lr_mult: 1
decay_mult: 1
}
param {
lr_mult: 2
decay_mult: 0
}
convolution_param {
num_output: 64
pad: 2
kernel_size: 5
weight_filler {
type: "xavier"
std: 0.03
}
bias_filler {
type: "constant"
value: 0.2
}
}
}
layer {
name: "inception_4b/relu_5x5"
type: "ReLU"
bottom: "inception_4b/5x5"
top: "inception_4b/5x5"
}
layer {
name: "inception_4b/pool"
type: "Pooling"
bottom: "inception_4a/output"
top: "inception_4b/pool"
pooling_param {
pool: MAX
kernel_size: 3
stride: 1
pad: 1
}
}
layer {
name: "inception_4b/pool_proj"
type: "Convolution"
bottom: "inception_4b/pool"
top: "inception_4b/pool_proj"
param {
lr_mult: 1
decay_mult: 1
}
param {
lr_mult: 2
decay_mult: 0
}
convolution_param {
num_output: 64
kernel_size: 1
weight_filler {
type: "xavier"
std: 0.1
}
bias_filler {
type: "constant"
value: 0.2
}
}
}
layer {
name: "inception_4b/relu_pool_proj"
type: "ReLU"
bottom: "inception_4b/pool_proj"
top: "inception_4b/pool_proj"
}
layer {
name: "inception_4b/output"
type: "Concat"
bottom: "inception_4b/1x1"
bottom: "inception_4b/3x3"
bottom: "inception_4b/5x5"
bottom: "inception_4b/pool_proj"
top: "inception_4b/output"
}
layer {
name: "inception_4c/1x1"
type: "Convolution"
bottom: "inception_4b/output"
top: "inception_4c/1x1"
param {
lr_mult: 1
decay_mult: 1
}
param {
lr_mult: 2
decay_mult: 0
}
convolution_param {
num_output: 128
kernel_size: 1
weight_filler {
type: "xavier"
std: 0.03
}
bias_filler {
type: "constant"
value: 0.2
}
}
}
layer {
name: "inception_4c/relu_1x1"
type: "ReLU"
bottom: "inception_4c/1x1"
top: "inception_4c/1x1"
}
layer {
name: "inception_4c/3x3_reduce"
type: "Convolution"
bottom: "inception_4b/output"
top: "inception_4c/3x3_reduce"
param {
lr_mult: 1
decay_mult: 1
}
param {
lr_mult: 2
decay_mult: 0
}
convolution_param {
num_output: 128
kernel_size: 1
weight_filler {
type: "xavier"
std: 0.09
}
bias_filler {
type: "constant"
value: 0.2
}
}
}
layer {
name: "inception_4c/relu_3x3_reduce"
type: "ReLU"
bottom: "inception_4c/3x3_reduce"
top: "inception_4c/3x3_reduce"
}
layer {
name: "inception_4c/3x3"
type: "Convolution"
bottom: "inception_4c/3x3_reduce"
top: "inception_4c/3x3"
param {
lr_mult: 1
decay_mult: 1
}
param {
lr_mult: 2
decay_mult: 0
}
convolution_param {
num_output: 256
pad: 1
kernel_size: 3
weight_filler {
type: "xavier"
std: 0.03
}
bias_filler {
type: "constant"
value: 0.2
}
}
}
layer {
name: "inception_4c/relu_3x3"
type: "ReLU"
bottom: "inception_4c/3x3"
top: "inception_4c/3x3"
}
layer {
name: "inception_4c/5x5_reduce"
type: "Convolution"
bottom: "inception_4b/output"
top: "inception_4c/5x5_reduce"
param {
lr_mult: 1
decay_mult: 1
}
param {
lr_mult: 2
decay_mult: 0
}
convolution_param {
num_output: 24
kernel_size: 1
weight_filler {
type: "xavier"
std: 0.2
}
bias_filler {
type: "constant"
value: 0.2
}
}
}
layer {
name: "inception_4c/relu_5x5_reduce"
type: "ReLU"
bottom: "inception_4c/5x5_reduce"
top: "inception_4c/5x5_reduce"
}
layer {
name: "inception_4c/5x5"
type: "Convolution"
bottom: "inception_4c/5x5_reduce"
top: "inception_4c/5x5"
param {
lr_mult: 1
decay_mult: 1
}
param {
lr_mult: 2
decay_mult: 0
}
convolution_param {
num_output: 64
pad: 2
kernel_size: 5
weight_filler {
type: "xavier"
std: 0.03
}
bias_filler {
type: "constant"
value: 0.2
}
}
}
layer {
name: "inception_4c/relu_5x5"
type: "ReLU"
bottom: "inception_4c/5x5"
top: "inception_4c/5x5"
}
layer {
name: "inception_4c/pool"
type: "Pooling"
bottom: "inception_4b/output"
top: "inception_4c/pool"
pooling_param {
pool: MAX
kernel_size: 3
stride: 1
pad: 1
}
}
layer {
name: "inception_4c/pool_proj"
type: "Convolution"
bottom: "inception_4c/pool"
top: "inception_4c/pool_proj"
param {
lr_mult: 1
decay_mult: 1
}
param {
lr_mult: 2
decay_mult: 0
}
convolution_param {
num_output: 64
kernel_size: 1
weight_filler {
type: "xavier"
std: 0.1
}
bias_filler {
type: "constant"
value: 0.2
}
}
}
layer {
name: "inception_4c/relu_pool_proj"
type: "ReLU"
bottom: "inception_4c/pool_proj"
top: "inception_4c/pool_proj"
}
layer {
name: "inception_4c/output"
type: "Concat"
bottom: "inception_4c/1x1"
bottom: "inception_4c/3x3"
bottom: "inception_4c/5x5"
bottom: "inception_4c/pool_proj"
top: "inception_4c/output"
}
layer {
name: "inception_4d/1x1"
type: "Convolution"
bottom: "inception_4c/output"
top: "inception_4d/1x1"
param {
lr_mult: 1
decay_mult: 1
}
param {
lr_mult: 2
decay_mult: 0
}
convolution_param {
num_output: 112
kernel_size: 1
weight_filler {
type: "xavier"
std: 0.03
}
bias_filler {
type: "constant"
value: 0.2
}
}
}
layer {
name: "inception_4d/relu_1x1"
type: "ReLU"
bottom: "inception_4d/1x1"
top: "inception_4d/1x1"
}
layer {
name: "inception_4d/3x3_reduce"
type: "Convolution"
bottom: "inception_4c/output"
top: "inception_4d/3x3_reduce"
param {
lr_mult: 1
decay_mult: 1
}
param {
lr_mult: 2
decay_mult: 0
}
convolution_param {
num_output: 144
kernel_size: 1
weight_filler {
type: "xavier"
std: 0.09
}
bias_filler {
type: "constant"
value: 0.2
}
}
}
layer {
name: "inception_4d/relu_3x3_reduce"
type: "ReLU"
bottom: "inception_4d/3x3_reduce"
top: "inception_4d/3x3_reduce"
}
layer {
name: "inception_4d/3x3"
type: "Convolution"
bottom: "inception_4d/3x3_reduce"
top: "inception_4d/3x3"
param {
lr_mult: 1
decay_mult: 1
}
param {
lr_mult: 2
decay_mult: 0
}
convolution_param {
num_output: 288
pad: 1
kernel_size: 3
weight_filler {
type: "xavier"
std: 0.03
}
bias_filler {
type: "constant"
value: 0.2
}
}
}
layer {
name: "inception_4d/relu_3x3"
type: "ReLU"
bottom: "inception_4d/3x3"
top: "inception_4d/3x3"
}
layer {
name: "inception_4d/5x5_reduce"
type: "Convolution"
bottom: "inception_4c/output"
top: "inception_4d/5x5_reduce"
param {
lr_mult: 1
decay_mult: 1
}
param {
lr_mult: 2
decay_mult: 0
}
convolution_param {
num_output: 32
kernel_size: 1
weight_filler {
type: "xavier"
std: 0.2
}
bias_filler {
type: "constant"
value: 0.2
}
}
}
layer {
name: "inception_4d/relu_5x5_reduce"
type: "ReLU"
bottom: "inception_4d/5x5_reduce"
top: "inception_4d/5x5_reduce"
}
layer {
name: "inception_4d/5x5"
type: "Convolution"
bottom: "inception_4d/5x5_reduce"
top: "inception_4d/5x5"
param {
lr_mult: 1
decay_mult: 1
}
param {
lr_mult: 2
decay_mult: 0
}
convolution_param {
num_output: 64
pad: 2
kernel_size: 5
weight_filler {
type: "xavier"
std: 0.03
}
bias_filler {
type: "constant"
value: 0.2
}
}
}
layer {
name: "inception_4d/relu_5x5"
type: "ReLU"
bottom: "inception_4d/5x5"
top: "inception_4d/5x5"
}
layer {
name: "inception_4d/pool"
type: "Pooling"
bottom: "inception_4c/output"
top: "inception_4d/pool"
pooling_param {
pool: MAX
kernel_size: 3
stride: 1
pad: 1
}
}
layer {
name: "inception_4d/pool_proj"
type: "Convolution"
bottom: "inception_4d/pool"
top: "inception_4d/pool_proj"
param {
lr_mult: 1
decay_mult: 1
}
param {
lr_mult: 2
decay_mult: 0
}
convolution_param {
num_output: 64
kernel_size: 1
weight_filler {
type: "xavier"
std: 0.1
}
bias_filler {
type: "constant"
value: 0.2
}
}
}
layer {
name: "inception_4d/relu_pool_proj"
type: "ReLU"
bottom: "inception_4d/pool_proj"
top: "inception_4d/pool_proj"
}
layer {
name: "inception_4d/output"
type: "Concat"
bottom: "inception_4d/1x1"
bottom: "inception_4d/3x3"
bottom: "inception_4d/5x5"
bottom: "inception_4d/pool_proj"
top: "inception_4d/output"
}
layer {
name: "loss2/ave_pool"
type: "Pooling"
bottom: "inception_4d/output"
top: "loss2/ave_pool"
pooling_param {
pool: AVE
kernel_size: 5
stride: 3
}
}
layer {
name: "loss2/conv"
type: "Convolution"
bottom: "loss2/ave_pool"
top: "loss2/conv"
param {
lr_mult: 1
decay_mult: 1
}
param {
lr_mult: 2
decay_mult: 0
}
convolution_param {
num_output: 128
kernel_size: 1
weight_filler {
type: "xavier"
std: 0.08
}
bias_filler {
type: "constant"
value: 0.2
}
}
}
layer {
name: "loss2/relu_conv"
type: "ReLU"
bottom: "loss2/conv"
top: "loss2/conv"
}
layer {
name: "loss2/fc"
type: "InnerProduct"
bottom: "loss2/conv"
top: "loss2/fc"
param {
lr_mult: 1
decay_mult: 1
}
param {
lr_mult: 2
decay_mult: 0
}
inner_product_param {
num_output: 1024
weight_filler {
type: "xavier"
std: 0.02
}
bias_filler {
type: "constant"
value: 0.2
}
}
}
layer {
name: "loss2/relu_fc"
type: "ReLU"
bottom: "loss2/fc"
top: "loss2/fc"
}
layer {
name: "loss2/drop_fc"
type: "Dropout"
bottom: "loss2/fc"
top: "loss2/fc"
dropout_param {
dropout_ratio: 0.7
}
}
layer {
name: "loss2/classifier"
type: "InnerProduct"
bottom: "loss2/fc"
top: "loss2/classifier"
param {
lr_mult: 1
decay_mult: 1
}
param {
lr_mult: 2
decay_mult: 0
}
inner_product_param {
num_output: 3
weight_filler {
type: "xavier"
std: 0.0009765625
}
bias_filler {
type: "constant"
value: 0
}
}
}
layer {
name: "loss2/loss"
type: "SoftmaxWithLoss"
bottom: "loss2/classifier"
bottom: "label"
top: "loss2/loss"
loss_weight: 0.3
}
layer {
name: "inception_4e/1x1"
type: "Convolution"
bottom: "inception_4d/output"
top: "inception_4e/1x1"
param {
lr_mult: 1
decay_mult: 1
}
param {
lr_mult: 2
decay_mult: 0
}
convolution_param {
num_output: 256
kernel_size: 1
weight_filler {
type: "xavier"
std: 0.03
}
bias_filler {
type: "constant"
value: 0.2
}
}
}
layer {
name: "inception_4e/relu_1x1"
type: "ReLU"
bottom: "inception_4e/1x1"
top: "inception_4e/1x1"
}
layer {
name: "inception_4e/3x3_reduce"
type: "Convolution"
bottom: "inception_4d/output"
top: "inception_4e/3x3_reduce"
param {
lr_mult: 1
decay_mult: 1
}
param {
lr_mult: 2
decay_mult: 0
}
convolution_param {
num_output: 160
kernel_size: 1
weight_filler {
type: "xavier"
std: 0.09
}
bias_filler {
type: "constant"
value: 0.2
}
}
}
layer {
name: "inception_4e/relu_3x3_reduce"
type: "ReLU"
bottom: "inception_4e/3x3_reduce"
top: "inception_4e/3x3_reduce"
}
layer {
name: "inception_4e/3x3"
type: "Convolution"
bottom: "inception_4e/3x3_reduce"
top: "inception_4e/3x3"
param {
lr_mult: 1
decay_mult: 1
}
param {
lr_mult: 2
decay_mult: 0
}
convolution_param {
num_output: 320
pad: 1
kernel_size: 3
weight_filler {
type: "xavier"
std: 0.03
}
bias_filler {
type: "constant"
value: 0.2
}
}
}
layer {
name: "inception_4e/relu_3x3"
type: "ReLU"
bottom: "inception_4e/3x3"
top: "inception_4e/3x3"
}
layer {
name: "inception_4e/5x5_reduce"
type: "Convolution"
bottom: "inception_4d/output"
top: "inception_4e/5x5_reduce"
param {
lr_mult: 1
decay_mult: 1
}
param {
lr_mult: 2
decay_mult: 0
}
convolution_param {
num_output: 32
kernel_size: 1
weight_filler {
type: "xavier"
std: 0.2
}
bias_filler {
type: "constant"
value: 0.2
}
}
}
layer {
name: "inceptio
I0412 06:14:27.087755   410 layer_factory.hpp:77] Creating layer train-data
I0412 06:14:27.088246   410 net.cpp:94] Creating Layer train-data
I0412 06:14:27.088263   410 net.cpp:409] train-data -> data
I0412 06:14:27.088292   410 net.cpp:409] train-data -> label
I0412 06:14:27.088313   410 data_transformer.cpp:25] Loading mean file from: /opt/DIGITS/digits/jobs/20180412-060316-1124/mean.binaryproto
I0412 06:14:27.089121   413 db_lmdb.cpp:35] Opened lmdb /opt/DIGITS/digits/jobs/20180412-060316-1124/train_db
I0412 06:14:27.097374   410 data_layer.cpp:78] ReshapePrefetch 32, 3, 224, 224
I0412 06:14:27.097434   410 data_layer.cpp:83] output data size: 32,3,224,224
I0412 06:14:27.133312   410 net.cpp:144] Setting up train-data
I0412 06:14:27.133399   410 net.cpp:151] Top shape: 32 3 224 224 (4816896)
I0412 06:14:27.133405   410 net.cpp:151] Top shape: 32 (32)
I0412 06:14:27.133440   410 net.cpp:159] Memory required for data: 19267712
I0412 06:14:27.133456   410 layer_factory.hpp:77] Creating layer label_train-data_1_split
I0412 06:14:27.133494   410 net.cpp:94] Creating Layer label_train-data_1_split
I0412 06:14:27.133504   410 net.cpp:435] label_train-data_1_split <- label
I0412 06:14:27.133522   410 net.cpp:409] label_train-data_1_split -> label_train-data_1_split_0
I0412 06:14:27.133536   410 net.cpp:409] label_train-data_1_split -> label_train-data_1_split_1
I0412 06:14:27.133545   410 net.cpp:409] label_train-data_1_split -> label_train-data_1_split_2
I0412 06:14:27.133661   410 net.cpp:144] Setting up label_train-data_1_split
I0412 06:14:27.133671   410 net.cpp:151] Top shape: 32 (32)
I0412 06:14:27.133677   410 net.cpp:151] Top shape: 32 (32)
I0412 06:14:27.133683   410 net.cpp:151] Top shape: 32 (32)
I0412 06:14:27.133688   410 net.cpp:159] Memory required for data: 19268096
I0412 06:14:27.133694   410 layer_factory.hpp:77] Creating layer conv1/7x7_s2
I0412 06:14:27.133718   410 net.cpp:94] Creating Layer conv1/7x7_s2
I0412 06:14:27.133723   410 net.cpp:435] conv1/7x7_s2 <- data
I0412 06:14:27.133733   410 net.cpp:409] conv1/7x7_s2 -> conv1/7x7_s2
I0412 06:14:27.135267   410 net.cpp:144] Setting up conv1/7x7_s2
I0412 06:14:27.135283   410 net.cpp:151] Top shape: 32 64 112 112 (25690112)
I0412 06:14:27.135295   410 net.cpp:159] Memory required for data: 122028544
I0412 06:14:27.135316   410 layer_factory.hpp:77] Creating layer conv1/relu_7x7
I0412 06:14:27.135329   410 net.cpp:94] Creating Layer conv1/relu_7x7
I0412 06:14:27.135335   410 net.cpp:435] conv1/relu_7x7 <- conv1/7x7_s2
I0412 06:14:27.135359   410 net.cpp:396] conv1/relu_7x7 -> conv1/7x7_s2 (in-place)
I0412 06:14:27.135380   410 net.cpp:144] Setting up conv1/relu_7x7
I0412 06:14:27.135386   410 net.cpp:151] Top shape: 32 64 112 112 (25690112)
I0412 06:14:27.135407   410 net.cpp:159] Memory required for data: 224788992
I0412 06:14:27.135413   410 layer_factory.hpp:77] Creating layer pool1/3x3_s2
I0412 06:14:27.135426   410 net.cpp:94] Creating Layer pool1/3x3_s2
I0412 06:14:27.135432   410 net.cpp:435] pool1/3x3_s2 <- conv1/7x7_s2
I0412 06:14:27.135454   410 net.cpp:409] pool1/3x3_s2 -> pool1/3x3_s2
I0412 06:14:27.135506   410 net.cpp:144] Setting up pool1/3x3_s2
I0412 06:14:27.135515   410 net.cpp:151] Top shape: 32 64 56 56 (6422528)
I0412 06:14:27.135521   410 net.cpp:159] Memory required for data: 250479104
I0412 06:14:27.135527   410 layer_factory.hpp:77] Creating layer pool1/norm1
I0412 06:14:27.135540   410 net.cpp:94] Creating Layer pool1/norm1
I0412 06:14:27.135546   410 net.cpp:435] pool1/norm1 <- pool1/3x3_s2
I0412 06:14:27.135555   410 net.cpp:409] pool1/norm1 -> pool1/norm1
I0412 06:14:27.135596   410 net.cpp:144] Setting up pool1/norm1
I0412 06:14:27.135604   410 net.cpp:151] Top shape: 32 64 56 56 (6422528)
I0412 06:14:27.135610   410 net.cpp:159] Memory required for data: 276169216
I0412 06:14:27.135615   410 layer_factory.hpp:77] Creating layer conv2/3x3_reduce
I0412 06:14:27.135629   410 net.cpp:94] Creating Layer conv2/3x3_reduce
I0412 06:14:27.135635   410 net.cpp:435] conv2/3x3_reduce <- pool1/norm1
I0412 06:14:27.135644   410 net.cpp:409] conv2/3x3_reduce -> conv2/3x3_reduce
I0412 06:14:27.136550   410 net.cpp:144] Setting up conv2/3x3_reduce
I0412 06:14:27.136566   410 net.cpp:151] Top shape: 32 64 56 56 (6422528)
I0412 06:14:27.136587   410 net.cpp:159] Memory required for data: 301859328
I0412 06:14:27.136600   410 layer_factory.hpp:77] Creating layer conv2/relu_3x3_reduce
I0412 06:14:27.136610   410 net.cpp:94] Creating Layer conv2/relu_3x3_reduce
I0412 06:14:27.136615   410 net.cpp:435] conv2/relu_3x3_reduce <- conv2/3x3_reduce
I0412 06:14:27.136624   410 net.cpp:396] conv2/relu_3x3_reduce -> conv2/3x3_reduce (in-place)
I0412 06:14:27.136634   410 net.cpp:144] Setting up conv2/relu_3x3_reduce
I0412 06:14:27.136641   410 net.cpp:151] Top shape: 32 64 56 56 (6422528)
I0412 06:14:27.136647   410 net.cpp:159] Memory required for data: 327549440
I0412 06:14:27.136652   410 layer_factory.hpp:77] Creating layer conv2/3x3
I0412 06:14:27.136699   410 net.cpp:94] Creating Layer conv2/3x3
I0412 06:14:27.136705   410 net.cpp:435] conv2/3x3 <- conv2/3x3_reduce
I0412 06:14:27.136729   410 net.cpp:409] conv2/3x3 -> conv2/3x3
I0412 06:14:27.140867   410 net.cpp:144] Setting up conv2/3x3
I0412 06:14:27.140884   410 net.cpp:151] Top shape: 32 192 56 56 (19267584)
I0412 06:14:27.140890   410 net.cpp:159] Memory required for data: 404619776
I0412 06:14:27.140902   410 layer_factory.hpp:77] Creating layer conv2/relu_3x3
I0412 06:14:27.140928   410 net.cpp:94] Creating Layer conv2/relu_3x3
I0412 06:14:27.140934   410 net.cpp:435] conv2/relu_3x3 <- conv2/3x3
I0412 06:14:27.140944   410 net.cpp:396] conv2/relu_3x3 -> conv2/3x3 (in-place)
I0412 06:14:27.140954   410 net.cpp:144] Setting up conv2/relu_3x3
I0412 06:14:27.140961   410 net.cpp:151] Top shape: 32 192 56 56 (19267584)
I0412 06:14:27.140966   410 net.cpp:159] Memory required for data: 481690112
I0412 06:14:27.140972   410 layer_factory.hpp:77] Creating layer conv2/norm2
I0412 06:14:27.140981   410 net.cpp:94] Creating Layer conv2/norm2
I0412 06:14:27.140987   410 net.cpp:435] conv2/norm2 <- conv2/3x3
I0412 06:14:27.140995   410 net.cpp:409] conv2/norm2 -> conv2/norm2
I0412 06:14:27.141034   410 net.cpp:144] Setting up conv2/norm2
I0412 06:14:27.141042   410 net.cpp:151] Top shape: 32 192 56 56 (19267584)
I0412 06:14:27.141047   410 net.cpp:159] Memory required for data: 558760448
I0412 06:14:27.141053   410 layer_factory.hpp:77] Creating layer pool2/3x3_s2
I0412 06:14:27.141062   410 net.cpp:94] Creating Layer pool2/3x3_s2
I0412 06:14:27.141069   410 net.cpp:435] pool2/3x3_s2 <- conv2/norm2
I0412 06:14:27.141077   410 net.cpp:409] pool2/3x3_s2 -> pool2/3x3_s2
I0412 06:14:27.141110   410 net.cpp:144] Setting up pool2/3x3_s2
I0412 06:14:27.141119   410 net.cpp:151] Top shape: 32 192 28 28 (4816896)
I0412 06:14:27.141124   410 net.cpp:159] Memory required for data: 578028032
I0412 06:14:27.141129   410 layer_factory.hpp:77] Creating layer pool2/3x3_s2_pool2/3x3_s2_0_split
I0412 06:14:27.141139   410 net.cpp:94] Creating Layer pool2/3x3_s2_pool2/3x3_s2_0_split
I0412 06:14:27.141145   410 net.cpp:435] pool2/3x3_s2_pool2/3x3_s2_0_split <- pool2/3x3_s2
I0412 06:14:27.141155   410 net.cpp:409] pool2/3x3_s2_pool2/3x3_s2_0_split -> pool2/3x3_s2_pool2/3x3_s2_0_split_0
I0412 06:14:27.141163   410 net.cpp:409] pool2/3x3_s2_pool2/3x3_s2_0_split -> pool2/3x3_s2_pool2/3x3_s2_0_split_1
I0412 06:14:27.141172   410 net.cpp:409] pool2/3x3_s2_pool2/3x3_s2_0_split -> pool2/3x3_s2_pool2/3x3_s2_0_split_2
I0412 06:14:27.141180   410 net.cpp:409] pool2/3x3_s2_pool2/3x3_s2_0_split -> pool2/3x3_s2_pool2/3x3_s2_0_split_3
I0412 06:14:27.141233   410 net.cpp:144] Setting up pool2/3x3_s2_pool2/3x3_s2_0_split
I0412 06:14:27.141242   410 net.cpp:151] Top shape: 32 192 28 28 (4816896)
I0412 06:14:27.141247   410 net.cpp:151] Top shape: 32 192 28 28 (4816896)
I0412 06:14:27.141253   410 net.cpp:151] Top shape: 32 192 28 28 (4816896)
I0412 06:14:27.141260   410 net.cpp:151] Top shape: 32 192 28 28 (4816896)
I0412 06:14:27.141265   410 net.cpp:159] Memory required for data: 655098368
I0412 06:14:27.141271   410 layer_factory.hpp:77] Creating layer inception_3a/1x1
I0412 06:14:27.141283   410 net.cpp:94] Creating Layer inception_3a/1x1
I0412 06:14:27.141288   410 net.cpp:435] inception_3a/1x1 <- pool2/3x3_s2_pool2/3x3_s2_0_split_0
I0412 06:14:27.141299   410 net.cpp:409] inception_3a/1x1 -> inception_3a/1x1
I0412 06:14:27.154628   410 net.cpp:144] Setting up inception_3a/1x1
I0412 06:14:27.154652   410 net.cpp:151] Top shape: 32 64 28 28 (1605632)
I0412 06:14:27.154659   410 net.cpp:159] Memory required for data: 661520896
I0412 06:14:27.154667   410 layer_factory.hpp:77] Creating layer inception_3a/relu_1x1
I0412 06:14:27.154678   410 net.cpp:94] Creating Layer inception_3a/relu_1x1
I0412 06:14:27.154685   410 net.cpp:435] inception_3a/relu_1x1 <- inception_3a/1x1
I0412 06:14:27.154695   410 net.cpp:396] inception_3a/relu_1x1 -> inception_3a/1x1 (in-place)
I0412 06:14:27.154706   410 net.cpp:144] Setting up inception_3a/relu_1x1
I0412 06:14:27.154713   410 net.cpp:151] Top shape: 32 64 28 28 (1605632)
I0412 06:14:27.154718   410 net.cpp:159] Memory required for data: 667943424
I0412 06:14:27.154724   410 layer_factory.hpp:77] Creating layer inception_3a/3x3_reduce
I0412 06:14:27.154736   410 net.cpp:94] Creating Layer inception_3a/3x3_reduce
I0412 06:14:27.154742   410 net.cpp:435] inception_3a/3x3_reduce <- pool2/3x3_s2_pool2/3x3_s2_0_split_1
I0412 06:14:27.154752   410 net.cpp:409] inception_3a/3x3_reduce -> inception_3a/3x3_reduce
I0412 06:14:27.158321   410 net.cpp:144] Setting up inception_3a/3x3_reduce
I0412 06:14:27.158360   410 net.cpp:151] Top shape: 32 96 28 28 (2408448)
I0412 06:14:27.158365   410 net.cpp:159] Memory required for data: 677577216
I0412 06:14:27.158380   410 layer_factory.hpp:77] Creating layer inception_3a/relu_3x3_reduce
I0412 06:14:27.158392   410 net.cpp:94] Creating Layer inception_3a/relu_3x3_reduce
I0412 06:14:27.158399   410 net.cpp:435] inception_3a/relu_3x3_reduce <- inception_3a/3x3_reduce
I0412 06:14:27.158409   410 net.cpp:396] inception_3a/relu_3x3_reduce -> inception_3a/3x3_reduce (in-place)
I0412 06:14:27.158419   410 net.cpp:144] Setting up inception_3a/relu_3x3_reduce
I0412 06:14:27.158427   410 net.cpp:151] Top shape: 32 96 28 28 (2408448)
I0412 06:14:27.158432   410 net.cpp:159] Memory required for data: 687211008
I0412 06:14:27.158438   410 layer_factory.hpp:77] Creating layer inception_3a/3x3
I0412 06:14:27.158458   410 net.cpp:94] Creating Layer inception_3a/3x3
I0412 06:14:27.158464   410 net.cpp:435] inception_3a/3x3 <- inception_3a/3x3_reduce
I0412 06:14:27.158474   410 net.cpp:409] inception_3a/3x3 -> inception_3a/3x3
I0412 06:14:27.159303   410 net.cpp:144] Setting up inception_3a/3x3
I0412 06:14:27.159315   410 net.cpp:151] Top shape: 32 128 28 28 (3211264)
I0412 06:14:27.159322   410 net.cpp:159] Memory required for data: 700056064
I0412 06:14:27.159329   410 layer_factory.hpp:77] Creating layer inception_3a/relu_3x3
I0412 06:14:27.159338   410 net.cpp:94] Creating Layer inception_3a/relu_3x3
I0412 06:14:27.159345   410 net.cpp:435] inception_3a/relu_3x3 <- inception_3a/3x3
I0412 06:14:27.159354   410 net.cpp:396] inception_3a/relu_3x3 -> inception_3a/3x3 (in-place)
I0412 06:14:27.159363   410 net.cpp:144] Setting up inception_3a/relu_3x3
I0412 06:14:27.159370   410 net.cpp:151] Top shape: 32 128 28 28 (3211264)
I0412 06:14:27.159375   410 net.cpp:159] Memory required for data: 712901120
I0412 06:14:27.159381   410 layer_factory.hpp:77] Creating layer inception_3a/5x5_reduce
I0412 06:14:27.159394   410 net.cpp:94] Creating Layer inception_3a/5x5_reduce
I0412 06:14:27.159399   410 net.cpp:435] inception_3a/5x5_reduce <- pool2/3x3_s2_pool2/3x3_s2_0_split_2
I0412 06:14:27.159409   410 net.cpp:409] inception_3a/5x5_reduce -> inception_3a/5x5_reduce
I0412 06:14:27.159636   410 net.cpp:144] Setting up inception_3a/5x5_reduce
I0412 06:14:27.159646   410 net.cpp:151] Top shape: 32 16 28 28 (401408)
I0412 06:14:27.159652   410 net.cpp:159] Memory required for data: 714506752
I0412 06:14:27.159660   410 layer_factory.hpp:77] Creating layer inception_3a/relu_5x5_reduce
I0412 06:14:27.159668   410 net.cpp:94] Creating Layer inception_3a/relu_5x5_reduce
I0412 06:14:27.159675   410 net.cpp:435] inception_3a/relu_5x5_reduce <- inception_3a/5x5_reduce
I0412 06:14:27.159683   410 net.cpp:396] inception_3a/relu_5x5_reduce -> inception_3a/5x5_reduce (in-place)
I0412 06:14:27.159693   410 net.cpp:144] Setting up inception_3a/relu_5x5_reduce
I0412 06:14:27.159698   410 net.cpp:151] Top shape: 32 16 28 28 (401408)
I0412 06:14:27.159704   410 net.cpp:159] Memory required for data: 716112384
I0412 06:14:27.159709   410 layer_factory.hpp:77] Creating layer inception_3a/5x5
I0412 06:14:27.159723   410 net.cpp:94] Creating Layer inception_3a/5x5
I0412 06:14:27.159729   410 net.cpp:435] inception_3a/5x5 <- inception_3a/5x5_reduce
I0412 06:14:27.159737   410 net.cpp:409] inception_3a/5x5 -> inception_3a/5x5
I0412 06:14:27.160027   410 net.cpp:144] Setting up inception_3a/5x5
I0412 06:14:27.160037   410 net.cpp:151] Top shape: 32 32 28 28 (802816)
I0412 06:14:27.160043   410 net.cpp:159] Memory required for data: 719323648
I0412 06:14:27.160049   410 layer_factory.hpp:77] Creating layer inception_3a/relu_5x5
I0412 06:14:27.160058   410 net.cpp:94] Creating Layer inception_3a/relu_5x5
I0412 06:14:27.160064   410 net.cpp:435] inception_3a/relu_5x5 <- inception_3a/5x5
I0412 06:14:27.160073   410 net.cpp:396] inception_3a/relu_5x5 -> inception_3a/5x5 (in-place)
I0412 06:14:27.160080   410 net.cpp:144] Setting up inception_3a/relu_5x5
I0412 06:14:27.160100   410 net.cpp:151] Top shape: 32 32 28 28 (802816)
I0412 06:14:27.160106   410 net.cpp:159] Memory required for data: 722534912
I0412 06:14:27.160111   410 layer_factory.hpp:77] Creating layer inception_3a/pool
I0412 06:14:27.160121   410 net.cpp:94] Creating Layer inception_3a/pool
I0412 06:14:27.160127   410 net.cpp:435] inception_3a/pool <- pool2/3x3_s2_pool2/3x3_s2_0_split_3
I0412 06:14:27.160135   410 net.cpp:409] inception_3a/pool -> inception_3a/pool
I0412 06:14:27.160282   410 net.cpp:144] Setting up inception_3a/pool
I0412 06:14:27.160293   410 net.cpp:151] Top shape: 32 192 28 28 (4816896)
I0412 06:14:27.160323   410 net.cpp:159] Memory required for data: 741802496
I0412 06:14:27.160348   410 layer_factory.hpp:77] Creating layer inception_3a/pool_proj
I0412 06:14:27.160367   410 net.cpp:94] Creating Layer inception_3a/pool_proj
I0412 06:14:27.160377   410 net.cpp:435] inception_3a/pool_proj <- inception_3a/pool
I0412 06:14:27.160392   410 net.cpp:409] inception_3a/pool_proj -> inception_3a/pool_proj
I0412 06:14:27.160645   410 net.cpp:144] Setting up inception_3a/pool_proj
I0412 06:14:27.160676   410 net.cpp:151] Top shape: 32 32 28 28 (802816)
I0412 06:14:27.160681   410 net.cpp:159] Memory required for data: 745013760
I0412 06:14:27.160694   410 layer_factory.hpp:77] Creating layer inception_3a/relu_pool_proj
I0412 06:14:27.160704   410 net.cpp:94] Creating Layer inception_3a/relu_pool_proj
I0412 06:14:27.160711   410 net.cpp:435] inception_3a/relu_pool_proj <- inception_3a/pool_proj
I0412 06:14:27.160719   410 net.cpp:396] inception_3a/relu_pool_proj -> inception_3a/pool_proj (in-place)
I0412 06:14:27.160728   410 net.cpp:144] Setting up inception_3a/relu_pool_proj
I0412 06:14:27.160734   410 net.cpp:151] Top shape: 32 32 28 28 (802816)
I0412 06:14:27.160739   410 net.cpp:159] Memory required for data: 748225024
I0412 06:14:27.160753   410 layer_factory.hpp:77] Creating layer inception_3a/output
I0412 06:14:27.160763   410 net.cpp:94] Creating Layer inception_3a/output
I0412 06:14:27.160768   410 net.cpp:435] inception_3a/output <- inception_3a/1x1
I0412 06:14:27.160775   410 net.cpp:435] inception_3a/output <- inception_3a/3x3
I0412 06:14:27.160781   410 net.cpp:435] inception_3a/output <- inception_3a/5x5
I0412 06:14:27.160802   410 net.cpp:435] inception_3a/output <- inception_3a/pool_proj
I0412 06:14:27.160810   410 net.cpp:409] inception_3a/output -> inception_3a/output
I0412 06:14:27.160838   410 net.cpp:144] Setting up inception_3a/output
I0412 06:14:27.160846   410 net.cpp:151] Top shape: 32 256 28 28 (6422528)
I0412 06:14:27.160851   410 net.cpp:159] Memory required for data: 773915136
I0412 06:14:27.160857   410 layer_factory.hpp:77] Creating layer inception_3a/output_inception_3a/output_0_split
I0412 06:14:27.160868   410 net.cpp:94] Creating Layer inception_3a/output_inception_3a/output_0_split
I0412 06:14:27.160874   410 net.cpp:435] inception_3a/output_inception_3a/output_0_split <- inception_3a/output
I0412 06:14:27.160883   410 net.cpp:409] inception_3a/output_inception_3a/output_0_split -> inception_3a/output_inception_3a/output_0_split_0
I0412 06:14:27.160892   410 net.cpp:409] inception_3a/output_inception_3a/output_0_split -> inception_3a/output_inception_3a/output_0_split_1
I0412 06:14:27.160902   410 net.cpp:409] inception_3a/output_inception_3a/output_0_split -> inception_3a/output_inception_3a/output_0_split_2
I0412 06:14:27.160912   410 net.cpp:409] inception_3a/output_inception_3a/output_0_split -> inception_3a/output_inception_3a/output_0_split_3
I0412 06:14:27.160965   410 net.cpp:144] Setting up inception_3a/output_inception_3a/output_0_split
I0412 06:14:27.160974   410 net.cpp:151] Top shape: 32 256 28 28 (6422528)
I0412 06:14:27.160980   410 net.cpp:151] Top shape: 32 256 28 28 (6422528)
I0412 06:14:27.160986   410 net.cpp:151] Top shape: 32 256 28 28 (6422528)
I0412 06:14:27.160992   410 net.cpp:151] Top shape: 32 256 28 28 (6422528)
I0412 06:14:27.160998   410 net.cpp:159] Memory required for data: 876675584
I0412 06:14:27.161005   410 layer_factory.hpp:77] Creating layer inception_3b/1x1
I0412 06:14:27.161027   410 net.cpp:94] Creating Layer inception_3b/1x1
I0412 06:14:27.161034   410 net.cpp:435] inception_3b/1x1 <- inception_3a/output_inception_3a/output_0_split_0
I0412 06:14:27.161043   410 net.cpp:409] inception_3b/1x1 -> inception_3b/1x1
I0412 06:14:27.161425   410 net.cpp:144] Setting up inception_3b/1x1
I0412 06:14:27.161437   410 net.cpp:151] Top shape: 32 128 28 28 (3211264)
I0412 06:14:27.161443   410 net.cpp:159] Memory required for data: 889520640
I0412 06:14:27.161453   410 layer_factory.hpp:77] Creating layer inception_3b/relu_1x1
I0412 06:14:27.161461   410 net.cpp:94] Creating Layer inception_3b/relu_1x1
I0412 06:14:27.161468   410 net.cpp:435] inception_3b/relu_1x1 <- inception_3b/1x1
I0412 06:14:27.161478   410 net.cpp:396] inception_3b/relu_1x1 -> inception_3b/1x1 (in-place)
I0412 06:14:27.161486   410 net.cpp:144] Setting up inception_3b/relu_1x1
I0412 06:14:27.161494   410 net.cpp:151] Top shape: 32 128 28 28 (3211264)
I0412 06:14:27.161499   410 net.cpp:159] Memory required for data: 902365696
I0412 06:14:27.161505   410 layer_factory.hpp:77] Creating layer inception_3b/3x3_reduce
I0412 06:14:27.161517   410 net.cpp:94] Creating Layer inception_3b/3x3_reduce
I0412 06:14:27.161523   410 net.cpp:435] inception_3b/3x3_reduce <- inception_3a/output_inception_3a/output_0_split_1
I0412 06:14:27.161532   410 net.cpp:409] inception_3b/3x3_reduce -> inception_3b/3x3_reduce
I0412 06:14:27.161914   410 net.cpp:144] Setting up inception_3b/3x3_reduce
I0412 06:14:27.161926   410 net.cpp:151] Top shape: 32 128 28 28 (3211264)
I0412 06:14:27.161931   410 net.cpp:159] Memory required for data: 915210752
I0412 06:14:27.161939   410 layer_factory.hpp:77] Creating layer inception_3b/relu_3x3_reduce
I0412 06:14:27.161948   410 net.cpp:94] Creating Layer inception_3b/relu_3x3_reduce
I0412 06:14:27.161955   410 net.cpp:435] inception_3b/relu_3x3_reduce <- inception_3b/3x3_reduce
I0412 06:14:27.161964   410 net.cpp:396] inception_3b/relu_3x3_reduce -> inception_3b/3x3_reduce (in-place)
I0412 06:14:27.161973   410 net.cpp:144] Setting up inception_3b/relu_3x3_reduce
I0412 06:14:27.161980   410 net.cpp:151] Top shape: 32 128 28 28 (3211264)
I0412 06:14:27.161985   410 net.cpp:159] Memory required for data: 928055808
I0412 06:14:27.161991   410 layer_factory.hpp:77] Creating layer inception_3b/3x3
I0412 06:14:27.162009   410 net.cpp:94] Creating Layer inception_3b/3x3
I0412 06:14:27.162014   410 net.cpp:435] inception_3b/3x3 <- inception_3b/3x3_reduce
I0412 06:14:27.162024   410 net.cpp:409] inception_3b/3x3 -> inception_3b/3x3
I0412 06:14:27.175951   410 net.cpp:144] Setting up inception_3b/3x3
I0412 06:14:27.175971   410 net.cpp:151] Top shape: 32 192 28 28 (4816896)
I0412 06:14:27.175976   410 net.cpp:159] Memory required for data: 947323392
I0412 06:14:27.175984   410 layer_factory.hpp:77] Creating layer inception_3b/relu_3x3
I0412 06:14:27.175994   410 net.cpp:94] Creating Layer inception_3b/relu_3x3
I0412 06:14:27.176000   410 net.cpp:435] inception_3b/relu_3x3 <- inception_3b/3x3
I0412 06:14:27.176025   410 net.cpp:396] inception_3b/relu_3x3 -> inception_3b/3x3 (in-place)
I0412 06:14:27.176053   410 net.cpp:144] Setting up inception_3b/relu_3x3
I0412 06:14:27.176059   410 net.cpp:151] Top shape: 32 192 28 28 (4816896)
I0412 06:14:27.176064   410 net.cpp:159] Memory required for data: 966590976
I0412 06:14:27.176069   410 layer_factory.hpp:77] Creating layer inception_3b/5x5_reduce
I0412 06:14:27.176081   410 net.cpp:94] Creating Layer inception_3b/5x5_reduce
I0412 06:14:27.176087   410 net.cpp:435] inception_3b/5x5_reduce <- inception_3a/output_inception_3a/output_0_split_2
I0412 06:14:27.176096   410 net.cpp:409] inception_3b/5x5_reduce -> inception_3b/5x5_reduce
I0412 06:14:27.176461   410 net.cpp:144] Setting up inception_3b/5x5_reduce
I0412 06:14:27.176475   410 net.cpp:151] Top shape: 32 32 28 28 (802816)
I0412 06:14:27.176479   410 net.cpp:159] Memory required for data: 969802240
I0412 06:14:27.176487   410 layer_factory.hpp:77] Creating layer inception_3b/relu_5x5_reduce
I0412 06:14:27.176512   410 net.cpp:94] Creating Layer inception_3b/relu_5x5_reduce
I0412 06:14:27.176518   410 net.cpp:435] inception_3b/relu_5x5_reduce <- inception_3b/5x5_reduce
I0412 06:14:27.176527   410 net.cpp:396] inception_3b/relu_5x5_reduce -> inception_3b/5x5_reduce (in-place)
I0412 06:14:27.176537   410 net.cpp:144] Setting up inception_3b/relu_5x5_reduce
I0412 06:14:27.176543   410 net.cpp:151] Top shape: 32 32 28 28 (802816)
I0412 06:14:27.176548   410 net.cpp:159] Memory required for data: 973013504
I0412 06:14:27.176553   410 layer_factory.hpp:77] Creating layer inception_3b/5x5
I0412 06:14:27.176564   410 net.cpp:94] Creating Layer inception_3b/5x5
I0412 06:14:27.176569   410 net.cpp:435] inception_3b/5x5 <- inception_3b/5x5_reduce
I0412 06:14:27.176578   410 net.cpp:409] inception_3b/5x5 -> inception_3b/5x5
I0412 06:14:27.178052   410 net.cpp:144] Setting up inception_3b/5x5
I0412 06:14:27.178069   410 net.cpp:151] Top shape: 32 96 28 28 (2408448)
I0412 06:14:27.178074   410 net.cpp:159] Memory required for data: 982647296
I0412 06:14:27.178083   410 layer_factory.hpp:77] Creating layer inception_3b/relu_5x5
I0412 06:14:27.178092   410 net.cpp:94] Creating Layer inception_3b/relu_5x5
I0412 06:14:27.178099   410 net.cpp:435] inception_3b/relu_5x5 <- inception_3b/5x5
I0412 06:14:27.178107   410 net.cpp:396] inception_3b/relu_5x5 -> inception_3b/5x5 (in-place)
I0412 06:14:27.178117   410 net.cpp:144] Setting up inception_3b/relu_5x5
I0412 06:14:27.178124   410 net.cpp:151] Top shape: 32 96 28 28 (2408448)
I0412 06:14:27.178129   410 net.cpp:159] Memory required for data: 992281088
I0412 06:14:27.178134   410 layer_factory.hpp:77] Creating layer inception_3b/pool
I0412 06:14:27.178143   410 net.cpp:94] Creating Layer inception_3b/pool
I0412 06:14:27.178149   410 net.cpp:435] inception_3b/pool <- inception_3a/output_inception_3a/output_0_split_3
I0412 06:14:27.178158   410 net.cpp:409] inception_3b/pool -> inception_3b/pool
I0412 06:14:27.178196   410 net.cpp:144] Setting up inception_3b/pool
I0412 06:14:27.178205   410 net.cpp:151] Top shape: 32 256 28 28 (6422528)
I0412 06:14:27.178210   410 net.cpp:159] Memory required for data: 1017971200
I0412 06:14:27.178215   410 layer_factory.hpp:77] Creating layer inception_3b/pool_proj
I0412 06:14:27.178225   410 net.cpp:94] Creating Layer inception_3b/pool_proj
I0412 06:14:27.178231   410 net.cpp:435] inception_3b/pool_proj <- inception_3b/pool
I0412 06:14:27.178241   410 net.cpp:409] inception_3b/pool_proj -> inception_3b/pool_proj
I0412 06:14:27.178565   410 net.cpp:144] Setting up inception_3b/pool_proj
I0412 06:14:27.178575   410 net.cpp:151] Top shape: 32 64 28 28 (1605632)
I0412 06:14:27.178597   410 net.cpp:159] Memory required for data: 1024393728
I0412 06:14:27.178606   410 layer_factory.hpp:77] Creating layer inception_3b/relu_pool_proj
I0412 06:14:27.178629   410 net.cpp:94] Creating Layer inception_3b/relu_pool_proj
I0412 06:14:27.178635   410 net.cpp:435] inception_3b/relu_pool_proj <- inception_3b/pool_proj
I0412 06:14:27.178644   410 net.cpp:396] inception_3b/relu_pool_proj -> inception_3b/pool_proj (in-place)
I0412 06:14:27.178653   410 net.cpp:144] Setting up inception_3b/relu_pool_proj
I0412 06:14:27.178660   410 net.cpp:151] Top shape: 32 64 28 28 (1605632)
I0412 06:14:27.178665   410 net.cpp:159] Memory required for data: 1030816256
I0412 06:14:27.178694   410 layer_factory.hpp:77] Creating layer inception_3b/output
I0412 06:14:27.178704   410 net.cpp:94] Creating Layer inception_3b/output
I0412 06:14:27.178709   410 net.cpp:435] inception_3b/output <- inception_3b/1x1
I0412 06:14:27.178715   410 net.cpp:435] inception_3b/output <- inception_3b/3x3
I0412 06:14:27.178721   410 net.cpp:435] inception_3b/output <- inception_3b/5x5
I0412 06:14:27.178727   410 net.cpp:435] inception_3b/output <- inception_3b/pool_proj
I0412 06:14:27.178735   410 net.cpp:409] inception_3b/output -> inception_3b/output
I0412 06:14:27.178762   410 net.cpp:144] Setting up inception_3b/output
I0412 06:14:27.178771   410 net.cpp:151] Top shape: 32 480 28 28 (12042240)
I0412 06:14:27.178789   410 net.cpp:159] Memory required for data: 1078985216
I0412 06:14:27.178795   410 layer_factory.hpp:77] Creating layer pool3/3x3_s2
I0412 06:14:27.178805   410 net.cpp:94] Creating Layer pool3/3x3_s2
I0412 06:14:27.178812   410 net.cpp:435] pool3/3x3_s2 <- inception_3b/output
I0412 06:14:27.178820   410 net.cpp:409] pool3/3x3_s2 -> pool3/3x3_s2
I0412 06:14:27.178856   410 net.cpp:144] Setting up pool3/3x3_s2
I0412 06:14:27.178864   410 net.cpp:151] Top shape: 32 480 14 14 (3010560)
I0412 06:14:27.178870   410 net.cpp:159] Memory required for data: 1091027456
I0412 06:14:27.178875   410 layer_factory.hpp:77] Creating layer pool3/3x3_s2_pool3/3x3_s2_0_split
I0412 06:14:27.178884   410 net.cpp:94] Creating Layer pool3/3x3_s2_pool3/3x3_s2_0_split
I0412 06:14:27.178890   410 net.cpp:435] pool3/3x3_s2_pool3/3x3_s2_0_split <- pool3/3x3_s2
I0412 06:14:27.178900   410 net.cpp:409] pool3/3x3_s2_pool3/3x3_s2_0_split -> pool3/3x3_s2_pool3/3x3_s2_0_split_0
I0412 06:14:27.178908   410 net.cpp:409] pool3/3x3_s2_pool3/3x3_s2_0_split -> pool3/3x3_s2_pool3/3x3_s2_0_split_1
I0412 06:14:27.178917   410 net.cpp:409] pool3/3x3_s2_pool3/3x3_s2_0_split -> pool3/3x3_s2_pool3/3x3_s2_0_split_2
I0412 06:14:27.178925   410 net.cpp:409] pool3/3x3_s2_pool3/3x3_s2_0_split -> pool3/3x3_s2_pool3/3x3_s2_0_split_3
I0412 06:14:27.178977   410 net.cpp:144] Setting up pool3/3x3_s2_pool3/3x3_s2_0_split
I0412 06:14:27.178985   410 net.cpp:151] Top shape: 32 480 14 14 (3010560)
I0412 06:14:27.178992   410 net.cpp:151] Top shape: 32 480 14 14 (3010560)
I0412 06:14:27.178997   410 net.cpp:151] Top shape: 32 480 14 14 (3010560)
I0412 06:14:27.179003   410 net.cpp:151] Top shape: 32 480 14 14 (3010560)
I0412 06:14:27.179009   410 net.cpp:159] Memory required for data: 1139196416
I0412 06:14:27.179014   410 layer_factory.hpp:77] Creating layer inception_4a/1x1
I0412 06:14:27.179026   410 net.cpp:94] Creating Layer inception_4a/1x1
I0412 06:14:27.179033   410 net.cpp:435] inception_4a/1x1 <- pool3/3x3_s2_pool3/3x3_s2_0_split_0
I0412 06:14:27.179042   410 net.cpp:409] inception_4a/1x1 -> inception_4a/1x1
I0412 06:14:27.179714   410 net.cpp:144] Setting up inception_4a/1x1
I0412 06:14:27.179725   410 net.cpp:151] Top shape: 32 192 14 14 (1204224)
I0412 06:14:27.179731   410 net.cpp:159] Memory required for data: 1144013312
I0412 06:14:27.179739   410 layer_factory.hpp:77] Creating layer inception_4a/relu_1x1
I0412 06:14:27.179749   410 net.cpp:94] Creating Layer inception_4a/relu_1x1
I0412 06:14:27.179754   410 net.cpp:435] inception_4a/relu_1x1 <- inception_4a/1x1
I0412 06:14:27.179762   410 net.cpp:396] inception_4a/relu_1x1 -> inception_4a/1x1 (in-place)
I0412 06:14:27.179772   410 net.cpp:144] Setting up inception_4a/relu_1x1
I0412 06:14:27.179780   410 net.cpp:151] Top shape: 32 192 14 14 (1204224)
I0412 06:14:27.179785   410 net.cpp:159] Memory required for data: 1148830208
I0412 06:14:27.179790   410 layer_factory.hpp:77] Creating layer inception_4a/3x3_reduce
I0412 06:14:27.179801   410 net.cpp:94] Creating Layer inception_4a/3x3_reduce
I0412 06:14:27.179807   410 net.cpp:435] inception_4a/3x3_reduce <- pool3/3x3_s2_pool3/3x3_s2_0_split_1
I0412 06:14:27.179816   410 net.cpp:409] inception_4a/3x3_reduce -> inception_4a/3x3_reduce
I0412 06:14:27.180274   410 net.cpp:144] Setting up inception_4a/3x3_reduce
I0412 06:14:27.180284   410 net.cpp:151] Top shape: 32 96 14 14 (602112)
I0412 06:14:27.180289   410 net.cpp:159] Memory required for data: 1151238656
I0412 06:14:27.180301   410 layer_factory.hpp:77] Creating layer inception_4a/relu_3x3_reduce
I0412 06:14:27.180311   410 net.cpp:94] Creating Layer inception_4a/relu_3x3_reduce
I0412 06:14:27.180317   410 net.cpp:435] inception_4a/relu_3x3_reduce <- inception_4a/3x3_reduce
I0412 06:14:27.180325   410 net.cpp:396] inception_4a/relu_3x3_reduce -> inception_4a/3x3_reduce (in-place)
I0412 06:14:27.180333   410 net.cpp:144] Setting up inception_4a/relu_3x3_reduce
I0412 06:14:27.180339   410 net.cpp:151] Top shape: 32 96 14 14 (602112)
I0412 06:14:27.180344   410 net.cpp:159] Memory required for data: 1153647104
I0412 06:14:27.180361   410 layer_factory.hpp:77] Creating layer inception_4a/3x3
I0412 06:14:27.180372   410 net.cpp:94] Creating Layer inception_4a/3x3
I0412 06:14:27.180378   410 net.cpp:435] inception_4a/3x3 <- inception_4a/3x3_reduce
I0412 06:14:27.180387   410 net.cpp:409] inception_4a/3x3 -> inception_4a/3x3
I0412 06:14:27.182385   410 net.cpp:144] Setting up inception_4a/3x3
I0412 06:14:27.182401   410 net.cpp:151] Top shape: 32 208 14 14 (1304576)
I0412 06:14:27.182407   410 net.cpp:159] Memory required for data: 1158865408
I0412 06:14:27.182416   410 layer_factory.hpp:77] Creating layer inception_4a/relu_3x3
I0412 06:14:27.182425   410 net.cpp:94] Creating Layer inception_4a/relu_3x3
I0412 06:14:27.182432   410 net.cpp:435] inception_4a/relu_3x3 <- inception_4a/3x3
I0412 06:14:27.182441   410 net.cpp:396] inception_4a/relu_3x3 -> inception_4a/3x3 (in-place)
I0412 06:14:27.182452   410 net.cpp:144] Setting up inception_4a/relu_3x3
I0412 06:14:27.182458   410 net.cpp:151] Top shape: 32 208 14 14 (1304576)
I0412 06:14:27.182464   410 net.cpp:159] Memory required for data: 1164083712
I0412 06:14:27.182469   410 layer_factory.hpp:77] Creating layer inception_4a/5x5_reduce
I0412 06:14:27.182480   410 net.cpp:94] Creating Layer inception_4a/5x5_reduce
I0412 06:14:27.182487   410 net.cpp:435] inception_4a/5x5_reduce <- pool3/3x3_s2_pool3/3x3_s2_0_split_2
I0412 06:14:27.182497   410 net.cpp:409] inception_4a/5x5_reduce -> inception_4a/5x5_reduce
I0412 06:14:27.185318   410 net.cpp:144] Setting up inception_4a/5x5_reduce
I0412 06:14:27.185333   410 net.cpp:151] Top shape: 32 16 14 14 (100352)
I0412 06:14:27.185338   410 net.cpp:159] Memory required for data: 1164485120
I0412 06:14:27.185348   410 layer_factory.hpp:77] Creating layer inception_4a/relu_5x5_reduce
I0412 06:14:27.185359   410 net.cpp:94] Creating Layer inception_4a/relu_5x5_reduce
I0412 06:14:27.185365   410 net.cpp:435] inception_4a/relu_5x5_reduce <- inception_4a/5x5_reduce
I0412 06:14:27.185374   410 net.cpp:396] inception_4a/relu_5x5_reduce -> inception_4a/5x5_reduce (in-place)
I0412 06:14:27.185384   410 net.cpp:144] Setting up inception_4a/relu_5x5_reduce
I0412 06:14:27.185406   410 net.cpp:151] Top shape: 32 16 14 14 (100352)
I0412 06:14:27.185428   410 net.cpp:159] Memory required for data: 1164886528
I0412 06:14:27.185434   410 layer_factory.hpp:77] Creating layer inception_4a/5x5
I0412 06:14:27.185446   410 net.cpp:94] Creating Layer inception_4a/5x5
I0412 06:14:27.185452   410 net.cpp:435] inception_4a/5x5 <- inception_4a/5x5_reduce
I0412 06:14:27.185463   410 net.cpp:409] inception_4a/5x5 -> inception_4a/5x5
I0412 06:14:27.185796   410 net.cpp:144] Setting up inception_4a/5x5
I0412 06:14:27.185807   410 net.cpp:151] Top shape: 32 48 14 14 (301056)
I0412 06:14:27.185813   410 net.cpp:159] Memory required for data: 1166090752
I0412 06:14:27.185820   410 layer_factory.hpp:77] Creating layer inception_4a/relu_5x5
I0412 06:14:27.185830   410 net.cpp:94] Creating Layer inception_4a/relu_5x5
I0412 06:14:27.185837   410 net.cpp:435] inception_4a/relu_5x5 <- inception_4a/5x5
I0412 06:14:27.185845   410 net.cpp:396] inception_4a/relu_5x5 -> inception_4a/5x5 (in-place)
I0412 06:14:27.185853   410 net.cpp:144] Setting up inception_4a/relu_5x5
I0412 06:14:27.185860   410 net.cpp:151] Top shape: 32 48 14 14 (301056)
I0412 06:14:27.185866   410 net.cpp:159] Memory required for data: 1167294976
I0412 06:14:27.185871   410 layer_factory.hpp:77] Creating layer inception_4a/pool
I0412 06:14:27.185879   410 net.cpp:94] Creating Layer inception_4a/pool
I0412 06:14:27.185886   410 net.cpp:435] inception_4a/pool <- pool3/3x3_s2_pool3/3x3_s2_0_split_3
I0412 06:14:27.185899   410 net.cpp:409] inception_4a/pool -> inception_4a/pool
I0412 06:14:27.185952   410 net.cpp:144] Setting up inception_4a/pool
I0412 06:14:27.185961   410 net.cpp:151] Top shape: 32 480 14 14 (3010560)
I0412 06:14:27.185966   410 net.cpp:159] Memory required for data: 1179337216
I0412 06:14:27.185972   410 layer_factory.hpp:77] Creating layer inception_4a/pool_proj
I0412 06:14:27.185998   410 net.cpp:94] Creating Layer inception_4a/pool_proj
I0412 06:14:27.186005   410 net.cpp:435] inception_4a/pool_proj <- inception_4a/pool
I0412 06:14:27.186015   410 net.cpp:409] inception_4a/pool_proj -> inception_4a/pool_proj
I0412 06:14:27.186404   410 net.cpp:144] Setting up inception_4a/pool_proj
I0412 06:14:27.186415   410 net.cpp:151] Top shape: 32 64 14 14 (401408)
I0412 06:14:27.186420   410 net.cpp:159] Memory required for data: 1180942848
I0412 06:14:27.186429   410 layer_factory.hpp:77] Creating layer inception_4a/relu_pool_proj
I0412 06:14:27.186437   410 net.cpp:94] Creating Layer inception_4a/relu_pool_proj
I0412 06:14:27.186444   410 net.cpp:435] inception_4a/relu_pool_proj <- inception_4a/pool_proj
I0412 06:14:27.186452   410 net.cpp:396] inception_4a/relu_pool_proj -> inception_4a/pool_proj (in-place)
I0412 06:14:27.186461   410 net.cpp:144] Setting up inception_4a/relu_pool_proj
I0412 06:14:27.186467   410 net.cpp:151] Top shape: 32 64 14 14 (401408)
I0412 06:14:27.186472   410 net.cpp:159] Memory required for data: 1182548480
I0412 06:14:27.186478   410 layer_factory.hpp:77] Creating layer inception_4a/output
I0412 06:14:27.186487   410 net.cpp:94] Creating Layer inception_4a/output
I0412 06:14:27.186493   410 net.cpp:435] inception_4a/output <- inception_4a/1x1
I0412 06:14:27.186499   410 net.cpp:435] inception_4a/output <- inception_4a/3x3
I0412 06:14:27.186506   410 net.cpp:435] inception_4a/output <- inception_4a/5x5
I0412 06:14:27.186511   410 net.cpp:435] inception_4a/output <- inception_4a/pool_proj
I0412 06:14:27.186520   410 net.cpp:409] inception_4a/output -> inception_4a/output
I0412 06:14:27.186545   410 net.cpp:144] Setting up inception_4a/output
I0412 06:14:27.186553   410 net.cpp:151] Top shape: 32 512 14 14 (3211264)
I0412 06:14:27.186558   410 net.cpp:159] Memory required for data: 1195393536
I0412 06:14:27.186563   410 layer_factory.hpp:77] Creating layer inception_4a/output_inception_4a/output_0_split
I0412 06:14:27.186573   410 net.cpp:94] Creating Layer inception_4a/output_inception_4a/output_0_split
I0412 06:14:27.186579   410 net.cpp:435] inception_4a/output_inception_4a/output_0_split <- inception_4a/output
I0412 06:14:27.186589   410 net.cpp:409] inception_4a/output_inception_4a/output_0_split -> inception_4a/output_inception_4a/output_0_split_0
I0412 06:14:27.186597   410 net.cpp:409] inception_4a/output_inception_4a/output_0_split -> inception_4a/output_inception_4a/output_0_split_1
I0412 06:14:27.186606   410 net.cpp:409] inception_4a/output_inception_4a/output_0_split -> inception_4a/output_inception_4a/output_0_split_2
I0412 06:14:27.186619   410 net.cpp:409] inception_4a/output_inception_4a/output_0_split -> inception_4a/output_inception_4a/output_0_split_3
I0412 06:14:27.186628   410 net.cpp:409] inception_4a/output_inception_4a/output_0_split -> inception_4a/output_inception_4a/output_0_split_4
I0412 06:14:27.186715   410 net.cpp:144] Setting up inception_4a/output_inception_4a/output_0_split
I0412 06:14:27.186724   410 net.cpp:151] Top shape: 32 512 14 14 (3211264)
I0412 06:14:27.186730   410 net.cpp:151] Top shape: 32 512 14 14 (3211264)
I0412 06:14:27.186738   410 net.cpp:151] Top shape: 32 512 14 14 (3211264)
I0412 06:14:27.186743   410 net.cpp:151] Top shape: 32 512 14 14 (3211264)
I0412 06:14:27.186749   410 net.cpp:151] Top shape: 32 512 14 14 (3211264)
I0412 06:14:27.186755   410 net.cpp:159] Memory required for data: 1259618816
I0412 06:14:27.186761   410 layer_factory.hpp:77] Creating layer loss1/ave_pool
I0412 06:14:27.186769   410 net.cpp:94] Creating Layer loss1/ave_pool
I0412 06:14:27.186775   410 net.cpp:435] loss1/ave_pool <- inception_4a/output_inception_4a/output_0_split_0
I0412 06:14:27.186784   410 net.cpp:409] loss1/ave_pool -> loss1/ave_pool
I0412 06:14:27.186820   410 net.cpp:144] Setting up loss1/ave_pool
I0412 06:14:27.186828   410 net.cpp:151] Top shape: 32 512 4 4 (262144)
I0412 06:14:27.186839   410 net.cpp:159] Memory required for data: 1260667392
I0412 06:14:27.186846   410 layer_factory.hpp:77] Creating layer loss1/conv
I0412 06:14:27.186868   410 net.cpp:94] Creating Layer loss1/conv
I0412 06:14:27.186875   410 net.cpp:435] loss1/conv <- loss1/ave_pool
I0412 06:14:27.186885   410 net.cpp:409] loss1/conv -> loss1/conv
I0412 06:14:27.187439   410 net.cpp:144] Setting up loss1/conv
I0412 06:14:27.187450   410 net.cpp:151] Top shape: 32 128 4 4 (65536)
I0412 06:14:27.187456   410 net.cpp:159] Memory required for data: 1260929536
I0412 06:14:27.187465   410 layer_factory.hpp:77] Creating layer loss1/relu_conv
I0412 06:14:27.187474   410 net.cpp:94] Creating Layer loss1/relu_conv
I0412 06:14:27.187480   410 net.cpp:435] loss1/relu_conv <- loss1/conv
I0412 06:14:27.187489   410 net.cpp:396] loss1/relu_conv -> loss1/conv (in-place)
I0412 06:14:27.187496   410 net.cpp:144] Setting up loss1/relu_conv
I0412 06:14:27.187503   410 net.cpp:151] Top shape: 32 128 4 4 (65536)
I0412 06:14:27.187510   410 net.cpp:159] Memory required for data: 1261191680
I0412 06:14:27.187515   410 layer_factory.hpp:77] Creating layer loss1/fc
I0412 06:14:27.187526   410 net.cpp:94] Creating Layer loss1/fc
I0412 06:14:27.187532   410 net.cpp:435] loss1/fc <- loss1/conv
I0412 06:14:27.187541   410 net.cpp:409] loss1/fc -> loss1/fc
I0412 06:14:27.202507   410 net.cpp:144] Setting up loss1/fc
I0412 06:14:27.202527   410 net.cpp:151] Top shape: 32 1024 (32768)
I0412 06:14:27.202533   410 net.cpp:159] Memory required for data: 1261322752
I0412 06:14:27.202543   410 layer_factory.hpp:77] Creating layer loss1/relu_fc
I0412 06:14:27.202553   410 net.cpp:94] Creating Layer loss1/relu_fc
I0412 06:14:27.202560   410 net.cpp:435] loss1/relu_fc <- loss1/fc
I0412 06:14:27.202569   410 net.cpp:396] loss1/relu_fc -> loss1/fc (in-place)
I0412 06:14:27.202580   410 net.cpp:144] Setting up loss1/relu_fc
I0412 06:14:27.202587   410 net.cpp:151] Top shape: 32 1024 (32768)
I0412 06:14:27.202592   410 net.cpp:159] Memory required for data: 1261453824
I0412 06:14:27.202599   410 layer_factory.hpp:77] Creating layer loss1/drop_fc
I0412 06:14:27.202623   410 net.cpp:94] Creating Layer loss1/drop_fc
I0412 06:14:27.202630   410 net.cpp:435] loss1/drop_fc <- loss1/fc
I0412 06:14:27.202637   410 net.cpp:396] loss1/drop_fc -> loss1/fc (in-place)
I0412 06:14:27.202667   410 net.cpp:144] Setting up loss1/drop_fc
I0412 06:14:27.202677   410 net.cpp:151] Top shape: 32 1024 (32768)
I0412 06:14:27.202682   410 net.cpp:159] Memory required for data: 1261584896
I0412 06:14:27.202694   410 layer_factory.hpp:77] Creating layer loss1/classifier
I0412 06:14:27.202708   410 net.cpp:94] Creating Layer loss1/classifier
I0412 06:14:27.202713   410 net.cpp:435] loss1/classifier <- loss1/fc
I0412 06:14:27.202723   410 net.cpp:409] loss1/classifier -> loss1/classifier
I0412 06:14:27.202848   410 net.cpp:144] Setting up loss1/classifier
I0412 06:14:27.202858   410 net.cpp:151] Top shape: 32 3 (96)
I0412 06:14:27.202863   410 net.cpp:159] Memory required for data: 1261585280
I0412 06:14:27.202872   410 layer_factory.hpp:77] Creating layer loss1/loss
I0412 06:14:27.202883   410 net.cpp:94] Creating Layer loss1/loss
I0412 06:14:27.202888   410 net.cpp:435] loss1/loss <- loss1/classifier
I0412 06:14:27.202895   410 net.cpp:435] loss1/loss <- label_train-data_1_split_0
I0412 06:14:27.202904   410 net.cpp:409] loss1/loss -> loss1/loss
I0412 06:14:27.202916   410 layer_factory.hpp:77] Creating layer loss1/loss
I0412 06:14:27.203017   410 net.cpp:144] Setting up loss1/loss
I0412 06:14:27.203025   410 net.cpp:151] Top shape: (1)
I0412 06:14:27.203032   410 net.cpp:154]     with loss weight 0.3
I0412 06:14:27.203063   410 net.cpp:159] Memory required for data: 1261585284
I0412 06:14:27.203069   410 layer_factory.hpp:77] Creating layer inception_4b/1x1
I0412 06:14:27.203083   410 net.cpp:94] Creating Layer inception_4b/1x1
I0412 06:14:27.203090   410 net.cpp:435] inception_4b/1x1 <- inception_4a/output_inception_4a/output_0_split_1
I0412 06:14:27.203100   410 net.cpp:409] inception_4b/1x1 -> inception_4b/1x1
I0412 06:14:27.203775   410 net.cpp:144] Setting up inception_4b/1x1
I0412 06:14:27.203788   410 net.cpp:151] Top shape: 32 160 14 14 (1003520)
I0412 06:14:27.203815   410 net.cpp:159] Memory required for data: 1265599364
I0412 06:14:27.203824   410 layer_factory.hpp:77] Creating layer inception_4b/relu_1x1
I0412 06:14:27.203835   410 net.cpp:94] Creating Layer inception_4b/relu_1x1
I0412 06:14:27.203840   410 net.cpp:435] inception_4b/relu_1x1 <- inception_4b/1x1
I0412 06:14:27.203850   410 net.cpp:396] inception_4b/relu_1x1 -> inception_4b/1x1 (in-place)
I0412 06:14:27.203860   410 net.cpp:144] Setting up inception_4b/relu_1x1
I0412 06:14:27.203866   410 net.cpp:151] Top shape: 32 160 14 14 (1003520)
I0412 06:14:27.203872   410 net.cpp:159] Memory required for data: 1269613444
I0412 06:14:27.203877   410 layer_factory.hpp:77] Creating layer inception_4b/3x3_reduce
I0412 06:14:27.203889   410 net.cpp:94] Creating Layer inception_4b/3x3_reduce
I0412 06:14:27.203896   410 net.cpp:435] inception_4b/3x3_reduce <- inception_4a/output_inception_4a/output_0_split_2
I0412 06:14:27.203905   410 net.cpp:409] inception_4b/3x3_reduce -> inception_4b/3x3_reduce
I0412 06:14:27.205209   410 net.cpp:144] Setting up inception_4b/3x3_reduce
I0412 06:14:27.205224   410 net.cpp:151] Top shape: 32 112 14 14 (702464)
I0412 06:14:27.205230   410 net.cpp:159] Memory required for data: 1272423300
I0412 06:14:27.205238   410 layer_factory.hpp:77] Creating layer inception_4b/relu_3x3_reduce
I0412 06:14:27.205250   410 net.cpp:94] Creating Layer inception_4b/relu_3x3_reduce
I0412 06:14:27.205256   410 net.cpp:435] inception_4b/relu_3x3_reduce <- inception_4b/3x3_reduce
I0412 06:14:27.205271   410 net.cpp:396] inception_4b/relu_3x3_reduce -> inception_4b/3x3_reduce (in-place)
I0412 06:14:27.205281   410 net.cpp:144] Setting up inception_4b/relu_3x3_reduce
I0412 06:14:27.205303   410 net.cpp:151] Top shape: 32 112 14 14 (702464)
I0412 06:14:27.205309   410 net.cpp:159] Memory required for data: 1275233156
I0412 06:14:27.205314   410 layer_factory.hpp:77] Creating layer inception_4b/3x3
I0412 06:14:27.205325   410 net.cpp:94] Creating Layer inception_4b/3x3
I0412 06:14:27.205332   410 net.cpp:435] inception_4b/3x3 <- inception_4b/3x3_reduce
I0412 06:14:27.205341   410 net.cpp:409] inception_4b/3x3 -> inception_4b/3x3
I0412 06:14:27.211230   410 net.cpp:144] Setting up inception_4b/3x3
I0412 06:14:27.211247   410 net.cpp:151] Top shape: 32 224 14 14 (1404928)
I0412 06:14:27.211252   410 net.cpp:159] Memory required for data: 1280852868
I0412 06:14:27.211262   410 layer_factory.hpp:77] Creating layer inception_4b/relu_3x3
I0412 06:14:27.211272   410 net.cpp:94] Creating Layer inception_4b/relu_3x3
I0412 06:14:27.211278   410 net.cpp:435] inception_4b/relu_3x3 <- inception_4b/3x3
I0412 06:14:27.211287   410 net.cpp:396] inception_4b/relu_3x3 -> inception_4b/3x3 (in-place)
I0412 06:14:27.211298   410 net.cpp:144] Setting up inception_4b/relu_3x3
I0412 06:14:27.211304   410 net.cpp:151] Top shape: 32 224 14 14 (1404928)
I0412 06:14:27.211309   410 net.cpp:159] Memory required for data: 1286472580
I0412 06:14:27.211315   410 layer_factory.hpp:77] Creating layer inception_4b/5x5_reduce
I0412 06:14:27.211326   410 net.cpp:94] Creating Layer inception_4b/5x5_reduce
I0412 06:14:27.211333   410 net.cpp:435] inception_4b/5x5_reduce <- inception_4a/output_inception_4a/output_0_split_3
I0412 06:14:27.211341   410 net.cpp:409] inception_4b/5x5_reduce -> inception_4b/5x5_reduce
I0412 06:14:27.211621   410 net.cpp:144] Setting up inception_4b/5x5_reduce
I0412 06:14:27.211632   410 net.cpp:151] Top shape: 32 24 14 14 (150528)
I0412 06:14:27.211637   410 net.cpp:159] Memory required for data: 1287074692
I0412 06:14:27.211644   410 layer_factory.hpp:77] Creating layer inception_4b/relu_5x5_reduce
I0412 06:14:27.211652   410 net.cpp:94] Creating Layer inception_4b/relu_5x5_reduce
I0412 06:14:27.211658   410 net.cpp:435] inception_4b/relu_5x5_reduce <- inception_4b/5x5_reduce
I0412 06:14:27.211668   410 net.cpp:396] inception_4b/relu_5x5_reduce -> inception_4b/5x5_reduce (in-place)
I0412 06:14:27.211675   410 net.cpp:144] Setting up inception_4b/relu_5x5_reduce
I0412 06:14:27.211681   410 net.cpp:151] Top shape: 32 24 14 14 (150528)
I0412 06:14:27.211707   410 net.cpp:159] Memory required for data: 1287676804
I0412 06:14:27.211730   410 layer_factory.hpp:77] Creating layer inception_4b/5x5
I0412 06:14:27.211740   410 net.cpp:94] Creating Layer inception_4b/5x5
I0412 06:14:27.211746   410 net.cpp:435] inception_4b/5x5 <- inception_4b/5x5_reduce
I0412 06:14:27.211756   410 net.cpp:409] inception_4b/5x5 -> inception_4b/5x5
I0412 06:14:27.212244   410 net.cpp:144] Setting up inception_4b/5x5
I0412 06:14:27.212255   410 net.cpp:151] Top shape: 32 64 14 14 (401408)
I0412 06:14:27.212260   410 net.cpp:159] Memory required for data: 1289282436
I0412 06:14:27.212270   410 layer_factory.hpp:77] Creating layer inception_4b/relu_5x5
I0412 06:14:27.212277   410 net.cpp:94] Creating Layer inception_4b/relu_5x5
I0412 06:14:27.212285   410 net.cpp:435] inception_4b/relu_5x5 <- inception_4b/5x5
I0412 06:14:27.212292   410 net.cpp:396] inception_4b/relu_5x5 -> inception_4b/5x5 (in-place)
I0412 06:14:27.212301   410 net.cpp:144] Setting up inception_4b/relu_5x5
I0412 06:14:27.212308   410 net.cpp:151] Top shape: 32 64 14 14 (401408)
I0412 06:14:27.212314   410 net.cpp:159] Memory required for data: 1290888068
I0412 06:14:27.212319   410 layer_factory.hpp:77] Creating layer inception_4b/pool
I0412 06:14:27.212329   410 net.cpp:94] Creating Layer inception_4b/pool
I0412 06:14:27.212335   410 net.cpp:435] inception_4b/pool <- inception_4a/output_inception_4a/output_0_split_4
I0412 06:14:27.212344   410 net.cpp:409] inception_4b/pool -> inception_4b/pool
I0412 06:14:27.212397   410 net.cpp:144] Setting up inception_4b/pool
I0412 06:14:27.212407   410 net.cpp:151] Top shape: 32 512 14 14 (3211264)
I0412 06:14:27.212412   410 net.cpp:159] Memory required for data: 1303733124
I0412 06:14:27.212419   410 layer_factory.hpp:77] Creating layer inception_4b/pool_proj
I0412 06:14:27.212430   410 net.cpp:94] Creating Layer inception_4b/pool_proj
I0412 06:14:27.212435   410 net.cpp:435] inception_4b/pool_proj <- inception_4b/pool
I0412 06:14:27.212445   410 net.cpp:409] inception_4b/pool_proj -> inception_4b/pool_proj
I0412 06:14:27.212847   410 net.cpp:144] Setting up inception_4b/pool_proj
I0412 06:14:27.212858   410 net.cpp:151] Top shape: 32 64 14 14 (401408)
I0412 06:14:27.212864   410 net.cpp:159] Memory required for data: 1305338756
I0412 06:14:27.212873   410 layer_factory.hpp:77] Creating layer inception_4b/relu_pool_proj
I0412 06:14:27.212882   410 net.cpp:94] Creating Layer inception_4b/relu_pool_proj
I0412 06:14:27.212889   410 net.cpp:435] inception_4b/relu_pool_proj <- inception_4b/pool_proj
I0412 06:14:27.212898   410 net.cpp:396] inception_4b/relu_pool_proj -> inception_4b/pool_proj (in-place)
I0412 06:14:27.212906   410 net.cpp:144] Setting up inception_4b/relu_pool_proj
I0412 06:14:27.212913   410 net.cpp:151] Top shape: 32 64 14 14 (401408)
I0412 06:14:27.212918   410 net.cpp:159] Memory required for data: 1306944388
I0412 06:14:27.212924   410 layer_factory.hpp:77] Creating layer inception_4b/output
I0412 06:14:27.212934   410 net.cpp:94] Creating Layer inception_4b/output
I0412 06:14:27.212939   410 net.cpp:435] inception_4b/output <- inception_4b/1x1
I0412 06:14:27.212945   410 net.cpp:435] inception_4b/output <- inception_4b/3x3
I0412 06:14:27.212952   410 net.cpp:435] inception_4b/output <- inception_4b/5x5
I0412 06:14:27.212958   410 net.cpp:435] inception_4b/output <- inception_4b/pool_proj
I0412 06:14:27.212966   410 net.cpp:409] inception_4b/output -> inception_4b/output
I0412 06:14:27.212993   410 net.cpp:144] Setting up inception_4b/output
I0412 06:14:27.213002   410 net.cpp:151] Top shape: 32 512 14 14 (3211264)
I0412 06:14:27.213008   410 net.cpp:159] Memory required for data: 1319789444
I0412 06:14:27.213013   410 layer_factory.hpp:77] Creating layer inception_4b/output_inception_4b/output_0_split
I0412 06:14:27.213024   410 net.cpp:94] Creating Layer inception_4b/output_inception_4b/output_0_split
I0412 06:14:27.213030   410 net.cpp:435] inception_4b/output_inception_4b/output_0_split <- inception_4b/output
I0412 06:14:27.213057   410 net.cpp:409] inception_4b/output_inception_4b/output_0_split -> inception_4b/output_inception_4b/output_0_split_0
I0412 06:14:27.213068   410 net.cpp:409] inception_4b/output_inception_4b/output_0_split -> inception_4b/output_inception_4b/output_0_split_1
I0412 06:14:27.213076   410 net.cpp:409] inception_4b/output_inception_4b/output_0_split -> inception_4b/output_inception_4b/output_0_split_2
I0412 06:14:27.213085   410 net.cpp:409] inception_4b/output_inception_4b/output_0_split -> inception_4b/output_inception_4b/output_0_split_3
I0412 06:14:27.213186   410 net.cpp:144] Setting up inception_4b/output_inception_4b/output_0_split
I0412 06:14:27.213197   410 net.cpp:151] Top shape: 32 512 14 14 (3211264)
I0412 06:14:27.213204   410 net.cpp:151] Top shape: 32 512 14 14 (3211264)
I0412 06:14:27.213210   410 net.cpp:151] Top shape: 32 512 14 14 (3211264)
I0412 06:14:27.213217   410 net.cpp:151] Top shape: 32 512 14 14 (3211264)
I0412 06:14:27.213222   410 net.cpp:159] Memory required for data: 1371169668
I0412 06:14:27.213227   410 layer_factory.hpp:77] Creating layer inception_4c/1x1
I0412 06:14:27.213239   410 net.cpp:94] Creating Layer inception_4c/1x1
I0412 06:14:27.213245   410 net.cpp:435] inception_4c/1x1 <- inception_4b/output_inception_4b/output_0_split_0
I0412 06:14:27.213255   410 net.cpp:409] inception_4c/1x1 -> inception_4c/1x1
I0412 06:14:27.213896   410 net.cpp:144] Setting up inception_4c/1x1
I0412 06:14:27.213909   410 net.cpp:151] Top shape: 32 128 14 14 (802816)
I0412 06:14:27.213914   410 net.cpp:159] Memory required for data: 1374380932
I0412 06:14:27.213923   410 layer_factory.hpp:77] Creating layer inception_4c/relu_1x1
I0412 06:14:27.213932   410 net.cpp:94] Creating Layer inception_4c/relu_1x1
I0412 06:14:27.213938   410 net.cpp:435] inception_4c/relu_1x1 <- inception_4c/1x1
I0412 06:14:27.213948   410 net.cpp:396] inception_4c/relu_1x1 -> inception_4c/1x1 (in-place)
I0412 06:14:27.213956   410 net.cpp:144] Setting up inception_4c/relu_1x1
I0412 06:14:27.213963   410 net.cpp:151] Top shape: 32 128 14 14 (802816)
I0412 06:14:27.213968   410 net.cpp:159] Memory required for data: 1377592196
I0412 06:14:27.213974   410 layer_factory.hpp:77] Creating layer inception_4c/3x3_reduce
I0412 06:14:27.213986   410 net.cpp:94] Creating Layer inception_4c/3x3_reduce
I0412 06:14:27.213994   410 net.cpp:435] inception_4c/3x3_reduce <- inception_4b/output_inception_4b/output_0_split_1
I0412 06:14:27.214004   410 net.cpp:409] inception_4c/3x3_reduce -> inception_4c/3x3_reduce
I0412 06:14:27.214588   410 net.cpp:144] Setting up inception_4c/3x3_reduce
I0412 06:14:27.214598   410 net.cpp:151] Top shape: 32 128 14 14 (802816)
I0412 06:14:27.214604   410 net.cpp:159] Memory required for data: 1380803460
I0412 06:14:27.214612   410 layer_factory.hpp:77] Creating layer inception_4c/relu_3x3_reduce
I0412 06:14:27.214619   410 net.cpp:94] Creating Layer inception_4c/relu_3x3_reduce
I0412 06:14:27.214625   410 net.cpp:435] inception_4c/relu_3x3_reduce <- inception_4c/3x3_reduce
I0412 06:14:27.214637   410 net.cpp:396] inception_4c/relu_3x3_reduce -> inception_4c/3x3_reduce (in-place)
I0412 06:14:27.214645   410 net.cpp:144] Setting up inception_4c/relu_3x3_reduce
I0412 06:14:27.214651   410 net.cpp:151] Top shape: 32 128 14 14 (802816)
I0412 06:14:27.214656   410 net.cpp:159] Memory required for data: 1384014724
I0412 06:14:27.214661   410 layer_factory.hpp:77] Creating layer inception_4c/3x3
I0412 06:14:27.214673   410 net.cpp:94] Creating Layer inception_4c/3x3
I0412 06:14:27.214679   410 net.cpp:435] inception_4c/3x3 <- inception_4c/3x3_reduce
I0412 06:14:27.214709   410 net.cpp:409] inception_4c/3x3 -> inception_4c/3x3
I0412 06:14:27.217434   410 net.cpp:144] Setting up inception_4c/3x3
I0412 06:14:27.217450   410 net.cpp:151] Top shape: 32 256 14 14 (1605632)
I0412 06:14:27.217456   410 net.cpp:159] Memory required for data: 1390437252
I0412 06:14:27.217475   410 layer_factory.hpp:77] Creating layer inception_4c/relu_3x3
I0412 06:14:27.217486   410 net.cpp:94] Creating Layer inception_4c/relu_3x3
I0412 06:14:27.217506   410 net.cpp:435] inception_4c/relu_3x3 <- inception_4c/3x3
I0412 06:14:27.217516   410 net.cpp:396] inception_4c/relu_3x3 -> inception_4c/3x3 (in-place)
I0412 06:14:27.217527   410 net.cpp:144] Setting up inception_4c/relu_3x3
I0412 06:14:27.217535   410 net.cpp:151] Top shape: 32 256 14 14 (1605632)
I0412 06:14:27.217540   410 net.cpp:159] Memory required for data: 1396859780
I0412 06:14:27.217545   410 layer_factory.hpp:77] Creating layer inception_4c/5x5_reduce
I0412 06:14:27.217557   410 net.cpp:94] Creating Layer inception_4c/5x5_reduce
I0412 06:14:27.217564   410 net.cpp:435] inception_4c/5x5_reduce <- inception_4b/output_inception_4b/output_0_split_2
I0412 06:14:27.217573   410 net.cpp:409] inception_4c/5x5_reduce -> inception_4c/5x5_reduce
I0412 06:14:27.217898   410 net.cpp:144] Setting up inception_4c/5x5_reduce
I0412 06:14:27.217911   410 net.cpp:151] Top shape: 32 24 14 14 (150528)
I0412 06:14:27.217916   410 net.cpp:159] Memory required for data: 1397461892
I0412 06:14:27.217924   410 layer_factory.hpp:77] Creating layer inception_4c/relu_5x5_reduce
I0412 06:14:27.217933   410 net.cpp:94] Creating Layer inception_4c/relu_5x5_reduce
I0412 06:14:27.217939   410 net.cpp:435] inception_4c/relu_5x5_reduce <- inception_4c/5x5_reduce
I0412 06:14:27.217948   410 net.cpp:396] inception_4c/relu_5x5_reduce -> inception_4c/5x5_reduce (in-place)
I0412 06:14:27.217957   410 net.cpp:144] Setting up inception_4c/relu_5x5_reduce
I0412 06:14:27.217964   410 net.cpp:151] Top shape: 32 24 14 14 (150528)
I0412 06:14:27.217970   410 net.cpp:159] Memory required for data: 1398064004
I0412 06:14:27.217975   410 layer_factory.hpp:77] Creating layer inception_4c/5x5
I0412 06:14:27.217986   410 net.cpp:94] Creating Layer inception_4c/5x5
I0412 06:14:27.217993   410 net.cpp:435] inception_4c/5x5 <- inception_4c/5x5_reduce
I0412 06:14:27.218001   410 net.cpp:409] inception_4c/5x5 -> inception_4c/5x5
I0412 06:14:27.219054   410 net.cpp:144] Setting up inception_4c/5x5
I0412 06:14:27.219070   410 net.cpp:151] Top shape: 32 64 14 14 (401408)
I0412 06:14:27.219076   410 net.cpp:159] Memory required for data: 1399669636
I0412 06:14:27.219085   410 layer_factory.hpp:77] Creating layer inception_4c/relu_5x5
I0412 06:14:27.219095   410 net.cpp:94] Creating Layer inception_4c/relu_5x5
I0412 06:14:27.219103   410 net.cpp:435] inception_4c/relu_5x5 <- inception_4c/5x5
I0412 06:14:27.219112   410 net.cpp:396] inception_4c/relu_5x5 -> inception_4c/5x5 (in-place)
I0412 06:14:27.219122   410 net.cpp:144] Setting up inception_4c/relu_5x5
I0412 06:14:27.219130   410 net.cpp:151] Top shape: 32 64 14 14 (401408)
I0412 06:14:27.219135   410 net.cpp:159] Memory required for data: 1401275268
I0412 06:14:27.219141   410 layer_factory.hpp:77] Creating layer inception_4c/pool
I0412 06:14:27.219149   410 net.cpp:94] Creating Layer inception_4c/pool
I0412 06:14:27.219156   410 net.cpp:435] inception_4c/pool <- inception_4b/output_inception_4b/output_0_split_3
I0412 06:14:27.219166   410 net.cpp:409] inception_4c/pool -> inception_4c/pool
I0412 06:14:27.219208   410 net.cpp:144] Setting up inception_4c/pool
I0412 06:14:27.219216   410 net.cpp:151] Top shape: 32 512 14 14 (3211264)
I0412 06:14:27.219223   410 net.cpp:159] Memory required for data: 1414120324
I0412 06:14:27.219228   410 layer_factory.hpp:77] Creating layer inception_4c/pool_proj
I0412 06:14:27.219240   410 net.cpp:94] Creating Layer inception_4c/pool_proj
I0412 06:14:27.219246   410 net.cpp:435] inception_4c/pool_proj <- inception_4c/pool
I0412 06:14:27.219256   410 net.cpp:409] inception_4c/pool_proj -> inception_4c/pool_proj
I0412 06:14:27.219655   410 net.cpp:144] Setting up inception_4c/pool_proj
I0412 06:14:27.219666   410 net.cpp:151] Top shape: 32 64 14 14 (401408)
I0412 06:14:27.219671   410 net.cpp:159] Memory required for data: 1415725956
I0412 06:14:27.219677   410 layer_factory.hpp:77] Creating layer inception_4c/relu_pool_proj
I0412 06:14:27.219712   410 net.cpp:94] Creating Layer inception_4c/relu_pool_proj
I0412 06:14:27.219722   410 net.cpp:435] inception_4c/relu_pool_proj <- inception_4c/pool_proj
I0412 06:14:27.219743   410 net.cpp:396] inception_4c/relu_pool_proj -> inception_4c/pool_proj (in-place)
I0412 06:14:27.219753   410 net.cpp:144] Setting up inception_4c/relu_pool_proj
I0412 06:14:27.219760   410 net.cpp:151] Top shape: 32 64 14 14 (401408)
I0412 06:14:27.219765   410 net.cpp:159] Memory required for data: 1417331588
I0412 06:14:27.219771   410 layer_factory.hpp:77] Creating layer inception_4c/output
I0412 06:14:27.219780   410 net.cpp:94] Creating Layer inception_4c/output
I0412 06:14:27.219786   410 net.cpp:435] inception_4c/output <- inception_4c/1x1
I0412 06:14:27.219792   410 net.cpp:435] inception_4c/output <- inception_4c/3x3
I0412 06:14:27.219799   410 net.cpp:435] inception_4c/output <- inception_4c/5x5
I0412 06:14:27.219805   410 net.cpp:435] inception_4c/output <- inception_4c/pool_proj
I0412 06:14:27.219813   410 net.cpp:409] inception_4c/output -> inception_4c/output
I0412 06:14:27.219841   410 net.cpp:144] Setting up inception_4c/output
I0412 06:14:27.219851   410 net.cpp:151] Top shape: 32 512 14 14 (3211264)
I0412 06:14:27.219856   410 net.cpp:159] Memory required for data: 1430176644
I0412 06:14:27.219861   410 layer_factory.hpp:77] Creating layer inception_4c/output_inception_4c/output_0_split
I0412 06:14:27.219871   410 net.cpp:94] Creating Layer inception_4c/output_inception_4c/output_0_split
I0412 06:14:27.219877   410 net.cpp:435] inception_4c/output_inception_4c/output_0_split <- inception_4c/output
I0412 06:14:27.219885   410 net.cpp:409] inception_4c/output_inception_4c/output_0_split -> inception_4c/output_inception_4c/output_0_split_0
I0412 06:14:27.219895   410 net.cpp:409] inception_4c/output_inception_4c/output_0_split -> inception_4c/output_inception_4c/output_0_split_1
I0412 06:14:27.219904   410 net.cpp:409] inception_4c/output_inception_4c/output_0_split -> inception_4c/output_inception_4c/output_0_split_2
I0412 06:14:27.219913   410 net.cpp:409] inception_4c/output_inception_4c/output_0_split -> inception_4c/output_inception_4c/output_0_split_3
I0412 06:14:27.219980   410 net.cpp:144] Setting up inception_4c/output_inception_4c/output_0_split
I0412 06:14:27.219987   410 net.cpp:151] Top shape: 32 512 14 14 (3211264)
I0412 06:14:27.219993   410 net.cpp:151] Top shape: 32 512 14 14 (3211264)
I0412 06:14:27.220000   410 net.cpp:151] Top shape: 32 512 14 14 (3211264)
I0412 06:14:27.220005   410 net.cpp:151] Top shape: 32 512 14 14 (3211264)
I0412 06:14:27.220010   410 net.cpp:159] Memory required for data: 1481556868
I0412 06:14:27.220031   410 layer_factory.hpp:77] Creating layer inception_4d/1x1
I0412 06:14:27.220043   410 net.cpp:94] Creating Layer inception_4d/1x1
I0412 06:14:27.220049   410 net.cpp:435] inception_4d/1x1 <- inception_4c/output_inception_4c/output_0_split_0
I0412 06:14:27.220059   410 net.cpp:409] inception_4d/1x1 -> inception_4d/1x1
I0412 06:14:27.220577   410 net.cpp:144] Setting up inception_4d/1x1
I0412 06:14:27.220587   410 net.cpp:151] Top shape: 32 112 14 14 (702464)
I0412 06:14:27.220592   410 net.cpp:159] Memory required for data: 1484366724
I0412 06:14:27.220602   410 layer_factory.hpp:77] Creating layer inception_4d/relu_1x1
I0412 06:14:27.220609   410 net.cpp:94] Creating Layer inception_4d/relu_1x1
I0412 06:14:27.220616   410 net.cpp:435] inception_4d/relu_1x1 <- inception_4d/1x1
I0412 06:14:27.220625   410 net.cpp:396] inception_4d/relu_1x1 -> inception_4d/1x1 (in-place)
I0412 06:14:27.220634   410 net.cpp:144] Setting up inception_4d/relu_1x1
I0412 06:14:27.220640   410 net.cpp:151] Top shape: 32 112 14 14 (702464)
I0412 06:14:27.220646   410 net.cpp:159] Memory required for data: 1487176580
I0412 06:14:27.220651   410 layer_factory.hpp:77] Creating layer inception_4d/3x3_reduce
I0412 06:14:27.220662   410 net.cpp:94] Creating Layer inception_4d/3x3_reduce
I0412 06:14:27.220669   410 net.cpp:435] inception_4d/3x3_reduce <- inception_4c/output_inception_4c/output_0_split_1
I0412 06:14:27.220679   410 net.cpp:409] inception_4d/3x3_reduce -> inception_4d/3x3_reduce
I0412 06:14:27.221379   410 net.cpp:144] Setting up inception_4d/3x3_reduce
I0412 06:14:27.221401   410 net.cpp:151] Top shape: 32 144 14 14 (903168)
I0412 06:14:27.221434   410 net.cpp:159] Memory required for data: 1490789252
I0412 06:14:27.221444   410 layer_factory.hpp:77] Creating layer inception_4d/relu_3x3_reduce
I0412 06:14:27.221453   410 net.cpp:94] Creating Layer inception_4d/relu_3x3_reduce
I0412 06:14:27.221460   410 net.cpp:435] inception_4d/relu_3x3_reduce <- inception_4d/3x3_reduce
I0412 06:14:27.221485   410 net.cpp:396] inception_4d/relu_3x3_reduce -> inception_4d/3x3_reduce (in-place)
I0412 06:14:27.221495   410 net.cpp:144] Setting up inception_4d/relu_3x3_reduce
I0412 06:14:27.221501   410 net.cpp:151] Top shape: 32 144 14 14 (903168)
I0412 06:14:27.221508   410 net.cpp:159] Memory required for data: 1494401924
I0412 06:14:27.221513   410 layer_factory.hpp:77] Creating layer inception_4d/3x3
I0412 06:14:27.221524   410 net.cpp:94] Creating Layer inception_4d/3x3
I0412 06:14:27.221529   410 net.cpp:435] inception_4d/3x3 <- inception_4d/3x3_reduce
I0412 06:14:27.221539   410 net.cpp:409] inception_4d/3x3 -> inception_4d/3x3
I0412 06:14:27.226025   410 net.cpp:144] Setting up inception_4d/3x3
I0412 06:14:27.226042   410 net.cpp:151] Top shape: 32 288 14 14 (1806336)
I0412 06:14:27.226047   410 net.cpp:159] Memory required for data: 1501627268
I0412 06:14:27.226056   410 layer_factory.hpp:77] Creating layer inception_4d/relu_3x3
I0412 06:14:27.226066   410 net.cpp:94] Creating Layer inception_4d/relu_3x3
I0412 06:14:27.226073   410 net.cpp:435] inception_4d/relu_3x3 <- inception_4d/3x3
I0412 06:14:27.226083   410 net.cpp:396] inception_4d/relu_3x3 -> inception_4d/3x3 (in-place)
I0412 06:14:27.226094   410 net.cpp:144] Setting up inception_4d/relu_3x3
I0412 06:14:27.226100   410 net.cpp:151] Top shape: 32 288 14 14 (1806336)
I0412 06:14:27.226105   410 net.cpp:159] Memory required for data: 1508852612
I0412 06:14:27.226111   410 layer_factory.hpp:77] Creating layer inception_4d/5x5_reduce
I0412 06:14:27.226124   410 net.cpp:94] Creating Layer inception_4d/5x5_reduce
I0412 06:14:27.226130   410 net.cpp:435] inception_4d/5x5_reduce <- inception_4c/output_inception_4c/output_0_split_2
I0412 06:14:27.226140   410 net.cpp:409] inception_4d/5x5_reduce -> inception_4d/5x5_reduce
I0412 06:14:27.226511   410 net.cpp:144] Setting up inception_4d/5x5_reduce
I0412 06:14:27.226536   410 net.cpp:151] Top shape: 32 32 14 14 (200704)
I0412 06:14:27.226541   410 net.cpp:159] Memory required for data: 1509655428
I0412 06:14:27.226549   410 layer_factory.hpp:77] Creating layer inception_4d/relu_5x5_reduce
I0412 06:14:27.226573   410 net.cpp:94] Creating Layer inception_4d/relu_5x5_reduce
I0412 06:14:27.226580   410 net.cpp:435] inception_4d/relu_5x5_reduce <- inception_4d/5x5_reduce
I0412 06:14:27.226589   410 net.cpp:396] inception_4d/relu_5x5_reduce -> inception_4d/5x5_reduce (in-place)
I0412 06:14:27.226598   410 net.cpp:144] Setting up inception_4d/relu_5x5_reduce
I0412 06:14:27.226604   410 net.cpp:151] Top shape: 32 32 14 14 (200704)
I0412 06:14:27.226609   410 net.cpp:159] Memory required for data: 1510458244
I0412 06:14:27.226615   410 layer_factory.hpp:77] Creating layer inception_4d/5x5
I0412 06:14:27.226626   410 net.cpp:94] Creating Layer inception_4d/5x5
I0412 06:14:27.226632   410 net.cpp:435] inception_4d/5x5 <- inception_4d/5x5_reduce
I0412 06:14:27.226642   410 net.cpp:409] inception_4d/5x5 -> inception_4d/5x5
I0412 06:14:27.229516   410 net.cpp:144] Setting up inception_4d/5x5
I0412 06:14:27.229547   410 net.cpp:151] Top shape: 32 64 14 14 (401408)
I0412 06:14:27.229552   410 net.cpp:159] Memory required for data: 1512063876
I0412 06:14:27.229560   410 layer_factory.hpp:77] Creating layer inception_4d/relu_5x5
I0412 06:14:27.229569   410 net.cpp:94] Creating Layer inception_4d/relu_5x5
I0412 06:14:27.229576   410 net.cpp:435] inception_4d/relu_5x5 <- inception_4d/5x5
I0412 06:14:27.229585   410 net.cpp:396] inception_4d/relu_5x5 -> inception_4d/5x5 (in-place)
I0412 06:14:27.229609   410 net.cpp:144] Setting up inception_4d/relu_5x5
I0412 06:14:27.229630   410 net.cpp:151] Top shape: 32 64 14 14 (401408)
I0412 06:14:27.229636   410 net.cpp:159] Memory required for data: 1513669508
I0412 06:14:27.229641   410 layer_factory.hpp:77] Creating layer inception_4d/pool
I0412 06:14:27.229650   410 net.cpp:94] Creating Layer inception_4d/pool
I0412 06:14:27.229656   410 net.cpp:435] inception_4d/pool <- inception_4c/output_inception_4c/output_0_split_3
I0412 06:14:27.229665   410 net.cpp:409] inception_4d/pool -> inception_4d/pool
I0412 06:14:27.229735   410 net.cpp:144] Setting up inception_4d/pool
I0412 06:14:27.229744   410 net.cpp:151] Top shape: 32 512 14 14 (3211264)
I0412 06:14:27.229749   410 net.cpp:159] Memory required for data: 1526514564
I0412 06:14:27.229754   410 layer_factory.hpp:77] Creating layer inception_4d/pool_proj
I0412 06:14:27.229766   410 net.cpp:94] Creating Layer inception_4d/pool_proj
I0412 06:14:27.229773   410 net.cpp:435] inception_4d/pool_proj <- inception_4d/pool
I0412 06:14:27.229781   410 net.cpp:409] inception_4d/pool_proj -> inception_4d/pool_proj
I0412 06:14:27.230178   410 net.cpp:144] Setting up inception_4d/pool_proj
I0412 06:14:27.230190   410 net.cpp:151] Top shape: 32 64 14 14 (401408)
I0412 06:14:27.230195   410 net.cpp:159] Memory required for data: 1528120196
I0412 06:14:27.230202   410 layer_factory.hpp:77] Creating layer inception_4d/relu_pool_proj
I0412 06:14:27.230211   410 net.cpp:94] Creating Layer inception_4d/relu_pool_proj
I0412 06:14:27.230217   410 net.cpp:435] inception_4d/relu_pool_proj <- inception_4d/pool_proj
I0412 06:14:27.230240   410 net.cpp:396] inception_4d/relu_pool_proj -> inception_4d/pool_proj (in-place)
I0412 06:14:27.230248   410 net.cpp:144] Setting up inception_4d/relu_pool_proj
I0412 06:14:27.230254   410 net.cpp:151] Top shape: 32 64 14 14 (401408)
I0412 06:14:27.230259   410 net.cpp:159] Memory required for data: 1529725828
I0412 06:14:27.230265   410 layer_factory.hpp:77] Creating layer inception_4d/output
I0412 06:14:27.230273   410 net.cpp:94] Creating Layer inception_4d/output
I0412 06:14:27.230278   410 net.cpp:435] inception_4d/output <- inception_4d/1x1
I0412 06:14:27.230284   410 net.cpp:435] inception_4d/output <- inception_4d/3x3
I0412 06:14:27.230290   410 net.cpp:435] inception_4d/output <- inception_4d/5x5
I0412 06:14:27.230296   410 net.cpp:435] inception_4d/output <- inception_4d/pool_proj
I0412 06:14:27.230306   410 net.cpp:409] inception_4d/output -> inception_4d/output
I0412 06:14:27.230370   410 net.cpp:144] Setting up inception_4d/output
I0412 06:14:27.230378   410 net.cpp:151] Top shape: 32 528 14 14 (3311616)
I0412 06:14:27.230383   410 net.cpp:159] Memory required for data: 1542972292
I0412 06:14:27.230388   410 layer_factory.hpp:77] Creating layer inception_4d/output_inception_4d/output_0_split
I0412 06:14:27.230398   410 net.cpp:94] Creating Layer inception_4d/output_inception_4d/output_0_split
I0412 06:14:27.230403   410 net.cpp:435] inception_4d/output_inception_4d/output_0_split <- inception_4d/output
I0412 06:14:27.230414   410 net.cpp:409] inception_4d/output_inception_4d/output_0_split -> inception_4d/output_inception_4d/output_0_split_0
I0412 06:14:27.230423   410 net.cpp:409] inception_4d/output_inception_4d/output_0_split -> inception_4d/output_inception_4d/output_0_split_1
I0412 06:14:27.230432   410 net.cpp:409] inception_4d/output_inception_4d/output_0_split -> inception_4d/output_inception_4d/output_0_split_2
I0412 06:14:27.230440   410 net.cpp:409] inception_4d/output_inception_4d/output_0_split -> inception_4d/output_inception_4d/output_0_split_3
I0412 06:14:27.230448   410 net.cpp:409] inception_4d/output_inception_4d/output_0_split -> inception_4d/output_inception_4d/output_0_split_4
I0412 06:14:27.230514   410 net.cpp:144] Setting up inception_4d/output_inception_4d/output_0_split
I0412 06:14:27.230521   410 net.cpp:151] Top shape: 32 528 14 14 (3311616)
I0412 06:14:27.230527   410 net.cpp:151] Top shape: 32 528 14 14 (3311616)
I0412 06:14:27.230532   410 net.cpp:151] Top shape: 32 528 14 14 (3311616)
I0412 06:14:27.230538   410 net.cpp:151] Top shape: 32 528 14 14 (3311616)
I0412 06:14:27.230554   410 net.cpp:151] Top shape: 32 528 14 14 (3311616)
I0412 06:14:27.230561   410 net.cpp:159] Memory required for data: 1609204612
I0412 06:14:27.230566   410 layer_factory.hpp:77] Creating layer loss2/ave_pool
I0412 06:14:27.230576   410 net.cpp:94] Creating Layer loss2/ave_pool
I0412 06:14:27.230581   410 net.cpp:435] loss2/ave_pool <- inception_4d/output_inception_4d/output_0_split_0
I0412 06:14:27.230590   410 net.cpp:409] loss2/ave_pool -> loss2/ave_pool
I0412 06:14:27.230617   410 net.cpp:144] Setting up loss2/ave_pool
I0412 06:14:27.230624   410 net.cpp:151] Top shape: 32 528 4 4 (270336)
I0412 06:14:27.230629   410 net.cpp:159] Memory required for data: 1610285956
I0412 06:14:27.230635   410 layer_factory.hpp:77] Creating layer loss2/conv
I0412 06:14:27.230648   410 net.cpp:94] Creating Layer loss2/conv
I0412 06:14:27.230654   410 net.cpp:435] loss2/conv <- loss2/ave_pool
I0412 06:14:27.230662   410 net.cpp:409] loss2/conv -> loss2/conv
I0412 06:14:27.231858   410 net.cpp:144] Setting up loss2/conv
I0412 06:14:27.231874   410 net.cpp:151] Top shape: 32 128 4 4 (65536)
I0412 06:14:27.231879   410 net.cpp:159] Memory required for data: 1610548100
I0412 06:14:27.231889   410 layer_factory.hpp:77] Creating layer loss2/relu_conv
I0412 06:14:27.231899   410 net.cpp:94] Creating Layer loss2/relu_conv
I0412 06:14:27.231905   410 net.cpp:435] loss2/relu_conv <- loss2/conv
I0412 06:14:27.231914   410 net.cpp:396] loss2/relu_conv -> loss2/conv (in-place)
I0412 06:14:27.231922   410 net.cpp:144] Setting up loss2/relu_conv
I0412 06:14:27.231930   410 net.cpp:151] Top shape: 32 128 4 4 (65536)
I0412 06:14:27.231935   410 net.cpp:159] Memory required for data: 1610810244
I0412 06:14:27.231940   410 layer_factory.hpp:77] Creating layer loss2/fc
I0412 06:14:27.231948   410 net.cpp:94] Creating Layer loss2/fc
I0412 06:14:27.231954   410 net.cpp:435] loss2/fc <- loss2/conv
I0412 06:14:27.231963   410 net.cpp:409] loss2/fc -> loss2/fc
I0412 06:14:27.247200   410 net.cpp:144] Setting up loss2/fc
I0412 06:14:27.247218   410 net.cpp:151] Top shape: 32 1024 (32768)
I0412 06:14:27.247225   410 net.cpp:159] Memory required for data: 1610941316
I0412 06:14:27.247233   410 layer_factory.hpp:77] Creating layer loss2/relu_fc
I0412 06:14:27.247243   410 net.cpp:94] Creating Layer loss2/relu_fc
I0412 06:14:27.247251   410 net.cpp:435] loss2/relu_fc <- loss2/fc
I0412 06:14:27.247261   410 net.cpp:396] loss2/relu_fc -> loss2/fc (in-place)
I0412 06:14:27.247272   410 net.cpp:144] Setting up loss2/relu_fc
I0412 06:14:27.247277   410 net.cpp:151] Top shape: 32 1024 (32768)
I0412 06:14:27.247282   410 net.cpp:159] Memory required for data: 1611072388
I0412 06:14:27.247288   410 layer_factory.hpp:77] Creating layer loss2/drop_fc
I0412 06:14:27.247298   410 net.cpp:94] Creating Layer loss2/drop_fc
I0412 06:14:27.247303   410 net.cpp:435] loss2/drop_fc <- loss2/fc
I0412 06:14:27.247313   410 net.cpp:396] loss2/drop_fc -> loss2/fc (in-place)
I0412 06:14:27.247339   410 net.cpp:144] Setting up loss2/drop_fc
I0412 06:14:27.247347   410 net.cpp:151] Top shape: 32 1024 (32768)
I0412 06:14:27.247352   410 net.cpp:159] Memory required for data: 1611203460
I0412 06:14:27.247359   410 layer_factory.hpp:77] Creating layer loss2/classifier
I0412 06:14:27.247370   410 net.cpp:94] Creating Layer loss2/classifier
I0412 06:14:27.247376   410 net.cpp:435] loss2/classifier <- loss2/fc
I0412 06:14:27.247386   410 net.cpp:409] loss2/classifier -> loss2/classifier
I0412 06:14:27.247503   410 net.cpp:144] Setting up loss2/classifier
I0412 06:14:27.247514   410 net.cpp:151] Top shape: 32 3 (96)
I0412 06:14:27.247519   410 net.cpp:159] Memory required for data: 1611203844
I0412 06:14:27.247527   410 layer_factory.hpp:77] Creating layer loss2/loss
I0412 06:14:27.247536   410 net.cpp:94] Creating Layer loss2/loss
I0412 06:14:27.247544   410 net.cpp:435] loss2/loss <- loss2/classifier
I0412 06:14:27.247550   410 net.cpp:435] loss2/loss <- label_train-data_1_split_1
I0412 06:14:27.247558   410 net.cpp:409] loss2/loss -> loss2/loss
I0412 06:14:27.247588   410 layer_factory.hpp:77] Creating layer loss2/loss
I0412 06:14:27.247679   410 net.cpp:144] Setting up loss2/loss
I0412 06:14:27.247696   410 net.cpp:151] Top shape: (1)
I0412 06:14:27.247702   410 net.cpp:154]     with loss weight 0.3
I0412 06:14:27.247717   410 net.cpp:159] Memory required for data: 1611203848
I0412 06:14:27.247723   410 layer_factory.hpp:77] Creating layer inception_4e/1x1
I0412 06:14:27.247737   410 net.cpp:94] Creating Layer inception_4e/1x1
I0412 06:14:27.247743   410 net.cpp:435] inception_4e/1x1 <- inception_4d/output_inception_4d/output_0_split_1
I0412 06:14:27.247767   410 net.cpp:409] inception_4e/1x1 -> inception_4e/1x1
I0412 06:14:27.248718   410 net.cpp:144] Setting up inception_4e/1x1
I0412 06:14:27.248730   410 net.cpp:151] Top shape: 32 256 14 14 (1605632)
I0412 06:14:27.248736   410 net.cpp:159] Memory required for data: 1617626376
I0412 06:14:27.248744   410 layer_factory.hpp:77] Creating layer inception_4e/relu_1x1
I0412 06:14:27.248754   410 net.cpp:94] Creating Layer inception_4e/relu_1x1
I0412 06:14:27.248759   410 net.cpp:435] inception_4e/relu_1x1 <- inception_4e/1x1
I0412 06:14:27.248769   410 net.cpp:396] inception_4e/relu_1x1 -> inception_4e/1x1 (in-place)
I0412 06:14:27.248778   410 net.cpp:144] Setting up inception_4e/relu_1x1
I0412 06:14:27.248785   410 net.cpp:151] Top shape: 32 256 14 14 (1605632)
I0412 06:14:27.248790   410 net.cpp:159] Memory required for data: 1624048904
I0412 06:14:27.248795   410 layer_factory.hpp:77] Creating layer inception_4e/3x3_reduce
I0412 06:14:27.248808   410 net.cpp:94] Creating Layer inception_4e/3x3_reduce
I0412 06:14:27.248814   410 net.cpp:435] inception_4e/3x3_reduce <- inception_4d/output_inception_4d/output_0_split_2
I0412 06:14:27.248822   410 net.cpp:409] inception_4e/3x3_reduce -> inception_4e/3x3_reduce
I0412 06:14:27.250128   410 net.cpp:144] Setting up inception_4e/3x3_reduce
I0412 06:14:27.250144   410 net.cpp:151] Top shape: 32 160 14 14 (1003520)
I0412 06:14:27.250149   410 net.cpp:159] Memory required for data: 1628062984
I0412 06:14:27.250159   410 layer_factory.hpp:77] Creating layer inception_4e/relu_3x3_reduce
I0412 06:14:27.250169   410 net.cpp:94] Creating Layer inception_4e/relu_3x3_reduce
I0412 06:14:27.250175   410 net.cpp:435] inception_4e/relu_3x3_reduce <- inception_4e/3x3_reduce
I0412 06:14:27.250183   410 net.cpp:396] inception_4e/relu_3x3_reduce -> inception_4e/3x3_reduce (in-place)
I0412 06:14:27.250193   410 net.cpp:144] Setting up inception_4e/relu_3x3_reduce
I0412 06:14:27.250200   410 net.cpp:151] Top shape: 32 160 14 14 (1003520)
I0412 06:14:27.250205   410 net.cpp:159] Memory required for data: 1632077064
I0412 06:14:27.250211   410 layer_factory.hpp:77] Creating layer inception_4e/3x3
I0412 06:14:27.250222   410 net.cpp:94] Creating Layer inception_4e/3x3
I0412 06:14:27.250228   410 net.cpp:435] inception_4e/3x3 <- inception_4e/3x3_reduce
I0412 06:14:27.250241   410 net.cpp:409] inception_4e/3x3 -> inception_4e/3x3
I0412 06:14:27.254098   410 net.cpp:144] Setting up inception_4e/3x3
I0412 06:14:27.254114   410 net.cpp:151] Top shape: 32 320 14 14 (2007040)
I0412 06:14:27.254120   410 net.cpp:159] Memory required for data: 1640105224
I0412 06:14:27.254129   410 layer_factory.hpp:77] Creating layer inception_4e/relu_3x3
I0412 06:14:27.254140   410 net.cpp:94] Creating Layer inception_4e/relu_3x3
I0412 06:14:27.254148   410 net.cpp:435] inception_4e/relu_3x3 <- inception_4e/3x3
I0412 06:14:27.254155   410 net.cpp:396] inception_4e/relu_3x3 -> inception_4e/3x3 (in-place)
I0412 06:14:27.254165   410 net.cpp:144] Setting up inception_4e/relu_3x3
I0412 06:14:27.254174   410 net.cpp:151] Top shape: 32 320 14 14 (2007040)
I0412 06:14:27.254179   410 net.cpp:159] Memory required for data: 1648133384
I0412 06:14:27.254185   410 layer_factory.hpp:77] Creating layer inception_4e/5x5_reduce
I0412 06:14:27.254196   410 net.cpp:94] Creating Layer inception_4e/5x5_reduce
I0412 06:14:27.254202   410 net.cpp:435] inception_4e/5x5_reduce <- inception_4d/output_inception_4d/output_0_split_3
I0412 06:14:27.254226   410 net.cpp:409] inception_4e/5x5_reduce -> inception_4e/5x5_reduce
I0412 06:14:27.254583   410 net.cpp:144] Setting up inception_4e/5x5_reduce
I0412 06:14:27.254595   410 net.cpp:151] Top shape: 32 32 14 14 (200704)
I0412 06:14:27.254601   410 net.cpp:159] Memory required for data: 1648936200
I0412 06:14:27.254609   410 layer_factory.hpp:77] Creating layer inception_4e/relu_5x5_reduce
I0412 06:14:27.254617   410 net.cpp:94] Creating Layer inception_4e/relu_5x5_reduce
I0412 06:14:27.254623   410 net.cpp:435] inception_4e/relu_5x5_reduce <- inception_4e/5x5_reduce
I0412 06:14:27.254633   410 net.cpp:396] inception_4e/relu_5x5_reduce -> inception_4e/5x5_reduce (in-place)
I0412 06:14:27.254642   410 net.cpp:144] Setting up inception_4e/relu_5x5_reduce
I0412 06:14:27.254648   410 net.cpp:151] Top shape: 32 32 14 14 (200704)
I0412 06:14:27.254654   410 net.cpp:159] Memory required for data: 1649739016
I0412 06:14:27.254659   410 layer_factory.hpp:77] Creating layer inception_4e/5x5
I0412 06:14:27.254711   410 net.cpp:94] Creating Layer inception_4e/5x5
I0412 06:14:27.254719   410 net.cpp:435] inception_4e/5x5 <- inception_4e/5x5_reduce
I0412 06:14:27.254727   410 net.cpp:409] inception_4e/5x5 -> inception_4e/5x5
I0412 06:14:27.255503   410 net.cpp:144] Setting up inception_4e/5x5
I0412 06:14:27.255515   410 net.cpp:151] Top shape: 32 128 14 14 (802816)
I0412 06:14:27.255520   410 net.cpp:159] Memory required for data: 1652950280
I0412 06:14:27.255529   410 layer_factory.hpp:77] Creating layer inception_4e/relu_5x5
I0412 06:14:27.255537   410 net.cpp:94] Creating Layer inception_4e/relu_5x5
I0412 06:14:27.255543   410 net.cpp:435] inception_4e/relu_5x5 <- inception_4e/5x5
I0412 06:14:27.255553   410 net.cpp:396] inception_4e/relu_5x5 -> inception_4e/5x5 (in-place)
I0412 06:14:27.255563   410 net.cpp:144] Setting up inception_4e/relu_5x5
I0412 06:14:27.255568   410 net.cpp:151] Top shape: 32 128 14 14 (802816)
I0412 06:14:27.255574   410 net.cpp:159] Memory required for data: 1656161544
I0412 06:14:27.255580   410 layer_factory.hpp:77] Creating layer inception_4e/pool
I0412 06:14:27.255589   410 net.cpp:94] Creating Layer inception_4e/pool
I0412 06:14:27.255594   410 net.cpp:435] inception_4e/pool <- inception_4d/output_inception_4d/output_0_split_4
I0412 06:14:27.255602   410 net.cpp:409] inception_4e/pool -> inception_4e/pool
I0412 06:14:27.255645   410 net.cpp:144] Setting up inception_4e/pool
I0412 06:14:27.255654   410 net.cpp:151] Top shape: 32 528 14 14 (3311616)
I0412 06:14:27.255659   410 net.cpp:159] Memory required for data: 1669408008
I0412 06:14:27.255666   410 layer_factory.hpp:77] Creating layer inception_4e/pool_proj
I0412 06:14:27.255677   410 net.cpp:94] Creating Layer inception_4e/pool_proj
I0412 06:14:27.255717   410 net.cpp:435] inception_4e/pool_proj <- inception_4e/pool
I0412 06:14:27.255743   410 net.cpp:409] inception_4e/pool_proj -> inception_4e/pool_proj
I0412 06:14:27.256356   410 net.cpp:144] Setting up inception_4e/pool_proj
I0412 06:14:27.256366   410 net.cpp:151] Top shape: 32 128 14 14 (802816)
I0412 06:14:27.256371   410 net.cpp:159] Memory required for data: 1672619272
I0412 06:14:27.256378   410 layer_factory.hpp:77] Creating layer inception_4e/relu_pool_proj
I0412 06:14:27.256388   410 net.cpp:94] Creating Layer inception_4e/relu_pool_proj
I0412 06:14:27.256394   410 net.cpp:435] inception_4e/relu_pool_proj <- inception_4e/pool_proj
I0412 06:14:27.256402   410 net.cpp:396] inception_4e/relu_pool_proj -> inception_4e/pool_proj (in-place)
I0412 06:14:27.256409   410 net.cpp:144] Setting up inception_4e/relu_pool_proj
I0412 06:14:27.256415   410 net.cpp:151] Top shape: 32 128 14 14 (802816)
I0412 06:14:27.256420   410 net.cpp:159] Memory required for data: 1675830536
I0412 06:14:27.256425   410 layer_factory.hpp:77] Creating layer inception_4e/output
I0412 06:14:27.256433   410 net.cpp:94] Creating Layer inception_4e/output
I0412 06:14:27.256438   410 net.cpp:435] inception_4e/output <- inception_4e/1x1
I0412 06:14:27.256444   410 net.cpp:435] inception_4e/output <- inception_4e/3x3
I0412 06:14:27.256476   410 net.cpp:435] inception_4e/output <- inception_4e/5x5
I0412 06:14:27.256484   410 net.cpp:435] inception_4e/output <- inception_4e/pool_proj
I0412 06:14:27.256492   410 net.cpp:409] inception_4e/output -> inception_4e/output
I0412 06:14:27.256521   410 net.cpp:144] Setting up inception_4e/output
I0412 06:14:27.256530   410 net.cpp:151] Top shape: 32 832 14 14 (5218304)
I0412 06:14:27.256534   410 net.cpp:159] Memory required for data: 1696703752
I0412 06:14:27.256539   410 layer_factory.hpp:77] Creating layer pool4/3x3_s2
I0412 06:14:27.256546   410 net.cpp:94] Creating Layer pool4/3x3_s2
I0412 06:14:27.256552   410 net.cpp:435] pool4/3x3_s2 <- inception_4e/output
I0412 06:14:27.256575   410 net.cpp:409] pool4/3x3_s2 -> pool4/3x3_s2
I0412 06:14:27.256644   410 net.cpp:144] Setting up pool4/3x3_s2
I0412 06:14:27.256652   410 net.cpp:151] Top shape: 32 832 7 7 (1304576)
I0412 06:14:27.256659   410 net.cpp:159] Memory required for data: 1701922056
I0412 06:14:27.256664   410 layer_factory.hpp:77] Creating layer pool4/3x3_s2_pool4/3x3_s2_0_split
I0412 06:14:27.256675   410 net.cpp:94] Creating Layer pool4/3x3_s2_pool4/3x3_s2_0_split
I0412 06:14:27.256680   410 net.cpp:435] pool4/3x3_s2_pool4/3x3_s2_0_split <- pool4/3x3_s2
I0412 06:14:27.256697   410 net.cpp:409] pool4/3x3_s2_pool4/3x3_s2_0_split -> pool4/3x3_s2_pool4/3x3_s2_0_split_0
I0412 06:14:27.256707   410 net.cpp:409] pool4/3x3_s2_pool4/3x3_s2_0_split -> pool4/3x3_s2_pool4/3x3_s2_0_split_1
I0412 06:14:27.256716   410 net.cpp:409] pool4/3x3_s2_pool4/3x3_s2_0_split -> pool4/3x3_s2_pool4/3x3_s2_0_split_2
I0412 06:14:27.256723   410 net.cpp:409] pool4/3x3_s2_pool4/3x3_s2_0_split -> pool4/3x3_s2_pool4/3x3_s2_0_split_3
I0412 06:14:27.256783   410 net.cpp:144] Setting up pool4/3x3_s2_pool4/3x3_s2_0_split
I0412 06:14:27.256791   410 net.cpp:151] Top shape: 32 832 7 7 (1304576)
I0412 06:14:27.256798   410 net.cpp:151] Top shape: 32 832 7 7 (1304576)
I0412 06:14:27.256805   410 net.cpp:151] Top shape: 32 832 7 7 (1304576)
I0412 06:14:27.256811   410 net.cpp:151] Top shape: 32 832 7 7 (1304576)
I0412 06:14:27.256817   410 net.cpp:159] Memory required for data: 1722795272
I0412 06:14:27.256822   410 layer_factory.hpp:77] Creating layer inception_5a/1x1
I0412 06:14:27.256836   410 net.cpp:94] Creating Layer inception_5a/1x1
I0412 06:14:27.256844   410 net.cpp:435] inception_5a/1x1 <- pool4/3x3_s2_pool4/3x3_s2_0_split_0
I0412 06:14:27.256853   410 net.cpp:409] inception_5a/1x1 -> inception_5a/1x1
I0412 06:14:27.258926   410 net.cpp:144] Setting up inception_5a/1x1
I0412 06:14:27.258942   410 net.cpp:151] Top shape: 32 256 7 7 (401408)
I0412 06:14:27.258949   410 net.cpp:159] Memory required for data: 1724400904
I0412 06:14:27.258957   410 layer_factory.hpp:77] Creating layer inception_5a/relu_1x1
I0412 06:14:27.258970   410 net.cpp:94] Creating Layer inception_5a/relu_1x1
I0412 06:14:27.258976   410 net.cpp:435] inception_5a/relu_1x1 <- inception_5a/1x1
I0412 06:14:27.258985   410 net.cpp:396] inception_5a/relu_1x1 -> inception_5a/1x1 (in-place)
I0412 06:14:27.258994   410 net.cpp:144] Setting up inception_5a/relu_1x1
I0412 06:14:27.259003   410 net.cpp:151] Top shape: 32 256 7 7 (401408)
I0412 06:14:27.259008   410 net.cpp:159] Memory required for data: 1726006536
I0412 06:14:27.259014   410 layer_factory.hpp:77] Creating layer inception_5a/3x3_reduce
I0412 06:14:27.259025   410 net.cpp:94] Creating Layer inception_5a/3x3_reduce
I0412 06:14:27.259032   410 net.cpp:435] inception_5a/3x3_reduce <- pool4/3x3_s2_pool4/3x3_s2_0_split_1
I0412 06:14:27.259043   410 net.cpp:409] inception_5a/3x3_reduce -> inception_5a/3x3_reduce
I0412 06:14:27.260778   410 net.cpp:144] Setting up inception_5a/3x3_reduce
I0412 06:14:27.260809   410 net.cpp:151] Top shape: 32 160 7 7 (250880)
I0412 06:14:27.260814   410 net.cpp:159] Memory required for data: 1727010056
I0412 06:14:27.260823   410 layer_factory.hpp:77] Creating layer inception_5a/relu_3x3_reduce
I0412 06:14:27.260833   410 net.cpp:94] Creating Layer inception_5a/relu_3x3_reduce
I0412 06:14:27.260851   410 net.cpp:435] inception_5a/relu_3x3_reduce <- inception_5a/3x3_reduce
I0412 06:14:27.260862   410 net.cpp:396] inception_5a/relu_3x3_reduce -> inception_5a/3x3_reduce (in-place)
I0412 06:14:27.260872   410 net.cpp:144] Setting up inception_5a/relu_3x3_reduce
I0412 06:14:27.260879   410 net.cpp:151] Top shape: 32 160 7 7 (250880)
I0412 06:14:27.260885   410 net.cpp:159] Memory required for data: 1728013576
I0412 06:14:27.260890   410 layer_factory.hpp:77] Creating layer inception_5a/3x3
I0412 06:14:27.260902   410 net.cpp:94] Creating Layer inception_5a/3x3
I0412 06:14:27.260923   410 net.cpp:435] inception_5a/3x3 <- inception_5a/3x3_reduce
I0412 06:14:27.260933   410 net.cpp:409] inception_5a/3x3 -> inception_5a/3x3
I0412 06:14:27.264747   410 net.cpp:144] Setting up inception_5a/3x3
I0412 06:14:27.264763   410 net.cpp:151] Top shape: 32 320 7 7 (501760)
I0412 06:14:27.264768   410 net.cpp:159] Memory required for data: 1730020616
I0412 06:14:27.264777   410 layer_factory.hpp:77] Creating layer inception_5a/relu_3x3
I0412 06:14:27.264786   410 net.cpp:94] Creating Layer inception_5a/relu_3x3
I0412 06:14:27.264793   410 net.cpp:435] inception_5a/relu_3x3 <- inception_5a/3x3
I0412 06:14:27.264801   410 net.cpp:396] inception_5a/relu_3x3 -> inception_5a/3x3 (in-place)
I0412 06:14:27.264811   410 net.cpp:144] Setting up inception_5a/relu_3x3
I0412 06:14:27.264817   410 net.cpp:151] Top shape: 32 320 7 7 (501760)
I0412 06:14:27.264822   410 net.cpp:159] Memory required for data: 1732027656
I0412 06:14:27.264828   410 layer_factory.hpp:77] Creating layer inception_5a/5x5_reduce
I0412 06:14:27.264842   410 net.cpp:94] Creating Layer inception_5a/5x5_reduce
I0412 06:14:27.264848   410 net.cpp:435] inception_5a/5x5_reduce <- pool4/3x3_s2_pool4/3x3_s2_0_split_2
I0412 06:14:27.264858   410 net.cpp:409] inception_5a/5x5_reduce -> inception_5a/5x5_reduce
I0412 06:14:27.265292   410 net.cpp:144] Setting up inception_5a/5x5_reduce
I0412 06:14:27.265302   410 net.cpp:151] Top shape: 32 32 7 7 (50176)
I0412 06:14:27.265308   410 net.cpp:159] Memory required for data: 1732228360
I0412 06:14:27.265316   410 layer_factory.hpp:77] Creating layer inception_5a/relu_5x5_reduce
I0412 06:14:27.265324   410 net.cpp:94] Creating Layer inception_5a/relu_5x5_reduce
I0412 06:14:27.265331   410 net.cpp:435] inception_5a/relu_5x5_reduce <- inception_5a/5x5_reduce
I0412 06:14:27.265339   410 net.cpp:396] inception_5a/relu_5x5_reduce -> inception_5a/5x5_reduce (in-place)
I0412 06:14:27.265347   410 net.cpp:144] Setting up inception_5a/relu_5x5_reduce
I0412 06:14:27.265354   410 net.cpp:151] Top shape: 32 32 7 7 (50176)
I0412 06:14:27.265358   410 net.cpp:159] Memory required for data: 1732429064
I0412 06:14:27.265364   410 layer_factory.hpp:77] Creating layer inception_5a/5x5
I0412 06:14:27.265377   410 net.cpp:94] Creating Layer inception_5a/5x5
I0412 06:14:27.265381   410 net.cpp:435] inception_5a/5x5 <- inception_5a/5x5_reduce
I0412 06:14:27.265390   410 net.cpp:409] inception_5a/5x5 -> inception_5a/5x5
I0412 06:14:27.266182   410 net.cpp:144] Setting up inception_5a/5x5
I0412 06:14:27.266196   410 net.cpp:151] Top shape: 32 128 7 7 (200704)
I0412 06:14:27.266201   410 net.cpp:159] Memory required for data: 1733231880
I0412 06:14:27.266209   410 layer_factory.hpp:77] Creating layer inception_5a/relu_5x5
I0412 06:14:27.266219   410 net.cpp:94] Creating Layer inception_5a/relu_5x5
I0412 06:14:27.266227   410 net.cpp:435] inception_5a/relu_5x5 <- inception_5a/5x5
I0412 06:14:27.266234   410 net.cpp:396] inception_5a/relu_5x5 -> inception_5a/5x5 (in-place)
I0412 06:14:27.266243   410 net.cpp:144] Setting up inception_5a/relu_5x5
I0412 06:14:27.266249   410 net.cpp:151] Top shape: 32 128 7 7 (200704)
I0412 06:14:27.266254   410 net.cpp:159] Memory required for data: 1734034696
I0412 06:14:27.266260   410 layer_factory.hpp:77] Creating layer inception_5a/pool
I0412 06:14:27.266270   410 net.cpp:94] Creating Layer inception_5a/pool
I0412 06:14:27.266276   410 net.cpp:435] inception_5a/pool <- pool4/3x3_s2_pool4/3x3_s2_0_split_3
I0412 06:14:27.266299   410 net.cpp:409] inception_5a/pool -> inception_5a/pool
I0412 06:14:27.266347   410 net.cpp:144] Setting up inception_5a/pool
I0412 06:14:27.266356   410 net.cpp:151] Top shape: 32 832 7 7 (1304576)
I0412 06:14:27.266361   410 net.cpp:159] Memory required for data: 1739253000
I0412 06:14:27.266367   410 layer_factory.hpp:77] Creating layer inception_5a/pool_proj
I0412 06:14:27.266379   410 net.cpp:94] Creating Layer inception_5a/pool_proj
I0412 06:14:27.266386   410 net.cpp:435] inception_5a/pool_proj <- inception_5a/pool
I0412 06:14:27.266396   410 net.cpp:409] inception_5a/pool_proj -> inception_5a/pool_proj
I0412 06:14:27.267922   410 net.cpp:144] Setting up inception_5a/pool_proj
I0412 06:14:27.267937   410 net.cpp:151] Top shape: 32 128 7 7 (200704)
I0412 06:14:27.267943   410 net.cpp:159] Memory required for data: 1740055816
I0412 06:14:27.267952   410 layer_factory.hpp:77] Creating layer inception_5a/relu_pool_proj
I0412 06:14:27.267964   410 net.cpp:94] Creating Layer inception_5a/relu_pool_proj
I0412 06:14:27.267971   410 net.cpp:435] inception_5a/relu_pool_proj <- inception_5a/pool_proj
I0412 06:14:27.267980   410 net.cpp:396] inception_5a/relu_pool_proj -> inception_5a/pool_proj (in-place)
I0412 06:14:27.267992   410 net.cpp:144] Setting up inception_5a/relu_pool_proj
I0412 06:14:27.267997   410 net.cpp:151] Top shape: 32 128 7 7 (200704)
I0412 06:14:27.268003   410 net.cpp:159] Memory required for data: 1740858632
I0412 06:14:27.268008   410 layer_factory.hpp:77] Creating layer inception_5a/output
I0412 06:14:27.268018   410 net.cpp:94] Creating Layer inception_5a/output
I0412 06:14:27.268023   410 net.cpp:435] inception_5a/output <- inception_5a/1x1
I0412 06:14:27.268029   410 net.cpp:435] inception_5a/output <- inception_5a/3x3
I0412 06:14:27.268035   410 net.cpp:435] inception_5a/output <- inception_5a/5x5
I0412 06:14:27.268041   410 net.cpp:435] inception_5a/output <- inception_5a/pool_proj
I0412 06:14:27.268049   410 net.cpp:409] inception_5a/output -> inception_5a/output
I0412 06:14:27.268079   410 net.cpp:144] Setting up inception_5a/output
I0412 06:14:27.268090   410 net.cpp:151] Top shape: 32 832 7 7 (1304576)
I0412 06:14:27.268095   410 net.cpp:159] Memory required for data: 1746076936
I0412 06:14:27.268100   410 layer_factory.hpp:77] Creating layer inception_5a/output_inception_5a/output_0_split
I0412 06:14:27.268111   410 net.cpp:94] Creating Layer inception_5a/output_inception_5a/output_0_split
I0412 06:14:27.268117   410 net.cpp:435] inception_5a/output_inception_5a/output_0_split <- inception_5a/output
I0412 06:14:27.268126   410 net.cpp:409] inception_5a/output_inception_5a/output_0_split -> inception_5a/output_inception_5a/output_0_split_0
I0412 06:14:27.268136   410 net.cpp:409] inception_5a/output_inception_5a/output_0_split -> inception_5a/output_inception_5a/output_0_split_1
I0412 06:14:27.268144   410 net.cpp:409] inception_5a/output_inception_5a/output_0_split -> inception_5a/output_inception_5a/output_0_split_2
I0412 06:14:27.268153   410 net.cpp:409] inception_5a/output_inception_5a/output_0_split -> inception_5a/output_inception_5a/output_0_split_3
I0412 06:14:27.268215   410 net.cpp:144] Setting up inception_5a/output_inception_5a/output_0_split
I0412 06:14:27.268224   410 net.cpp:151] Top shape: 32 832 7 7 (1304576)
I0412 06:14:27.268231   410 net.cpp:151] Top shape: 32 832 7 7 (1304576)
I0412 06:14:27.268237   410 net.cpp:151] Top shape: 32 832 7 7 (1304576)
I0412 06:14:27.268244   410 net.cpp:151] Top shape: 32 832 7 7 (1304576)
I0412 06:14:27.268263   410 net.cpp:159] Memory required for data: 1766950152
I0412 06:14:27.268270   410 layer_factory.hpp:77] Creating layer inception_5b/1x1
I0412 06:14:27.268282   410 net.cpp:94] Creating Layer inception_5b/1x1
I0412 06:14:27.268304   410 net.cpp:435] inception_5b/1x1 <- inception_5a/output_inception_5a/output_0_split_0
I0412 06:14:27.268316   410 net.cpp:409] inception_5b/1x1 -> inception_5b/1x1
I0412 06:14:27.270822   410 net.cpp:144] Setting up inception_5b/1x1
I0412 06:14:27.270838   410 net.cpp:151] Top shape: 32 384 7 7 (602112)
I0412 06:14:27.270855   410 net.cpp:159] Memory required for data: 1769358600
I0412 06:14:27.270865   410 layer_factory.hpp:77] Creating layer inception_5b/relu_1x1
I0412 06:14:27.270874   410 net.cpp:94] Creating Layer inception_5b/relu_1x1
I0412 06:14:27.270880   410 net.cpp:435] inception_5b/relu_1x1 <- inception_5b/1x1
I0412 06:14:27.270887   410 net.cpp:396] inception_5b/relu_1x1 -> inception_5b/1x1 (in-place)
I0412 06:14:27.270897   410 net.cpp:144] Setting up inception_5b/relu_1x1
I0412 06:14:27.270903   410 net.cpp:151] Top shape: 32 384 7 7 (602112)
I0412 06:14:27.270908   410 net.cpp:159] Memory required for data: 1771767048
I0412 06:14:27.270915   410 layer_factory.hpp:77] Creating layer inception_5b/3x3_reduce
I0412 06:14:27.270927   410 net.cpp:94] Creating Layer inception_5b/3x3_reduce
I0412 06:14:27.270934   410 net.cpp:435] inception_5b/3x3_reduce <- inception_5a/output_inception_5a/output_0_split_1
I0412 06:14:27.270942   410 net.cpp:409] inception_5b/3x3_reduce -> inception_5b/3x3_reduce
I0412 06:14:27.272644   410 net.cpp:144] Setting up inception_5b/3x3_reduce
I0412 06:14:27.272673   410 net.cpp:151] Top shape: 32 192 7 7 (301056)
I0412 06:14:27.272678   410 net.cpp:159] Memory required for data: 1772971272
I0412 06:14:27.272693   410 layer_factory.hpp:77] Creating layer inception_5b/relu_3x3_reduce
I0412 06:14:27.272704   410 net.cpp:94] Creating Layer inception_5b/relu_3x3_reduce
I0412 06:14:27.272711   410 net.cpp:435] inception_5b/relu_3x3_reduce <- inception_5b/3x3_reduce
I0412 06:14:27.272718   410 net.cpp:396] inception_5b/relu_3x3_reduce -> inception_5b/3x3_reduce (in-place)
I0412 06:14:27.272744   410 net.cpp:144] Setting up inception_5b/relu_3x3_reduce
I0412 06:14:27.272752   410 net.cpp:151] Top shape: 32 192 7 7 (301056)
I0412 06:14:27.272756   410 net.cpp:159] Memory required for data: 1774175496
I0412 06:14:27.272761   410 layer_factory.hpp:77] Creating layer inception_5b/3x3
I0412 06:14:27.272773   410 net.cpp:94] Creating Layer inception_5b/3x3
I0412 06:14:27.272779   410 net.cpp:435] inception_5b/3x3 <- inception_5b/3x3_reduce
I0412 06:14:27.272789   410 net.cpp:409] inception_5b/3x3 -> inception_5b/3x3
I0412 06:14:27.277941   410 net.cpp:144] Setting up inception_5b/3x3
I0412 06:14:27.277959   410 net.cpp:151] Top shape: 32 384 7 7 (602112)
I0412 06:14:27.277964   410 net.cpp:159] Memory required for data: 1776583944
I0412 06:14:27.277973   410 layer_factory.hpp:77] Creating layer inception_5b/relu_3x3
I0412 06:14:27.277981   410 net.cpp:94] Creating Layer inception_5b/relu_3x3
I0412 06:14:27.277988   410 net.cpp:435] inception_5b/relu_3x3 <- inception_5b/3x3
I0412 06:14:27.277997   410 net.cpp:396] inception_5b/relu_3x3 -> inception_5b/3x3 (in-place)
I0412 06:14:27.278007   410 net.cpp:144] Setting up inception_5b/relu_3x3
I0412 06:14:27.278014   410 net.cpp:151] Top shape: 32 384 7 7 (602112)
I0412 06:14:27.278019   410 net.cpp:159] Memory required for data: 1778992392
I0412 06:14:27.278024   410 layer_factory.hpp:77] Creating layer inception_5b/5x5_reduce
I0412 06:14:27.278036   410 net.cpp:94] Creating Layer inception_5b/5x5_reduce
I0412 06:14:27.278043   410 net.cpp:435] inception_5b/5x5_reduce <- inception_5a/output_inception_5a/output_0_split_2
I0412 06:14:27.278049   410 net.cpp:409] inception_5b/5x5_reduce -> inception_5b/5x5_reduce
I0412 06:14:27.279084   410 net.cpp:144] Setting up inception_5b/5x5_reduce
I0412 06:14:27.279101   410 net.cpp:151] Top shape: 32 48 7 7 (75264)
I0412 06:14:27.279108   410 net.cpp:159] Memory required for data: 1779293448
I0412 06:14:27.279115   410 layer_factory.hpp:77] Creating layer inception_5b/relu_5x5_reduce
I0412 06:14:27.279124   410 net.cpp:94] Creating Layer inception_5b/relu_5x5_reduce
I0412 06:14:27.279131   410 net.cpp:435] inception_5b/relu_5x5_reduce <- inception_5b/5x5_reduce
I0412 06:14:27.279139   410 net.cpp:396] inception_5b/relu_5x5_reduce -> inception_5b/5x5_reduce (in-place)
I0412 06:14:27.279148   410 net.cpp:144] Setting up inception_5b/relu_5x5_reduce
I0412 06:14:27.279155   410 net.cpp:151] Top shape: 32 48 7 7 (75264)
I0412 06:14:27.279172   410 net.cpp:159] Memory required for data: 1779594504
I0412 06:14:27.279180   410 layer_factory.hpp:77] Creating layer inception_5b/5x5
I0412 06:14:27.279193   410 net.cpp:94] Creating Layer inception_5b/5x5
I0412 06:14:27.279199   410 net.cpp:435] inception_5b/5x5 <- inception_5b/5x5_reduce
I0412 06:14:27.279207   410 net.cpp:409] inception_5b/5x5 -> inception_5b/5x5
I0412 06:14:27.280207   410 net.cpp:144] Setting up inception_5b/5x5
I0412 06:14:27.280218   410 net.cpp:151] Top shape: 32 128 7 7 (200704)
I0412 06:14:27.280223   410 net.cpp:159] Memory required for data: 1780397320
I0412 06:14:27.280230   410 layer_factory.hpp:77] Creating layer inception_5b/relu_5x5
I0412 06:14:27.280238   410 net.cpp:94] Creating Layer inception_5b/relu_5x5
I0412 06:14:27.280244   410 net.cpp:435] inception_5b/relu_5x5 <- inception_5b/5x5
I0412 06:14:27.280251   410 net.cpp:396] inception_5b/relu_5x5 -> inception_5b/5x5 (in-place)
I0412 06:14:27.280259   410 net.cpp:144] Setting up inception_5b/relu_5x5
I0412 06:14:27.280267   410 net.cpp:151] Top shape: 32 128 7 7 (200704)
I0412 06:14:27.280272   410 net.cpp:159] Memory required for data: 1781200136
I0412 06:14:27.280277   410 layer_factory.hpp:77] Creating layer inception_5b/pool
I0412 06:14:27.280287   410 net.cpp:94] Creating Layer inception_5b/pool
I0412 06:14:27.280292   410 net.cpp:435] inception_5b/pool <- inception_5a/output_inception_5a/output_0_split_3
I0412 06:14:27.280303   410 net.cpp:409] inception_5b/pool -> inception_5b/pool
I0412 06:14:27.280344   410 net.cpp:144] Setting up inception_5b/pool
I0412 06:14:27.280352   410 net.cpp:151] Top shape: 32 832 7 7 (1304576)
I0412 06:14:27.280357   410 net.cpp:159] Memory required for data: 1786418440
I0412 06:14:27.280364   410 layer_factory.hpp:77] Creating layer inception_5b/pool_proj
I0412 06:14:27.280375   410 net.cpp:94] Creating Layer inception_5b/pool_proj
I0412 06:14:27.280380   410 net.cpp:435] inception_5b/pool_proj <- inception_5b/pool
I0412 06:14:27.280390   410 net.cpp:409] inception_5b/pool_proj -> inception_5b/pool_proj
I0412 06:14:27.281775   410 net.cpp:144] Setting up inception_5b/pool_proj
I0412 06:14:27.281790   410 net.cpp:151] Top shape: 32 128 7 7 (200704)
I0412 06:14:27.281796   410 net.cpp:159] Memory required for data: 1787221256
I0412 06:14:27.281805   410 layer_factory.hpp:77] Creating layer inception_5b/relu_pool_proj
I0412 06:14:27.281827   410 net.cpp:94] Creating Layer inception_5b/relu_pool_proj
I0412 06:14:27.281834   410 net.cpp:435] inception_5b/relu_pool_proj <- inception_5b/pool_proj
I0412 06:14:27.281843   410 net.cpp:396] inception_5b/relu_pool_proj -> inception_5b/pool_proj (in-place)
I0412 06:14:27.281853   410 net.cpp:144] Setting up inception_5b/relu_pool_proj
I0412 06:14:27.281860   410 net.cpp:151] Top shape: 32 128 7 7 (200704)
I0412 06:14:27.281864   410 net.cpp:159] Memory required for data: 1788024072
I0412 06:14:27.281870   410 layer_factory.hpp:77] Creating layer inception_5b/output
I0412 06:14:27.281877   410 net.cpp:94] Creating Layer inception_5b/output
I0412 06:14:27.281883   410 net.cpp:435] inception_5b/output <- inception_5b/1x1
I0412 06:14:27.281889   410 net.cpp:435] inception_5b/output <- inception_5b/3x3
I0412 06:14:27.281895   410 net.cpp:435] inception_5b/output <- inception_5b/5x5
I0412 06:14:27.281901   410 net.cpp:435] inception_5b/output <- inception_5b/pool_proj
I0412 06:14:27.281909   410 net.cpp:409] inception_5b/output -> inception_5b/output
I0412 06:14:27.281939   410 net.cpp:144] Setting up inception_5b/output
I0412 06:14:27.281946   410 net.cpp:151] Top shape: 32 1024 7 7 (1605632)
I0412 06:14:27.281951   410 net.cpp:159] Memory required for data: 1794446600
I0412 06:14:27.281956   410 layer_factory.hpp:77] Creating layer pool5/7x7_s1
I0412 06:14:27.281966   410 net.cpp:94] Creating Layer pool5/7x7_s1
I0412 06:14:27.281972   410 net.cpp:435] pool5/7x7_s1 <- inception_5b/output
I0412 06:14:27.281980   410 net.cpp:409] pool5/7x7_s1 -> pool5/7x7_s1
I0412 06:14:27.282039   410 net.cpp:144] Setting up pool5/7x7_s1
I0412 06:14:27.282075   410 net.cpp:151] Top shape: 32 1024 1 1 (32768)
I0412 06:14:27.282081   410 net.cpp:159] Memory required for data: 1794577672
I0412 06:14:27.282086   410 layer_factory.hpp:77] Creating layer pool5/drop_7x7_s1
I0412 06:14:27.282097   410 net.cpp:94] Creating Layer pool5/drop_7x7_s1
I0412 06:14:27.282104   410 net.cpp:435] pool5/drop_7x7_s1 <- pool5/7x7_s1
I0412 06:14:27.282110   410 net.cpp:396] pool5/drop_7x7_s1 -> pool5/7x7_s1 (in-place)
I0412 06:14:27.282155   410 net.cpp:144] Setting up pool5/drop_7x7_s1
I0412 06:14:27.282163   410 net.cpp:151] Top shape: 32 1024 1 1 (32768)
I0412 06:14:27.282169   410 net.cpp:159] Memory required for data: 1794708744
I0412 06:14:27.282174   410 layer_factory.hpp:77] Creating layer loss3/classifier
I0412 06:14:27.282187   410 net.cpp:94] Creating Layer loss3/classifier
I0412 06:14:27.282193   410 net.cpp:435] loss3/classifier <- pool5/7x7_s1
I0412 06:14:27.282202   410 net.cpp:409] loss3/classifier -> loss3/classifier
I0412 06:14:27.282351   410 net.cpp:144] Setting up loss3/classifier
I0412 06:14:27.282361   410 net.cpp:151] Top shape: 32 3 (96)
I0412 06:14:27.282366   410 net.cpp:159] Memory required for data: 1794709128
I0412 06:14:27.282372   410 layer_factory.hpp:77] Creating layer loss3/loss
I0412 06:14:27.282380   410 net.cpp:94] Creating Layer loss3/loss
I0412 06:14:27.282387   410 net.cpp:435] loss3/loss <- loss3/classifier
I0412 06:14:27.282393   410 net.cpp:435] loss3/loss <- label_train-data_1_split_2
I0412 06:14:27.282400   410 net.cpp:409] loss3/loss -> loss
…
I0412 06:14:27.285375   410 solver.cpp:181] Creating test net (#0) specified by net file: train_val.prototxt
I0412 06:14:27.285537   410 net.cpp:323] The NetState phase (1) differed from the phase (0) specified by a rule in layer train-data
I0412 06:14:27.286324   410 net.cpp:52] Initializing net from parameters:
state {
phase: TEST
}
layer {
name: "val-data"
type: "Data"
top: "data"
top: "label"
include {
phase: TEST
}
transform_param {
mirror: false
crop_size: 224
mean_file: "/opt/DIGITS/digits/jobs/20180412-060316-1124/mean.binaryproto"
}
data_param {
source: "/opt/DIGITS/digits/jobs/20180412-060316-1124/val_db"
batch_size: 16
backend: LMDB
}
}
layer {
name: "conv1/7x7_s2"
type: "Convolution"
bottom: "data"
top: "conv1/7x7_s2"
param {
lr_mult: 1
decay_mult: 1
}
param {
lr_mult: 2
decay_mult: 0
}
convolution_param {
num_output: 64
pad: 3
kernel_size: 7
stride: 2
weight_filler {
type: "xavier"
std: 0.1
}
bias_filler {
type: "constant"
value: 0.2
}
}
}
layer {
name: "conv1/relu_7x7"
type: "ReLU"
bottom: "conv1/7x7_s2"
top: "conv1/7x7_s2"
}
layer {
name: "pool1/3x3_s2"
type: "Pooling"
bottom: "conv1/7x7_s2"
top: "pool1/3x3_s2"
pooling_param {
pool: MAX
kernel_size: 3
stride: 2
}
}
layer {
name: "pool1/norm1"
type: "LRN"
bottom: "pool1/3x3_s2"
top: "pool1/norm1"
lrn_param {
local_size: 5
alpha: 0.0001
beta: 0.75
}
}
layer {
name: "conv2/3x3_reduce"
type: "Convolution"
bottom: "pool1/norm1"
top: "conv2/3x3_reduce"
param {
lr_mult: 1
decay_mult: 1
}
param {
lr_mult: 2
decay_mult: 0
}
convolution_param {
num_output: 64
kernel_size: 1
weight_filler {
type: "xavier"
std: 0.1
}
bias_filler {
type: "constant"
value: 0.2
}
}
}
layer {
name: "conv2/relu_3x3_reduce"
type: "ReLU"
bottom: "conv2/3x3_reduce"
top: "conv2/3x3_reduce"
}
layer {
name: "conv2/3x3"
type: "Convolution"
bottom: "conv2/3x3_reduce"
top: "conv2/3x3"
param {
lr_mult: 1
decay_mult: 1
}
param {
lr_mult: 2
decay_mult: 0
}
convolution_param {
num_output: 192
pad: 1
kernel_size: 3
weight_filler {
type: "xavier"
std: 0.03
}
bias_filler {
type: "constant"
value: 0.2
}
}
}
layer {
name: "conv2/relu_3x3"
type: "ReLU"
bottom: "conv2/3x3"
top: "conv2/3x3"
}
layer {
name: "conv2/norm2"
type: "LRN"
bottom: "conv2/3x3"
top: "conv2/norm2"
lrn_param {
local_size: 5
alpha: 0.0001
beta: 0.75
}
}
layer {
name: "pool2/3x3_s2"
type: "Pooling"
bottom: "conv2/norm2"
top: "pool2/3x3_s2"
pooling_param {
pool: MAX
kernel_size: 3
stride: 2
}
}
layer {
name: "inception_3a/1x1"
type: "Convolution"
bottom: "pool2/3x3_s2"
top: "inception_3a/1x1"
param {
lr_mult: 1
decay_mult: 1
}
param {
lr_mult: 2
decay_mult: 0
}
convolution_param {
num_output: 64
kernel_size: 1
weight_filler {
type: "xavier"
std: 0.03
}
bias_filler {
type: "constant"
value: 0.2
}
}
}
layer {
name: "inception_3a/relu_1x1"
type: "ReLU"
bottom: "inception_3a/1x1"
top: "inception_3a/1x1"
}
layer {
name: "inception_3a/3x3_reduce"
type: "Convolution"
bottom: "pool2/3x3_s2"
top: "inception_3a/3x3_reduce"
param {
lr_mult: 1
decay_mult: 1
}
param {
lr_mult: 2
decay_mult: 0
}
convolution_param {
num_output: 96
kernel_size: 1
weight_filler {
type: "xavier"
std: 0.09
}
bias_filler {
type: "constant"
value: 0.2
}
}
}
layer {
name: "inception_3a/relu_3x3_reduce"
type: "ReLU"
bottom: "inception_3a/3x3_reduce"
top: "inception_3a/3x3_reduce"
}
layer {
name: "inception_3a/3x3"
type: "Convolution"
bottom: "inception_3a/3x3_reduce"
top: "inception_3a/3x3"
param {
lr_mult: 1
decay_mult: 1
}
param {
lr_mult: 2
decay_mult: 0
}
convolution_param {
num_output: 128
pad: 1
kernel_size: 3
weight_filler {
type: "xavier"
std: 0.03
}
bias_filler {
type: "constant"
value: 0.2
}
}
}
layer {
name: "inception_3a/relu_3x3"
type: "ReLU"
bottom: "inception_3a/3x3"
top: "inception_3a/3x3"
}
layer {
name: "inception_3a/5x5_reduce"
type: "Convolution"
bottom: "pool2/3x3_s2"
top: "inception_3a/5x5_reduce"
param {
lr_mult: 1
decay_mult: 1
}
param {
lr_mult: 2
decay_mult: 0
}
convolution_param {
num_output: 16
kernel_size: 1
weight_filler {
type: "xavier"
std: 0.2
}
bias_filler {
type: "constant"
value: 0.2
}
}
}
layer {
name: "inception_3a/relu_5x5_reduce"
type: "ReLU"
bottom: "inception_3a/5x5_reduce"
top: "inception_3a/5x5_reduce"
}
layer {
name: "inception_3a/5x5"
type: "Convolution"
bottom: "inception_3a/5x5_reduce"
top: "inception_3a/5x5"
param {
lr_mult: 1
decay_mult: 1
}
param {
lr_mult: 2
decay_mult: 0
}
convolution_param {
num_output: 32
pad: 2
kernel_size: 5
weight_filler {
type: "xavier"
std: 0.03
}
bias_filler {
type: "constant"
value: 0.2
}
}
}
layer {
name: "inception_3a/relu_5x5"
type: "ReLU"
bottom: "inception_3a/5x5"
top: "inception_3a/5x5"
}
layer {
name: "inception_3a/pool"
type: "Pooling"
bottom: "pool2/3x3_s2"
top: "inception_3a/pool"
pooling_param {
pool: MAX
kernel_size: 3
stride: 1
pad: 1
}
}
layer {
name: "inception_3a/pool_proj"
type: "Convolution"
bottom: "inception_3a/pool"
top: "inception_3a/pool_proj"
param {
lr_mult: 1
decay_mult: 1
}
param {
lr_mult: 2
decay_mult: 0
}
convolution_param {
num_output: 32
kernel_size: 1
weight_filler {
type: "xavier"
std: 0.1
}
bias_filler {
type: "constant"
value: 0.2
}
}
}
layer {
name: "inception_3a/relu_pool_proj"
type: "ReLU"
bottom: "inception_3a/pool_proj"
top: "inception_3a/pool_proj"
}
layer {
name: "inception_3a/output"
type: "Concat"
bottom: "inception_3a/1x1"
bottom: "inception_3a/3x3"
bottom: "inception_3a/5x5"
bottom: "inception_3a/pool_proj"
top: "inception_3a/output"
}
layer {
name: "inception_3b/1x1"
type: "Convolution"
bottom: "inception_3a/output"
top: "inception_3b/1x1"
param {
lr_mult: 1
decay_mult: 1
}
param {
lr_mult: 2
decay_mult: 0
}
convolution_param {
num_output: 128
kernel_size: 1
weight_filler {
type: "xavier"
std: 0.03
}
bias_filler {
type: "constant"
value: 0.2
}
}
}
layer {
name: "inception_3b/relu_1x1"
type: "ReLU"
bottom: "inception_3b/1x1"
top: "inception_3b/1x1"
}
layer {
name: "inception_3b/3x3_reduce"
type: "Convolution"
bottom: "inception_3a/output"
top: "inception_3b/3x3_reduce"
param {
lr_mult: 1
decay_mult: 1
}
param {
lr_mult: 2
decay_mult: 0
}
convolution_param {
num_output: 128
kernel_size: 1
weight_filler {
type: "xavier"
std: 0.09
}
bias_filler {
type: "constant"
value: 0.2
}
}
}
layer {
name: "inception_3b/relu_3x3_reduce"
type: "ReLU"
bottom: "inception_3b/3x3_reduce"
top: "inception_3b/3x3_reduce"
}
layer {
name: "inception_3b/3x3"
type: "Convolution"
bottom: "inception_3b/3x3_reduce"
top: "inception_3b/3x3"
param {
lr_mult: 1
decay_mult: 1
}
param {
lr_mult: 2
decay_mult: 0
}
convolution_param {
num_output: 192
pad: 1
kernel_size: 3
weight_filler {
type: "xavier"
std: 0.03
}
bias_filler {
type: "constant"
value: 0.2
}
}
}
layer {
name: "inception_3b/relu_3x3"
type: "ReLU"
bottom: "inception_3b/3x3"
top: "inception_3b/3x3"
}
layer {
name: "inception_3b/5x5_reduce"
type: "Convolution"
bottom: "inception_3a/output"
top: "inception_3b/5x5_reduce"
param {
lr_mult: 1
decay_mult: 1
}
param {
lr_mult: 2
decay_mult: 0
}
convolution_param {
num_output: 32
kernel_size: 1
weight_filler {
type: "xavier"
std: 0.2
}
bias_filler {
type: "constant"
value: 0.2
}
}
}
layer {
name: "inception_3b/relu_5x5_reduce"
type: "ReLU"
bottom: "inception_3b/5x5_reduce"
top: "inception_3b/5x5_reduce"
}
layer {
name: "inception_3b/5x5"
type: "Convolution"
bottom: "inception_3b/5x5_reduce"
top: "inception_3b/5x5"
param {
lr_mult: 1
decay_mult: 1
}
param {
lr_mult: 2
decay_mult: 0
}
convolution_param {
num_output: 96
pad: 2
kernel_size: 5
weight_filler {
type: "xavier"
std: 0.03
}
bias_filler {
type: "constant"
value: 0.2
}
}
}
layer {
name: "inception_3b/relu_5x5"
type: "ReLU"
bottom: "inception_3b/5x5"
top: "inception_3b/5x5"
}
layer {
name: "inception_3b/pool"
type: "Pooling"
bottom: "inception_3a/output"
top: "inception_3b/pool"
pooling_param {
pool: MAX
kernel_size: 3
stride: 1
pad: 1
}
}
layer {
name: "inception_3b/pool_proj"
type: "Convolution"
bottom: "inception_3b/pool"
top: "inception_3b/pool_proj"
param {
lr_mult: 1
decay_mult: 1
}
param {
lr_mult: 2
decay_mult: 0
}
convolution_param {
num_output: 64
kernel_size: 1
weight_filler {
type: "xavier"
std: 0.1
}
bias_filler {
type: "constant"
value: 0.2
}
}
}
layer {
name: "inception_3b/relu_pool_proj"
type: "ReLU"
bottom: "inception_3b/pool_proj"
top: "inception_3b/pool_proj"
}
layer {
name: "inception_3b/output"
type: "Concat"
bottom: "inception_3b/1x1"
bottom: "inception_3b/3x3"
bottom: "inception_3b/5x5"
bottom: "inception_3b/pool_proj"
top: "inception_3b/output"
}
layer {
name: "pool3/3x3_s2"
type: "Pooling"
bottom: "inception_3b/output"
top: "pool3/3x3_s2"
pooling_param {
pool: MAX
kernel_size: 3
stride: 2
}
}
layer {
name: "inception_4a/1x1"
type: "Convolution"
bottom: "pool3/3x3_s2"
top: "inception_4a/1x1"
param {
lr_mult: 1
decay_mult: 1
}
param {
lr_mult: 2
decay_mult: 0
}
convolution_param {
num_output: 192
kernel_size: 1
weight_filler {
type: "xavier"
std: 0.03
}
bias_filler {
type: "constant"
value: 0.2
}
}
}
layer {
name: "inception_4a/relu_1x1"
type: "ReLU"
bottom: "inception_4a/1x1"
top: "inception_4a/1x1"
}
layer {
name: "inception_4a/3x3_reduce"
type: "Convolution"
bottom: "pool3/3x3_s2"
top: "inception_4a/3x3_reduce"
param {
lr_mult: 1
decay_mult: 1
}
param {
lr_mult: 2
decay_mult: 0
}
convolution_param {
num_output: 96
kernel_size: 1
weight_filler {
type: "xavier"
std: 0.09
}
bias_filler {
type: "constant"
value: 0.2
}
}
}
layer {
name: "inception_4a/relu_3x3_reduce"
type: "ReLU"
bottom: "inception_4a/3x3_reduce"
top: "inception_4a/3x3_reduce"
}
layer {
name: "inception_4a/3x3"
type: "Convolution"
bottom: "inception_4a/3x3_reduce"
top: "inception_4a/3x3"
param {
lr_mult: 1
decay_mult: 1
}
param {
lr_mult: 2
decay_mult: 0
}
convolution_param {
num_output: 208
pad: 1
kernel_size: 3
weight_filler {
type: "xavier"
std: 0.03
}
bias_filler {
type: "constant"
value: 0.2
}
}
}
layer {
name: "inception_4a/relu_3x3"
type: "ReLU"
bottom: "inception_4a/3x3"
top: "inception_4a/3x3"
}
layer {
name: "inception_4a/5x5_reduce"
type: "Convolution"
bottom: "pool3/3x3_s2"
top: "inception_4a/5x5_reduce"
param {
lr_mult: 1
decay_mult: 1
}
param {
lr_mult: 2
decay_mult: 0
}
convolution_param {
num_output: 16
kernel_size: 1
weight_filler {
type: "xavier"
std: 0.2
}
bias_filler {
type: "constant"
value: 0.2
}
}
}
layer {
name: "inception_4a/relu_5x5_reduce"
type: "ReLU"
bottom: "inception_4a/5x5_reduce"
top: "inception_4a/5x5_reduce"
}
layer {
name: "inception_4a/5x5"
type: "Convolution"
bottom: "inception_4a/5x5_reduce"
top: "inception_4a/5x5"
param {
lr_mult: 1
decay_mult: 1
}
param {
lr_mult: 2
decay_mult: 0
}
convolution_param {
num_output: 48
pad: 2
kernel_size: 5
weight_filler {
type: "xavier"
std: 0.03
}
bias_filler {
type: "constant"
value: 0.2
}
}
}
layer {
name: "inception_4a/relu_5x5"
type: "ReLU"
bottom: "inception_4a/5x5"
top: "inception_4a/5x5"
}
layer {
name: "inception_4a/pool"
type: "Pooling"
bottom: "pool3/3x3_s2"
top: "inception_4a/pool"
pooling_param {
pool: MAX
kernel_size: 3
stride: 1
pad: 1
}
}
layer {
name: "inception_4a/pool_proj"
type: "Convolution"
bottom: "inception_4a/pool"
top: "inception_4a/pool_proj"
param {
lr_mult: 1
decay_mult: 1
}
param {
lr_mult: 2
decay_mult: 0
}
convolution_param {
num_output: 64
kernel_size: 1
weight_filler {
type: "xavier"
std: 0.1
}
bias_filler {
type: "constant"
value: 0.2
}
}
}
layer {
name: "inception_4a/relu_pool_proj"
type: "ReLU"
bottom: "inception_4a/pool_proj"
top: "inception_4a/pool_proj"
}
layer {
name: "inception_4a/output"
type: "Concat"
bottom: "inception_4a/1x1"
bottom: "inception_4a/3x3"
bottom: "inception_4a/5x5"
bottom: "inception_4a/pool_proj"
top: "inception_4a/output"
}
layer {
name: "loss1/ave_pool"
type: "Pooling"
bottom: "inception_4a/output"
top: "loss1/ave_pool"
pooling_param {
pool: AVE
kernel_size: 5
stride: 3
}
}
layer {
name: "loss1/conv"
type: "Convolution"
bottom: "loss1/ave_pool"
top: "loss1/conv"
param {
lr_mult: 1
decay_mult: 1
}
param {
lr_mult: 2
decay_mult: 0
}
convolution_param {
num_output: 128
kernel_size: 1
weight_filler {
type: "xavier"
std: 0.08
}
bias_filler {
type: "constant"
value: 0.2
}
}
}
layer {
name: "loss1/relu_conv"
type: "ReLU"
bottom: "loss1/conv"
top: "loss1/conv"
}
layer {
name: "loss1/fc"
type: "InnerProduct"
bottom: "loss1/conv"
top: "loss1/fc"
param {
lr_mult: 1
decay_mult: 1
}
param {
lr_mult: 2
decay_mult: 0
}
inner_product_param {
num_output: 1024
weight_filler {
type: "xavier"
std: 0.02
}
bias_filler {
type: "constant"
value: 0.2
}
}
}
layer {
name: "loss1/relu_fc"
type: "ReLU"
bottom: "loss1/fc"
top: "loss1/fc"
}
layer {
name: "loss1/drop_fc"
type: "Dropout"
bottom: "loss1/fc"
top: "loss1/fc"
dropout_param {
dropout_ratio: 0.7
}
}
layer {
name: "loss1/classifier"
type: "InnerProduct"
bottom: "loss1/fc"
top: "loss1/classifier"
param {
lr_mult: 1
decay_mult: 1
}
param {
lr_mult: 2
decay_mult: 0
}
inner_product_param {
num_output: 3
weight_filler {
type: "xavier"
std: 0.0009765625
}
bias_filler {
type: "constant"
value: 0
}
}
}
layer {
name: "loss1/loss"
type: "SoftmaxWithLoss"
bottom: "loss1/classifier"
bottom: "label"
top: "loss1/loss"
loss_weight: 0.3
}
layer {
name: "loss1/top-1"
type: "Accuracy"
bottom: "loss1/classifier"
bottom: "label"
top: "loss1/accuracy"
include {
phase: TEST
}
}
layer {
name: "inception_4b/1x1"
type: "Convolution"
bottom: "inception_4a/output"
top: "inception_4b/1x1"
param {
lr_mult: 1
decay_mult: 1
}
param {
lr_mult: 2
decay_mult: 0
}
convolution_param {
num_output: 160
kernel_size: 1
weight_filler {
type: "xavier"
std: 0.03
}
bias_filler {
type: "constant"
value: 0.2
}
}
}
layer {
name: "inception_4b/relu_1x1"
type: "ReLU"
bottom: "inception_4b/1x1"
top: "inception_4b/1x1"
}
layer {
name: "inception_4b/3x3_reduce"
type: "Convolution"
bottom: "inception_4a/output"
top: "inception_4b/3x3_reduce"
param {
lr_mult: 1
decay_mult: 1
}
param {
lr_mult: 2
decay_mult: 0
}
convolution_param {
num_output: 112
kernel_size: 1
weight_filler {
type: "xavier"
std: 0.09
}
bias_filler {
type: "constant"
value: 0.2
}
}
}
layer {
name: "inception_4b/relu_3x3_reduce"
type: "ReLU"
bottom: "inception_4b/3x3_reduce"
top: "inception_4b/3x3_reduce"
}
layer {
name: "inception_4b/3x3"
type: "Convolution"
bottom: "inception_4b/3x3_reduce"
top: "inception_4b/3x3"
param {
lr_mult: 1
decay_mult: 1
}
param {
lr_mult: 2
decay_mult: 0
}
convolution_param {
num_output: 224
pad: 1
kernel_size: 3
weight_filler {
type: "xavier"
std: 0.03
}
bias_filler {
type: "constant"
value: 0.2
}
}
}
layer {
name: "inception_4b/relu_3x3"
type: "ReLU"
bottom: "inception_4b/3x3"
top: "inception_4b/3x3"
}
layer {
name: "inception_4b/5x5_reduce"
type: "Convolution"
bottom: "inception_4a/output"
top: "inception_4b/5x5_reduce"
param {
lr_mult: 1
decay_mult: 1
}
param {
lr_mult: 2
decay_mult: 0
}
convolution_param {
num_output: 24
kernel_size: 1
weight_filler {
type: "xavier"
std: 0.2
}
bias_filler {
type: "constant"
value: 0.2
}
}
}
layer {
name: "inception_4b/relu_5x5_reduce"
type: "ReLU"
bottom: "inception_4b/5x5_reduce"
top: "inception_4b/5x5_reduce"
}
layer {
name: "inception_4b/5x5"
type: "Convolution"
bottom: "inception_4b/5x5_reduce"
top: "inception_4b/5x5"
param {
lr_mult: 1
decay_mult: 1
}
param {
lr_mult: 2
decay_mult: 0
}
convolution_param {
num_output: 64
pad: 2
kernel_size: 5
weight_filler {
type: "xavier"
std: 0.03
}
bias_filler {
type: "constant"
value: 0.2
}
}
}
layer {
name: "inception_4b/relu_5x5"
type: "ReLU"
bottom: "inception_4b/5x5"
top: "inception_4b/5x5"
}
layer {
name: "inception_4b/pool"
type: "Pooling"
bottom: "inception_4a/output"
top: "inception_4b/pool"
pooling_param {
pool: MAX
kernel_size: 3
stride: 1
pad: 1
}
}
layer {
name: "inception_4b/pool_proj"
type: "Convolution"
bottom: "inception_4b/pool"
top: "inception_4b/pool_proj"
param {
lr_mult: 1
decay_mult: 1
}
param {
lr_mult: 2
decay_mult: 0
}
convolution_param {
num_output: 64
kernel_size: 1
weight_filler {
type: "xavier"
std: 0.1
}
bias_filler {
type: "constant"
value: 0.2
}
}
}
layer {
name: "inception_4b/relu_pool_proj"
type: "ReLU"
bottom: "inception_4b/pool_proj"
top: "inception_4b/pool_proj"
}
layer {
name: "inception_4b/output"
type: "Concat"
bottom: "inception_4b/1x1"
bottom: "inception_4b/3x3"
bottom: "inception_4b/5x5"
bottom: "inception_4b/pool_proj"
top: "inception_4b/output"
}
layer {
name: "inception_4c/1x1"
type: "Convolution"
bottom: "inception_4b/output"
top: "inception_4c/1x1"
param {
lr_mult: 1
decay_mult: 1
}
param {
lr_mult: 2
decay_mult: 0
}
convolution_param {
num_output: 128
kernel_size: 1
weight_filler {
type: "xavier"
std: 0.03
}
bias_filler {
type: "constant"
value: 0.2
}
}
}
layer {
name: "inception_4c/relu_1x1"
type: "ReLU"
bottom: "inception_4c/1x1"
top: "inception_4c/1x1"
}
layer {
name: "inception_4c/3x3_reduce"
type: "Convolution"
bottom: "inception_4b/output"
top: "inception_4c/3x3_reduce"
param {
lr_mult: 1
decay_mult: 1
}
param {
lr_mult: 2
decay_mult: 0
}
convolution_param {
num_output: 128
kernel_size: 1
weight_filler {
type: "xavier"
std: 0.09
}
bias_filler {
type: "constant"
value: 0.2
}
}
}
layer {
name: "inception_4c/relu_3x3_reduce"
type: "ReLU"
bottom: "inception_4c/3x3_reduce"
top: "inception_4c/3x3_reduce"
}
layer {
name: "inception_4c/3x3"
type: "Convolution"
bottom: "inception_4c/3x3_reduce"
top: "inception_4c/3x3"
param {
lr_mult: 1
decay_mult: 1
}
param {
lr_mult: 2
decay_mult: 0
}
convolution_param {
num_output: 256
pad: 1
kernel_size: 3
weight_filler {
type: "xavier"
std: 0.03
}
bias_filler {
type: "constant"
value: 0.2
}
}
}
layer {
name: "inception_4c/relu_3x3"
type: "ReLU"
bottom: "inception_4c/3x3"
top: "inception_4c/3x3"
}
layer {
name: "inception_4c/5x5_reduce"
type: "Convolution"
bottom: "inception_4b/output"
top: "inception_4c/5x5_reduce"
param {
lr_mult: 1
decay_mult: 1
}
param {
lr_mult: 2
decay_mult: 0
}
convolution_param {
num_output: 24
kernel_size: 1
weight_filler {
type: "xavier"
std: 0.2
}
bias_filler {
type: "constant"
value: 0.2
}
}
}
layer {
name: "inception_4c/relu_5x5_reduce"
type: "ReLU"
bottom: "inception_4c/5x5_reduce"
top: "inception_4c/5x5_reduce"
}
layer {
name: "inception_4c/5x5"
type: "Convolution"
bottom: "inception_4c/5x5_reduce"
top: "inception_4c/5x5"
param {
lr_mult: 1
decay_mult: 1
}
param {
lr_mult: 2
decay_mult: 0
}
convolution_param {
num_output: 64
pad: 2
kernel_size: 5
weight_filler {
type: "xavier"
std: 0.03
}
bias_filler {
type: "constant"
value: 0.2
}
}
}
layer {
name: "inception_4c/relu_5x5"
type: "ReLU"
bottom: "inception_4c/5x5"
top: "inception_4c/5x5"
}
layer {
name: "inception_4c/pool"
type: "Pooling"
bottom: "inception_4b/output"
top: "inception_4c/pool"
pooling_param {
pool: MAX
kernel_size: 3
stride: 1
pad: 1
}
}
layer {
name: "inception_4c/pool_proj"
type: "Convolution"
bottom: "inception_4c/pool"
top: "inception_4c/pool_proj"
param {
lr_mult: 1
decay_mult: 1
}
param {
lr_mult: 2
decay_mult: 0
}
convolution_param {
num_output: 64
kernel_size: 1
weight_filler {
type: "xavier"
std: 0.1
}
bias_filler {
type: "constant"
value: 0.2
}
}
}
layer {
name: "inception_4c/relu_pool_proj"
type: "ReLU"
bottom: "inception_4c/pool_proj"
top: "inception_4c/pool_proj"
}
layer {
name: "inception_4c/output"
type: "Concat"
bottom: "inception_4c/1x1"
bottom: "inception_4c/3x3"
bottom: "inception_4c/5x5"
bottom: "inception_4c/pool_proj"
top: "inception_4c/output"
}
layer {
name: "inception_4d/1x1"
type: "Convolution"
bottom: "inception_4c/output"
top: "inception_4d/1x1"
param {
lr_mult: 1
decay_mult: 1
}
param {
lr_mult: 2
decay_mult: 0
}
convolution_param {
num_output: 112
kernel_size: 1
weight_filler {
type: "xavier"
std: 0.03
}
bias_filler {
type: "constant"
value: 0.2
}
}
}
layer {
name: "inception_4d/relu_1x1"
type: "ReLU"
bottom: "inception_4d/1x1"
…
I0412 06:14:27.383721   410 net.cpp:159] Memory required for data: 699835400
I0412 06:14:27.383729   410 layer_factory.hpp:77] Creating layer inception_4c/relu_5x5
I0412 06:14:27.383751   410 net.cpp:94] Creating Layer inception_4c/relu_5x5
I0412 06:14:27.383759   410 net.cpp:435] inception_4c/relu_5x5 <- inception_4c/5x5
I0412 06:14:27.383767   410 net.cpp:396] inception_4c/relu_5x5 -> inception_4c/5x5 (in-place)
I0412 06:14:27.383776   410 net.cpp:144] Setting up inception_4c/relu_5x5
I0412 06:14:27.383783   410 net.cpp:151] Top shape: 16 64 14 14 (200704)
I0412 06:14:27.383803   410 net.cpp:159] Memory required for data: 700638216
I0412 06:14:27.383810   410 layer_factory.hpp:77] Creating layer inception_4c/pool
I0412 06:14:27.383818   410 net.cpp:94] Creating Layer inception_4c/pool
I0412 06:14:27.383823   410 net.cpp:435] inception_4c/pool <- inception_4b/output_inception_4b/output_0_split_3
I0412 06:14:27.383832   410 net.cpp:409] inception_4c/pool -> inception_4c/pool
I0412 06:14:27.383880   410 net.cpp:144] Setting up inception_4c/pool
I0412 06:14:27.383888   410 net.cpp:151] Top shape: 16 512 14 14 (1605632)
I0412 06:14:27.383894   410 net.cpp:159] Memory required for data: 707060744
I0412 06:14:27.383899   410 layer_factory.hpp:77] Creating layer inception_4c/pool_proj
I0412 06:14:27.383911   410 net.cpp:94] Creating Layer inception_4c/pool_proj
I0412 06:14:27.383934   410 net.cpp:435] inception_4c/pool_proj <- inception_4c/pool
I0412 06:14:27.383942   410 net.cpp:409] inception_4c/pool_proj -> inception_4c/pool_proj
I0412 06:14:27.384376   410 net.cpp:144] Setting up inception_4c/pool_proj
I0412 06:14:27.384387   410 net.cpp:151] Top shape: 16 64 14 14 (200704)
I0412 06:14:27.384392   410 net.cpp:159] Memory required for data: 707863560
I0412 06:14:27.384399   410 layer_factory.hpp:77] Creating layer inception_4c/relu_pool_proj
I0412 06:14:27.384408   410 net.cpp:94] Creating Layer inception_4c/relu_pool_proj
I0412 06:14:27.384415   410 net.cpp:435] inception_4c/relu_pool_proj <- inception_4c/pool_proj
I0412 06:14:27.384423   410 net.cpp:396] inception_4c/relu_pool_proj -> inception_4c/pool_proj (in-place)
I0412 06:14:27.384431   410 net.cpp:144] Setting up inception_4c/relu_pool_proj
I0412 06:14:27.384438   410 net.cpp:151] Top shape: 16 64 14 14 (200704)
I0412 06:14:27.384443   410 net.cpp:159] Memory required for data: 708666376
I0412 06:14:27.384449   410 layer_factory.hpp:77] Creating layer inception_4c/output
I0412 06:14:27.384457   410 net.cpp:94] Creating Layer inception_4c/output
I0412 06:14:27.384464   410 net.cpp:435] inception_4c/output <- inception_4c/1x1
I0412 06:14:27.384469   410 net.cpp:435] inception_4c/output <- inception_4c/3x3
I0412 06:14:27.384475   410 net.cpp:435] inception_4c/output <- inception_4c/5x5
I0412 06:14:27.384481   410 net.cpp:435] inception_4c/output <- inception_4c/pool_proj
I0412 06:14:27.384490   410 net.cpp:409] inception_4c/output -> inception_4c/output
I0412 06:14:27.384519   410 net.cpp:144] Setting up inception_4c/output
I0412 06:14:27.384527   410 net.cpp:151] Top shape: 16 512 14 14 (1605632)
I0412 06:14:27.384532   410 net.cpp:159] Memory required for data: 715088904
I0412 06:14:27.384538   410 layer_factory.hpp:77] Creating layer inception_4c/output_inception_4c/output_0_split
I0412 06:14:27.384548   410 net.cpp:94] Creating Layer inception_4c/output_inception_4c/output_0_split
I0412 06:14:27.384554   410 net.cpp:435] inception_4c/output_inception_4c/output_0_split <- inception_4c/output
I0412 06:14:27.384563   410 net.cpp:409] inception_4c/output_inception_4c/output_0_split -> inception_4c/output_inception_4c/output_0_split_0
I0412 06:14:27.384572   410 net.cpp:409] inception_4c/output_inception_4c/output_0_split -> inception_4c/output_inception_4c/output_0_split_1
I0412 06:14:27.384582   410 net.cpp:409] inception_4c/output_inception_4c/output_0_split -> inception_4c/output_inception_4c/output_0_split_2
I0412 06:14:27.384590   410 net.cpp:409] inception_4c/output_inception_4c/output_0_split -> inception_4c/output_inception_4c/output_0_split_3
I0412 06:14:27.384654   410 net.cpp:144] Setting up inception_4c/output_inception_4c/output_0_split
I0412 06:14:27.384661   410 net.cpp:151] Top shape: 16 512 14 14 (1605632)
I0412 06:14:27.384678   410 net.cpp:151] Top shape: 16 512 14 14 (1605632)
I0412 06:14:27.384685   410 net.cpp:151] Top shape: 16 512 14 14 (1605632)
I0412 06:14:27.384698   410 net.cpp:151] Top shape: 16 512 14 14 (1605632)
I0412 06:14:27.384703   410 net.cpp:159] Memory required for data: 740779016
I0412 06:14:27.384709   410 layer_factory.hpp:77] Creating layer inception_4d/1x1
I0412 06:14:27.384721   410 net.cpp:94] Creating Layer inception_4d/1x1
I0412 06:14:27.384727   410 net.cpp:435] inception_4d/1x1 <- inception_4c/output_inception_4c/output_0_split_0
I0412 06:14:27.384737   410 net.cpp:409] inception_4d/1x1 -> inception_4d/1x1
I0412 06:14:27.385309   410 net.cpp:144] Setting up inception_4d/1x1
I0412 06:14:27.385320   410 net.cpp:151] Top shape: 16 112 14 14 (351232)
I0412 06:14:27.385326   410 net.cpp:159] Memory required for data: 742183944
I0412 06:14:27.385334   410 layer_factory.hpp:77] Creating layer inception_4d/relu_1x1
I0412 06:14:27.385344   410 net.cpp:94] Creating Layer inception_4d/relu_1x1
I0412 06:14:27.385349   410 net.cpp:435] inception_4d/relu_1x1 <- inception_4d/1x1
I0412 06:14:27.385359   410 net.cpp:396] inception_4d/relu_1x1 -> inception_4d/1x1 (in-place)
I0412 06:14:27.385367   410 net.cpp:144] Setting up inception_4d/relu_1x1
I0412 06:14:27.385375   410 net.cpp:151] Top shape: 16 112 14 14 (351232)
I0412 06:14:27.385380   410 net.cpp:159] Memory required for data: 743588872
I0412 06:14:27.385385   410 layer_factory.hpp:77] Creating layer inception_4d/3x3_reduce
I0412 06:14:27.385428   410 net.cpp:94] Creating Layer inception_4d/3x3_reduce
I0412 06:14:27.385435   410 net.cpp:435] inception_4d/3x3_reduce <- inception_4c/output_inception_4c/output_0_split_1
I0412 06:14:27.385447   410 net.cpp:409] inception_4d/3x3_reduce -> inception_4d/3x3_reduce
I0412 06:14:27.386179   410 net.cpp:144] Setting up inception_4d/3x3_reduce
I0412 06:14:27.386190   410 net.cpp:151] Top shape: 16 144 14 14 (451584)
I0412 06:14:27.386198   410 net.cpp:159] Memory required for data: 745395208
I0412 06:14:27.386206   410 layer_factory.hpp:77] Creating layer inception_4d/relu_3x3_reduce
I0412 06:14:27.386216   410 net.cpp:94] Creating Layer inception_4d/relu_3x3_reduce
I0412 06:14:27.386224   410 net.cpp:435] inception_4d/relu_3x3_reduce <- inception_4d/3x3_reduce
I0412 06:14:27.386232   410 net.cpp:396] inception_4d/relu_3x3_reduce -> inception_4d/3x3_reduce (in-place)
I0412 06:14:27.386240   410 net.cpp:144] Setting up inception_4d/relu_3x3_reduce
I0412 06:14:27.386247   410 net.cpp:151] Top shape: 16 144 14 14 (451584)
I0412 06:14:27.386252   410 net.cpp:159] Memory required for data: 747201544
I0412 06:14:27.386258   410 layer_factory.hpp:77] Creating layer inception_4d/3x3
I0412 06:14:27.386270   410 net.cpp:94] Creating Layer inception_4d/3x3
I0412 06:14:27.386276   410 net.cpp:435] inception_4d/3x3 <- inception_4d/3x3_reduce
I0412 06:14:27.386286   410 net.cpp:409] inception_4d/3x3 -> inception_4d/3x3
I0412 06:14:27.389289   410 net.cpp:144] Setting up inception_4d/3x3
I0412 06:14:27.389305   410 net.cpp:151] Top shape: 16 288 14 14 (903168)
I0412 06:14:27.389310   410 net.cpp:159] Memory required for data: 750814216
I0412 06:14:27.389319   410 layer_factory.hpp:77] Creating layer inception_4d/relu_3x3
I0412 06:14:27.389329   410 net.cpp:94] Creating Layer inception_4d/relu_3x3
I0412 06:14:27.389335   410 net.cpp:435] inception_4d/relu_3x3 <- inception_4d/3x3
I0412 06:14:27.389344   410 net.cpp:396] inception_4d/relu_3x3 -> inception_4d/3x3 (in-place)
I0412 06:14:27.389389   410 net.cpp:144] Setting up inception_4d/relu_3x3
I0412 06:14:27.389395   410 net.cpp:151] Top shape: 16 288 14 14 (903168)
I0412 06:14:27.389400   410 net.cpp:159] Memory required for data: 754426888
I0412 06:14:27.389406   410 layer_factory.hpp:77] Creating layer inception_4d/5x5_reduce
I0412 06:14:27.389456   410 net.cpp:94] Creating Layer inception_4d/5x5_reduce
I0412 06:14:27.389462   410 net.cpp:435] inception_4d/5x5_reduce <- inception_4c/output_inception_4c/output_0_split_2
I0412 06:14:27.389472   410 net.cpp:409] inception_4d/5x5_reduce -> inception_4d/5x5_reduce
I0412 06:14:27.389915   410 net.cpp:144] Setting up inception_4d/5x5_reduce
I0412 06:14:27.389928   410 net.cpp:151] Top shape: 16 32 14 14 (100352)
I0412 06:14:27.389935   410 net.cpp:159] Memory required for data: 754828296
I0412 06:14:27.389942   410 layer_factory.hpp:77] Creating layer inception_4d/relu_5x5_reduce
I0412 06:14:27.389952   410 net.cpp:94] Creating Layer inception_4d/relu_5x5_reduce
I0412 06:14:27.389959   410 net.cpp:435] inception_4d/relu_5x5_reduce <- inception_4d/5x5_reduce
I0412 06:14:27.389968   410 net.cpp:396] inception_4d/relu_5x5_reduce -> inception_4d/5x5_reduce (in-place)
I0412 06:14:27.389977   410 net.cpp:144] Setting up inception_4d/relu_5x5_reduce
I0412 06:14:27.389984   410 net.cpp:151] Top shape: 16 32 14 14 (100352)
I0412 06:14:27.389989   410 net.cpp:159] Memory required for data: 755229704
I0412 06:14:27.389995   410 layer_factory.hpp:77] Creating layer inception_4d/5x5
I0412 06:14:27.390008   410 net.cpp:94] Creating Layer inception_4d/5x5
I0412 06:14:27.390013   410 net.cpp:435] inception_4d/5x5 <- inception_4d/5x5_reduce
I0412 06:14:27.390023   410 net.cpp:409] inception_4d/5x5 -> inception_4d/5x5
I0412 06:14:27.390550   410 net.cpp:144] Setting up inception_4d/5x5
I0412 06:14:27.390561   410 net.cpp:151] Top shape: 16 64 14 14 (200704)
I0412 06:14:27.390568   410 net.cpp:159] Memory required for data: 756032520
I0412 06:14:27.390575   410 layer_factory.hpp:77] Creating layer inception_4d/relu_5x5
I0412 06:14:27.390584   410 net.cpp:94] Creating Layer inception_4d/relu_5x5
I0412 06:14:27.390590   410 net.cpp:435] inception_4d/relu_5x5 <- inception_4d/5x5
I0412 06:14:27.390599   410 net.cpp:396] inception_4d/relu_5x5 -> inception_4d/5x5 (in-place)
I0412 06:14:27.390607   410 net.cpp:144] Setting up inception_4d/relu_5x5
I0412 06:14:27.390614   410 net.cpp:151] Top shape: 16 64 14 14 (200704)
I0412 06:14:27.390619   410 net.cpp:159] Memory required for data: 756835336
I0412 06:14:27.390625   410 layer_factory.hpp:77] Creating layer inception_4d/pool
I0412 06:14:27.390635   410 net.cpp:94] Creating Layer inception_4d/pool
I0412 06:14:27.390640   410 net.cpp:435] inception_4d/pool <- inception_4c/output_inception_4c/output_0_split_3
I0412 06:14:27.390648   410 net.cpp:409] inception_4d/pool -> inception_4d/pool
I0412 06:14:27.390702   410 net.cpp:144] Setting up inception_4d/pool
I0412 06:14:27.390712   410 net.cpp:151] Top shape: 16 512 14 14 (1605632)
I0412 06:14:27.390717   410 net.cpp:159] Memory required for data: 763257864
I0412 06:14:27.390722   410 layer_factory.hpp:77] Creating layer inception_4d/pool_proj
I0412 06:14:27.390735   410 net.cpp:94] Creating Layer inception_4d/pool_proj
I0412 06:14:27.390741   410 net.cpp:435] inception_4d/pool_proj <- inception_4d/pool
I0412 06:14:27.390751   410 net.cpp:409] inception_4d/pool_proj -> inception_4d/pool_proj
I0412 06:14:27.391218   410 net.cpp:144] Setting up inception_4d/pool_proj
I0412 06:14:27.391229   410 net.cpp:151] Top shape: 16 64 14 14 (200704)
I0412 06:14:27.391235   410 net.cpp:159] Memory required for data: 764060680
I0412 06:14:27.391243   410 layer_factory.hpp:77] Creating layer inception_4d/relu_pool_proj
I0412 06:14:27.391252   410 net.cpp:94] Creating Layer inception_4d/relu_pool_proj
I0412 06:14:27.391258   410 net.cpp:435] inception_4d/relu_pool_proj <- inception_4d/pool_proj
I0412 06:14:27.391265   410 net.cpp:396] inception_4d/relu_pool_proj -> inception_4d/pool_proj (in-place)
I0412 06:14:27.391274   410 net.cpp:144] Setting up inception_4d/relu_pool_proj
I0412 06:14:27.391280   410 net.cpp:151] Top shape: 16 64 14 14 (200704)
I0412 06:14:27.391286   410 net.cpp:159] Memory required for data: 764863496
I0412 06:14:27.391291   410 layer_factory.hpp:77] Creating layer inception_4d/output
I0412 06:14:27.391300   410 net.cpp:94] Creating Layer inception_4d/output
I0412 06:14:27.391306   410 net.cpp:435] inception_4d/output <- inception_4d/1x1
I0412 06:14:27.391312   410 net.cpp:435] inception_4d/output <- inception_4d/3x3
I0412 06:14:27.391319   410 net.cpp:435] inception_4d/output <- inception_4d/5x5
I0412 06:14:27.391336   410 net.cpp:435] inception_4d/output <- inception_4d/pool_proj
I0412 06:14:27.391347   410 net.cpp:409] inception_4d/output -> inception_4d/output
I0412 06:14:27.391381   410 net.cpp:144] Setting up inception_4d/output
I0412 06:14:27.391388   410 net.cpp:151] Top shape: 16 528 14 14 (1655808)
I0412 06:14:27.391394   410 net.cpp:159] Memory required for data: 771486728
I0412 06:14:27.391400   410 layer_factory.hpp:77] Creating layer inception_4d/output_inception_4d/output_0_split
I0412 06:14:27.391409   410 net.cpp:94] Creating Layer inception_4d/output_inception_4d/output_0_split
I0412 06:14:27.391417   410 net.cpp:435] inception_4d/output_inception_4d/output_0_split <- inception_4d/output
I0412 06:14:27.391427   410 net.cpp:409] inception_4d/output_inception_4d/output_0_split -> inception_4d/output_inception_4d/output_0_split_0
I0412 06:14:27.391451   410 net.cpp:409] inception_4d/output_inception_4d/output_0_split -> inception_4d/output_inception_4d/output_0_split_1
I0412 06:14:27.391460   410 net.cpp:409] inception_4d/output_inception_4d/output_0_split -> inception_4d/output_inception_4d/output_0_split_2
I0412 06:14:27.391469   410 net.cpp:409] inception_4d/output_inception_4d/output_0_split -> inception_4d/output_inception_4d/output_0_split_3
I0412 06:14:27.391477   410 net.cpp:409] inception_4d/output_inception_4d/output_0_split -> inception_4d/output_inception_4d/output_0_split_4
I0412 06:14:27.391556   410 net.cpp:144] Setting up inception_4d/output_inception_4d/output_0_split
I0412 06:14:27.391563   410 net.cpp:151] Top shape: 16 528 14 14 (1655808)
I0412 06:14:27.391569   410 net.cpp:151] Top shape: 16 528 14 14 (1655808)
I0412 06:14:27.391577   410 net.cpp:151] Top shape: 16 528 14 14 (1655808)
I0412 06:14:27.391582   410 net.cpp:151] Top shape: 16 528 14 14 (1655808)
I0412 06:14:27.391589   410 net.cpp:151] Top shape: 16 528 14 14 (1655808)
I0412 06:14:27.391594   410 net.cpp:159] Memory required for data: 804602888
I0412 06:14:27.391599   410 layer_factory.hpp:77] Creating layer loss2/ave_pool
I0412 06:14:27.391610   410 net.cpp:94] Creating Layer loss2/ave_pool
I0412 06:14:27.391616   410 net.cpp:435] loss2/ave_pool <- inception_4d/output_inception_4d/output_0_split_0
I0412 06:14:27.391624   410 net.cpp:409] loss2/ave_pool -> loss2/ave_pool
I0412 06:14:27.391655   410 net.cpp:144] Setting up loss2/ave_pool
I0412 06:14:27.391664   410 net.cpp:151] Top shape: 16 528 4 4 (135168)
I0412 06:14:27.391669   410 net.cpp:159] Memory required for data: 805143560
I0412 06:14:27.391674   410 layer_factory.hpp:77] Creating layer loss2/conv
I0412 06:14:27.391692   410 net.cpp:94] Creating Layer loss2/conv
I0412 06:14:27.391700   410 net.cpp:435] loss2/conv <- loss2/ave_pool
I0412 06:14:27.391710   410 net.cpp:409] loss2/conv -> loss2/conv
I0412 06:14:27.392967   410 net.cpp:144] Setting up loss2/conv
I0412 06:14:27.392983   410 net.cpp:151] Top shape: 16 128 4 4 (32768)
I0412 06:14:27.392989   410 net.cpp:159] Memory required for data: 805274632
I0412 06:14:27.392998   410 layer_factory.hpp:77] Creating layer loss2/relu_conv
I0412 06:14:27.393007   410 net.cpp:94] Creating Layer loss2/relu_conv
I0412 06:14:27.393013   410 net.cpp:435] loss2/relu_conv <- loss2/conv
I0412 06:14:27.393024   410 net.cpp:396] loss2/relu_conv -> loss2/conv (in-place)
I0412 06:14:27.393034   410 net.cpp:144] Setting up loss2/relu_conv
I0412 06:14:27.393041   410 net.cpp:151] Top shape: 16 128 4 4 (32768)
I0412 06:14:27.393046   410 net.cpp:159] Memory required for data: 805405704
I0412 06:14:27.393052   410 layer_factory.hpp:77] Creating layer loss2/fc
I0412 06:14:27.393062   410 net.cpp:94] Creating Layer loss2/fc
I0412 06:14:27.393067   410 net.cpp:435] loss2/fc <- loss2/conv
I0412 06:14:27.393077   410 net.cpp:409] loss2/fc -> loss2/fc
I0412 06:14:27.408596   410 net.cpp:144] Setting up loss2/fc
I0412 06:14:27.408646   410 net.cpp:151] Top shape: 16 1024 (16384)
I0412 06:14:27.408653   410 net.cpp:159] Memory required for data: 805471240
I0412 06:14:27.408663   410 layer_factory.hpp:77] Creating layer loss2/relu_fc
I0412 06:14:27.408694   410 net.cpp:94] Creating Layer loss2/relu_fc
I0412 06:14:27.408704   410 net.cpp:435] loss2/relu_fc <- loss2/fc
I0412 06:14:27.408712   410 net.cpp:396] loss2/relu_fc -> loss2/fc (in-place)
I0412 06:14:27.408725   410 net.cpp:144] Setting up loss2/relu_fc
I0412 06:14:27.408731   410 net.cpp:151] Top shape: 16 1024 (16384)
I0412 06:14:27.408736   410 net.cpp:159] Memory required for data: 805536776
I0412 06:14:27.408742   410 layer_factory.hpp:77] Creating layer loss2/drop_fc
I0412 06:14:27.408754   410 net.cpp:94] Creating Layer loss2/drop_fc
I0412 06:14:27.408761   410 net.cpp:435] loss2/drop_fc <- loss2/fc
I0412 06:14:27.408767   410 net.cpp:396] loss2/drop_fc -> loss2/fc (in-place)
I0412 06:14:27.408805   410 net.cpp:144] Setting up loss2/drop_fc
I0412 06:14:27.408813   410 net.cpp:151] Top shape: 16 1024 (16384)
I0412 06:14:27.408818   410 net.cpp:159] Memory required for data: 805602312
I0412 06:14:27.408824   410 layer_factory.hpp:77] Creating layer loss2/classifier
I0412 06:14:27.408834   410 net.cpp:94] Creating Layer loss2/classifier
I0412 06:14:27.408840   410 net.cpp:435] loss2/classifier <- loss2/fc
I0412 06:14:27.408850   410 net.cpp:409] loss2/classifier -> loss2/classifier
I0412 06:14:27.409018   410 net.cpp:144] Setting up loss2/classifier
I0412 06:14:27.409042   410 net.cpp:151] Top shape: 16 3 (48)
I0412 06:14:27.409049   410 net.cpp:159] Memory required for data: 805602504
I0412 06:14:27.409056   410 layer_factory.hpp:77] Creating layer loss2/classifier_loss2/classifier_0_split
I0412 06:14:27.409068   410 net.cpp:94] Creating Layer loss2/classifier_loss2/classifier_0_split
I0412 06:14:27.409075   410 net.cpp:435] loss2/classifier_loss2/classifier_0_split <- loss2/classifier
I0412 06:14:27.409082   410 net.cpp:409] loss2/classifier_loss2/classifier_0_split -> loss2/classifier_loss2/classifier_0_split_0
I0412 06:14:27.409091   410 net.cpp:409] loss2/classifier_loss2/classifier_0_split -> loss2/classifier_loss2/classifier_0_split_1
I0412 06:14:27.409134   410 net.cpp:144] Setting up loss2/classifier_loss2/classifier_0_split
I0412 06:14:27.409142   410 net.cpp:151] Top shape: 16 3 (48)
I0412 06:14:27.409148   410 net.cpp:151] Top shape: 16 3 (48)
I0412 06:14:27.409153   410 net.cpp:159] Memory required for data: 805602888
I0412 06:14:27.409159   410 layer_factory.hpp:77] Creating layer loss2/loss
I0412 06:14:27.409183   410 net.cpp:94] Creating Layer loss2/loss
I0412 06:14:27.409189   410 net.cpp:435] loss2/loss <- loss2/classifier_loss2/classifier_0_split_0
I0412 06:14:27.409199   410 net.cpp:435] loss2/loss <- label_val-data_1_split_2
…
I0412 06:14:27.409435   410 net.cpp:144] Setting up loss2/top-1
I0412 06:14:27.409442   410 net.cpp:151] Top shape: (1)
I0412 06:14:27.409447   410 net.cpp:159] Memory required for data: 805602896
I0412 06:14:27.409453   410 layer_factory.hpp:77] Creating layer inception_4e/1x1
I0412 06:14:27.409466   410 net.cpp:94] Creating Layer inception_4e/1x1
I0412 06:14:27.409473   410 net.cpp:435] inception_4e/1x1 <- inception_4d/output_inception_4d/output_0_split_1
I0412 06:14:27.409485   410 net.cpp:409] inception_4e/1x1 -> inception_4e/1x1
I0412 06:14:27.410591   410 net.cpp:144] Setting up inception_4e/1x1
I0412 06:14:27.410615   410 net.cpp:151] Top shape: 16 256 14 14 (802816)
I0412 06:14:27.410622   410 net.cpp:159] Memory required for data: 808814160
I0412 06:14:27.410630   410 layer_factory.hpp:77] Creating layer inception_4e/relu_1x1
I0412 06:14:27.410655   410 net.cpp:94] Creating Layer inception_4e/relu_1x1
I0412 06:14:27.410660   410 net.cpp:435] inception_4e/relu_1x1 <- inception_4e/1x1
I0412 06:14:27.410668   410 net.cpp:396] inception_4e/relu_1x1 -> inception_4e/1x1 (in-place)
I0412 06:14:27.410677   410 net.cpp:144] Setting up inception_4e/relu_1x1
I0412 06:14:27.410683   410 net.cpp:151] Top shape: 16 256 14 14 (802816)
I0412 06:14:27.410696   410 net.cpp:159] Memory required for data: 812025424
I0412 06:14:27.410701   410 layer_factory.hpp:77] Creating layer inception_4e/3x3_reduce
I0412 06:14:27.410717   410 net.cpp:94] Creating Layer inception_4e/3x3_reduce
I0412 06:14:27.410723   410 net.cpp:435] inception_4e/3x3_reduce <- inception_4d/output_inception_4d/output_0_split_2
I0412 06:14:27.410732   410 net.cpp:409] inception_4e/3x3_reduce -> inception_4e/3x3_reduce
I0412 06:14:27.412158   410 net.cpp:144] Setting up inception_4e/3x3_reduce
I0412 06:14:27.412173   410 net.cpp:151] Top shape: 16 160 14 14 (501760)
I0412 06:14:27.412178   410 net.cpp:159] Memory required for data: 814032464
I0412 06:14:27.412187   410 layer_factory.hpp:77] Creating layer inception_4e/relu_3x3_reduce
I0412 06:14:27.412196   410 net.cpp:94] Creating Layer inception_4e/relu_3x3_reduce
I0412 06:14:27.412204   410 net.cpp:435] inception_4e/relu_3x3_reduce <- inception_4e/3x3_reduce
I0412 06:14:27.412214   410 net.cpp:396] inception_4e/relu_3x3_reduce -> inception_4e/3x3_reduce (in-place)
I0412 06:14:27.412222   410 net.cpp:144] Setting up inception_4e/relu_3x3_reduce
I0412 06:14:27.412230   410 net.cpp:151] Top shape: 16 160 14 14 (501760)
I0412 06:14:27.412235   410 net.cpp:159] Memory required for data: 816039504
I0412 06:14:27.412240   410 layer_factory.hpp:77] Creating layer inception_4e/3x3
I0412 06:14:27.412289   410 net.cpp:94] Creating Layer inception_4e/3x3
I0412 06:14:27.412297   410 net.cpp:435] inception_4e/3x3 <- inception_4e/3x3_reduce
I0412 06:14:27.412303   410 net.cpp:409] inception_4e/3x3 -> inception_4e/3x3
I0412 06:14:27.416595   410 net.cpp:144] Setting up inception_4e/3x3
I0412 06:14:27.416611   410 net.cpp:151] Top shape: 16 320 14 14 (1003520)
I0412 06:14:27.416617   410 net.cpp:159] Memory required for data: 820053584
I0412 06:14:27.416626   410 layer_factory.hpp:77] Creating layer inception_4e/relu_3x3
I0412 06:14:27.416636   410 net.cpp:94] Creating Layer inception_4e/relu_3x3
I0412 06:14:27.416642   410 net.cpp:435] inception_4e/relu_3x3 <- inception_4e/3x3
I0412 06:14:27.416653   410 net.cpp:396] inception_4e/relu_3x3 -> inception_4e/3x3 (in-place)
I0412 06:14:27.416663   410 net.cpp:144] Setting up inception_4e/relu_3x3
I0412 06:14:27.416671   410 net.cpp:151] Top shape: 16 320 14 14 (1003520)
I0412 06:14:27.416676   410 net.cpp:159] Memory required for data: 824067664
I0412 06:14:27.416682   410 layer_factory.hpp:77] Creating layer inception_4e/5x5_reduce
I0412 06:14:27.416707   410 net.cpp:94] Creating Layer inception_4e/5x5_reduce
I0412 06:14:27.416713   410 net.cpp:435] inception_4e/5x5_reduce <- inception_4d/output_inception_4d/output_0_split_3
I0412 06:14:27.416723   410 net.cpp:409] inception_4e/5x5_reduce -> inception_4e/5x5_reduce
I0412 06:14:27.417048   410 net.cpp:144] Setting up inception_4e/5x5_reduce
I0412 06:14:27.417060   410 net.cpp:151] Top shape: 16 32 14 14 (100352)
I0412 06:14:27.417065   410 net.cpp:159] Memory required for data: 824469072
I0412 06:14:27.417073   410 layer_factory.hpp:77] Creating layer inception_4e/relu_5x5_reduce
I0412 06:14:27.417081   410 net.cpp:94] Creating Layer inception_4e/relu_5x5_reduce
I0412 06:14:27.417088   410 net.cpp:435] inception_4e/relu_5x5_reduce <- inception_4e/5x5_reduce
I0412 06:14:27.417098   410 net.cpp:396] inception_4e/relu_5x5_reduce -> inception_4e/5x5_reduce (in-place)
I0412 06:14:27.417107   410 net.cpp:144] Setting up inception_4e/relu_5x5_reduce
I0412 06:14:27.417135   410 net.cpp:151] Top shape: 16 32 14 14 (100352)
I0412 06:14:27.417140   410 net.cpp:159] Memory required for data: 824870480
I0412 06:14:27.417146   410 layer_factory.hpp:77] Creating layer inception_4e/5x5
I0412 06:14:27.417160   410 net.cpp:94] Creating Layer inception_4e/5x5
I0412 06:14:27.417165   410 net.cpp:435] inception_4e/5x5 <- inception_4e/5x5_reduce
I0412 06:14:27.417176   410 net.cpp:409] inception_4e/5x5 -> inception_4e/5x5
I0412 06:14:27.417994   410 net.cpp:144] Setting up inception_4e/5x5
I0412 06:14:27.418022   410 net.cpp:151] Top shape: 16 128 14 14 (401408)
I0412 06:14:27.418027   410 net.cpp:159] Memory required for data: 826476112
I0412 06:14:27.418036   410 layer_factory.hpp:77] Creating layer inception_4e/relu_5x5
I0412 06:14:27.418066   410 net.cpp:94] Creating Layer inception_4e/relu_5x5
I0412 06:14:27.418072   410 net.cpp:435] inception_4e/relu_5x5 <- inception_4e/5x5
I0412 06:14:27.418079   410 net.cpp:396] inception_4e/relu_5x5 -> inception_4e/5x5 (in-place)
I0412 06:14:27.418088   410 net.cpp:144] Setting up inception_4e/relu_5x5
I0412 06:14:27.418095   410 net.cpp:151] Top shape: 16 128 14 14 (401408)
I0412 06:14:27.418100   410 net.cpp:159] Memory required for data: 828081744
I0412 06:14:27.418105   410 layer_factory.hpp:77] Creating layer inception_4e/pool
I0412 06:14:27.418117   410 net.cpp:94] Creating Layer inception_4e/pool
I0412 06:14:27.418123   410 net.cpp:435] inception_4e/pool <- inception_4d/output_inception_4d/output_0_split_4
I0412 06:14:27.418130   410 net.cpp:409] inception_4e/pool -> inception_4e/pool
I0412 06:14:27.418174   410 net.cpp:144] Setting up inception_4e/pool
I0412 06:14:27.418181   410 net.cpp:151] Top shape: 16 528 14 14 (1655808)
I0412 06:14:27.418187   410 net.cpp:159] Memory required for data: 834704976
I0412 06:14:27.418192   410 layer_factory.hpp:77] Creating layer inception_4e/pool_proj
I0412 06:14:27.418205   410 net.cpp:94] Creating Layer inception_4e/pool_proj
I0412 06:14:27.418210   410 net.cpp:435] inception_4e/pool_proj <- inception_4e/pool
I0412 06:14:27.418220   410 net.cpp:409] inception_4e/pool_proj -> inception_4e/pool_proj
I0412 06:14:27.418776   410 net.cpp:144] Setting up inception_4e/pool_proj
I0412 06:14:27.418788   410 net.cpp:151] Top shape: 16 128 14 14 (401408)
I0412 06:14:27.418793   410 net.cpp:159] Memory required for data: 836310608
I0412 06:14:27.418802   410 layer_factory.hpp:77] Creating layer inception_4e/relu_pool_proj
I0412 06:14:27.418809   410 net.cpp:94] Creating Layer inception_4e/relu_pool_proj
I0412 06:14:27.418817   410 net.cpp:435] inception_4e/relu_pool_proj <- inception_4e/pool_proj
I0412 06:14:27.418823   410 net.cpp:396] inception_4e/relu_pool_proj -> inception_4e/pool_proj (in-place)
I0412 06:14:27.418833   410 net.cpp:144] Setting up inception_4e/relu_pool_proj
I0412 06:14:27.418838   410 net.cpp:151] Top shape: 16 128 14 14 (401408)
I0412 06:14:27.418844   410 net.cpp:159] Memory required for data: 837916240
I0412 06:14:27.418849   410 layer_factory.hpp:77] Creating layer inception_4e/output
I0412 06:14:27.418857   410 net.cpp:94] Creating Layer inception_4e/output
I0412 06:14:27.418864   410 net.cpp:435] inception_4e/output <- inception_4e/1x1
I0412 06:14:27.418869   410 net.cpp:435] inception_4e/output <- inception_4e/3x3
I0412 06:14:27.418875   410 net.cpp:435] inception_4e/output <- inception_4e/5x5
I0412 06:14:27.418882   410 net.cpp:435] inception_4e/output <- inception_4e/pool_proj
I0412 06:14:27.418891   410 net.cpp:409] inception_4e/output -> inception_4e/output
I0412 06:14:27.418920   410 net.cpp:144] Setting up inception_4e/output
I0412 06:14:27.418927   410 net.cpp:151] Top shape: 16 832 14 14 (2609152)
I0412 06:14:27.418932   410 net.cpp:159] Memory required for data: 848352848
I0412 06:14:27.418937   410 layer_factory.hpp:77] Creating layer pool4/3x3_s2
I0412 06:14:27.418946   410 net.cpp:94] Creating Layer pool4/3x3_s2
I0412 06:14:27.418952   410 net.cpp:435] pool4/3x3_s2 <- inception_4e/output
I0412 06:14:27.418962   410 net.cpp:409] pool4/3x3_s2 -> pool4/3x3_s2
I0412 06:14:27.419013   410 net.cpp:144] Setting up pool4/3x3_s2
I0412 06:14:27.419021   410 net.cpp:151] Top shape: 16 832 7 7 (652288)
I0412 06:14:27.419028   410 net.cpp:159] Memory required for data: 850962000
I0412 06:14:27.419032   410 layer_factory.hpp:77] Creating layer pool4/3x3_s2_pool4/3x3_s2_0_split
I0412 06:14:27.419044   410 net.cpp:94] Creating Layer pool4/3x3_s2_pool4/3x3_s2_0_split
I0412 06:14:27.419050   410 net.cpp:435] pool4/3x3_s2_pool4/3x3_s2_0_split <- pool4/3x3_s2
I0412 06:14:27.419060   410 net.cpp:409] pool4/3x3_s2_pool4/3x3_s2_0_split -> pool4/3x3_s2_pool4/3x3_s2_0_split_0
I0412 06:14:27.419070   410 net.cpp:409] pool4/3x3_s2_pool4/3x3_s2_0_split -> pool4/3x3_s2_pool4/3x3_s2_0_split_1
I0412 06:14:27.419077   410 net.cpp:409] pool4/3x3_s2_pool4/3x3_s2_0_split -> pool4/3x3_s2_pool4/3x3_s2_0_split_2
I0412 06:14:27.419085   410 net.cpp:409] pool4/3x3_s2_pool4/3x3_s2_0_split -> pool4/3x3_s2_pool4/3x3_s2_0_split_3
I0412 06:14:27.419147   410 net.cpp:144] Setting up pool4/3x3_s2_pool4/3x3_s2_0_split
I0412 06:14:27.419154   410 net.cpp:151] Top shape: 16 832 7 7 (652288)
I0412 06:14:27.419160   410 net.cpp:151] Top shape: 16 832 7 7 (652288)
I0412 06:14:27.419167   410 net.cpp:151] Top shape: 16 832 7 7 (652288)
I0412 06:14:27.419173   410 net.cpp:151] Top shape: 16 832 7 7 (652288)
I0412 06:14:27.419178   410 net.cpp:159] Memory required for data: 861398608
I0412 06:14:27.419183   410 layer_factory.hpp:77] Creating layer inception_5a/1x1
I0412 06:14:27.419195   410 net.cpp:94] Creating Layer inception_5a/1x1
I0412 06:14:27.419201   410 net.cpp:435] inception_5a/1x1 <- pool4/3x3_s2_pool4/3x3_s2_0_split_0
I0412 06:14:27.419214   410 net.cpp:409] inception_5a/1x1 -> inception_5a/1x1
I0412 06:14:27.421108   410 net.cpp:144] Setting up inception_5a/1x1
I0412 06:14:27.421123   410 net.cpp:151] Top shape: 16 256 7 7 (200704)
I0412 06:14:27.421129   410 net.cpp:159] Memory required for data: 862201424
I0412 06:14:27.421138   410 layer_factory.hpp:77] Creating layer inception_5a/relu_1x1
I0412 06:14:27.421149   410 net.cpp:94] Creating Layer inception_5a/relu_1x1
I0412 06:14:27.421154   410 net.cpp:435] inception_5a/relu_1x1 <- inception_5a/1x1
I0412 06:14:27.421162   410 net.cpp:396] inception_5a/relu_1x1 -> inception_5a/1x1 (in-place)
I0412 06:14:27.421175   410 net.cpp:144] Setting up inception_5a/relu_1x1
I0412 06:14:27.421180   410 net.cpp:151] Top shape: 16 256 7 7 (200704)
I0412 06:14:27.421185   410 net.cpp:159] Memory required for data: 863004240
I0412 06:14:27.421191   410 layer_factory.hpp:77] Creating layer inception_5a/3x3_reduce
I0412 06:14:27.421202   410 net.cpp:94] Creating Layer inception_5a/3x3_reduce
I0412 06:14:27.421208   410 net.cpp:435] inception_5a/3x3_reduce <- pool4/3x3_s2_pool4/3x3_s2_0_split_1
I0412 06:14:27.421217   410 net.cpp:409] inception_5a/3x3_reduce -> inception_5a/3x3_reduce
I0412 06:14:27.422749   410 net.cpp:144] Setting up inception_5a/3x3_reduce
I0412 06:14:27.422765   410 net.cpp:151] Top shape: 16 160 7 7 (125440)
I0412 06:14:27.422770   410 net.cpp:159] Memory required for data: 863506000
I0412 06:14:27.422778   410 layer_factory.hpp:77] Creating layer inception_5a/relu_3x3_reduce
I0412 06:14:27.422786   410 net.cpp:94] Creating Layer inception_5a/relu_3x3_reduce
I0412 06:14:27.422793   410 net.cpp:435] inception_5a/relu_3x3_reduce <- inception_5a/3x3_reduce
I0412 06:14:27.422802   410 net.cpp:396] inception_5a/relu_3x3_reduce -> inception_5a/3x3_reduce (in-place)
I0412 06:14:27.422812   410 net.cpp:144] Setting up inception_5a/relu_3x3_reduce
I0412 06:14:27.422818   410 net.cpp:151] Top shape: 16 160 7 7 (125440)
I0412 06:14:27.422823   410 net.cpp:159] Memory required for data: 864007760
I0412 06:14:27.422828   410 layer_factory.hpp:77] Creating layer inception_5a/3x3
I0412 06:14:27.422843   410 net.cpp:94] Creating Layer inception_5a/3x3
I0412 06:14:27.422849   410 net.cpp:435] inception_5a/3x3 <- inception_5a/3x3_reduce
I0412 06:14:27.422858   410 net.cpp:409] inception_5a/3x3 -> inception_5a/3x3
I0412 06:14:27.426446   410 net.cpp:144] Setting up inception_5a/3x3
I0412 06:14:27.426491   410 net.cpp:151] Top shape: 16 320 7 7 (250880)
I0412 06:14:27.426517   410 net.cpp:159] Memory required for data: 865011280
I0412 06:14:27.426542   410 layer_factory.hpp:77] Creating layer inception_5a/relu_3x3
I0412 06:14:27.426551   410 net.cpp:94] Creating Layer inception_5a/relu_3x3
I0412 06:14:27.426558   410 net.cpp:435] inception_5a/relu_3x3 <- inception_5a/3x3
I0412 06:14:27.426564   410 net.cpp:396] inception_5a/relu_3x3 -> inception_5a/3x3 (in-place)
I0412 06:14:27.426576   410 net.cpp:144] Setting up inception_5a/relu_3x3
I0412 06:14:27.426584   410 net.cpp:151] Top shape: 16 320 7 7 (250880)
I0412 06:14:27.426589   410 net.cpp:159] Memory required for data: 866014800
I0412 06:14:27.426594   410 layer_factory.hpp:77] Creating layer inception_5a/5x5_reduce
I0412 06:14:27.426605   410 net.cpp:94] Creating Layer inception_5a/5x5_reduce
I0412 06:14:27.426611   410 net.cpp:435] inception_5a/5x5_reduce <- pool4/3x3_s2_pool4/3x3_s2_0_split_2
I0412 06:14:27.426620   410 net.cpp:409] inception_5a/5x5_reduce -> inception_5a/5x5_reduce
I0412 06:14:27.427559   410 net.cpp:144] Setting up inception_5a/5x5_reduce
I0412 06:14:27.427575   410 net.cpp:151] Top shape: 16 32 7 7 (25088)
I0412 06:14:27.427580   410 net.cpp:159] Memory required for data: 866115152
I0412 06:14:27.427589   410 layer_factory.hpp:77] Creating layer inception_5a/relu_5x5_reduce
I0412 06:14:27.427598   410 net.cpp:94] Creating Layer inception_5a/relu_5x5_reduce
I0412 06:14:27.427604   410 net.cpp:435] inception_5a/relu_5x5_reduce <- inception_5a/5x5_reduce
I0412 06:14:27.427611   410 net.cpp:396] inception_5a/relu_5x5_reduce -> inception_5a/5x5_reduce (in-place)
I0412 06:14:27.427621   410 net.cpp:144] Setting up inception_5a/relu_5x5_reduce
I0412 06:14:27.427628   410 net.cpp:151] Top shape: 16 32 7 7 (25088)
I0412 06:14:27.427633   410 net.cpp:159] Memory required for data: 866215504
I0412 06:14:27.427637   410 layer_factory.hpp:77] Creating layer inception_5a/5x5
I0412 06:14:27.427651   410 net.cpp:94] Creating Layer inception_5a/5x5
I0412 06:14:27.427656   410 net.cpp:435] inception_5a/5x5 <- inception_5a/5x5_reduce
I0412 06:14:27.427664   410 net.cpp:409] inception_5a/5x5 -> inception_5a/5x5
I0412 06:14:27.428444   410 net.cpp:144] Setting up inception_5a/5x5
I0412 06:14:27.428455   410 net.cpp:151] Top shape: 16 128 7 7 (100352)
I0412 06:14:27.428460   410 net.cpp:159] Memory required for data: 866616912
I0412 06:14:27.428468   410 layer_factory.hpp:77] Creating layer inception_5a/relu_5x5
I0412 06:14:27.428477   410 net.cpp:94] Creating Layer inception_5a/relu_5x5
I0412 06:14:27.428483   410 net.cpp:435] inception_5a/relu_5x5 <- inception_5a/5x5
I0412 06:14:27.428489   410 net.cpp:396] inception_5a/relu_5x5 -> inception_5a/5x5 (in-place)
I0412 06:14:27.428498   410 net.cpp:144] Setting up inception_5a/relu_5x5
I0412 06:14:27.428503   410 net.cpp:151] Top shape: 16 128 7 7 (100352)
I0412 06:14:27.428508   410 net.cpp:159] Memory required for data: 867018320
I0412 06:14:27.428514   410 layer_factory.hpp:77] Creating layer inception_5a/pool
I0412 06:14:27.428524   410 net.cpp:94] Creating Layer inception_5a/pool
I0412 06:14:27.428529   410 net.cpp:435] inception_5a/pool <- pool4/3x3_s2_pool4/3x3_s2_0_split_3
I0412 06:14:27.428536   410 net.cpp:409] inception_5a/pool -> inception_5a/pool
I0412 06:14:27.428606   410 net.cpp:144] Setting up inception_5a/pool
I0412 06:14:27.428616   410 net.cpp:151] Top shape: 16 832 7 7 (652288)
I0412 06:14:27.428620   410 net.cpp:159] Memory required for data: 869627472
I0412 06:14:27.428625   410 layer_factory.hpp:77] Creating layer inception_5a/pool_proj
I0412 06:14:27.428635   410 net.cpp:94] Creating Layer inception_5a/pool_proj
I0412 06:14:27.428640   410 net.cpp:435] inception_5a/pool_proj <- inception_5a/pool
I0412 06:14:27.428649   410 net.cpp:409] inception_5a/pool_proj -> inception_5a/pool_proj
I0412 06:14:27.430073   410 net.cpp:144] Setting up inception_5a/pool_proj
I0412 06:14:27.430088   410 net.cpp:151] Top shape: 16 128 7 7 (100352)
I0412 06:14:27.430094   410 net.cpp:159] Memory required for data: 870028880
I0412 06:14:27.430115   410 layer_factory.hpp:77] Creating layer inception_5a/relu_pool_proj
I0412 06:14:27.430126   410 net.cpp:94] Creating Layer inception_5a/relu_pool_proj
I0412 06:14:27.430133   410 net.cpp:435] inception_5a/relu_pool_proj <- inception_5a/pool_proj
I0412 06:14:27.430141   410 net.cpp:396] inception_5a/relu_pool_proj -> inception_5a/pool_proj (in-place)
I0412 06:14:27.430151   410 net.cpp:144] Setting up inception_5a/relu_pool_proj
I0412 06:14:27.430157   410 net.cpp:151] Top shape: 16 128 7 7 (100352)
I0412 06:14:27.430162   410 net.cpp:159] Memory required for data: 870430288
I0412 06:14:27.430168   410 layer_factory.hpp:77] Creating layer inception_5a/output
I0412 06:14:27.430176   410 net.cpp:94] Creating Layer inception_5a/output
I0412 06:14:27.430181   410 net.cpp:435] inception_5a/output <- inception_5a/1x1
I0412 06:14:27.430187   410 net.cpp:435] inception_5a/output <- inception_5a/3x3
I0412 06:14:27.430193   410 net.cpp:435] inception_5a/output <- inception_5a/5x5
I0412 06:14:27.430199   410 net.cpp:435] inception_5a/output <- inception_5a/pool_proj
I0412 06:14:27.430208   410 net.cpp:409] inception_5a/output -> inception_5a/output
I0412 06:14:27.430238   410 net.cpp:144] Setting up inception_5a/output
I0412 06:14:27.430246   410 net.cpp:151] Top shape: 16 832 7 7 (652288)
I0412 06:14:27.430251   410 net.cpp:159] Memory required for data: 873039440
I0412 06:14:27.430258   410 layer_factory.hpp:77] Creating layer inception_5a/output_inception_5a/output_0_split
I0412 06:14:27.430265   410 net.cpp:94] Creating Layer inception_5a/output_inception_5a/output_0_split
I0412 06:14:27.430271   410 net.cpp:435] inception_5a/output_inception_5a/output_0_split <- inception_5a/output
I0412 06:14:27.430281   410 net.cpp:409] inception_5a/output_inception_5a/output_0_split -> inception_5a/output_inception_5a/output_0_split_0
I0412 06:14:27.430290   410 net.cpp:409] inception_5a/output_inception_5a/output_0_split -> inception_5a/output_inception_5a/output_0_split_1
I0412 06:14:27.430299   410 net.cpp:409] inception_5a/output_inception_5a/output_0_split -> inception_5a/output_inception_5a/output_0_split_2
I0412 06:14:27.430308   410 net.cpp:409] inception_5a/output_inception_5a/output_0_split -> inception_5a/output_inception_5a/output_0_split_3
I0412 06:14:27.430367   410 net.cpp:144] Setting up inception_5a/output_inception_5a/output_0_split
I0412 06:14:27.430375   410 net.cpp:151] Top shape: 16 832 7 7 (652288)
I0412 06:14:27.430382   410 net.cpp:151] Top shape: 16 832 7 7 (652288)
I0412 06:14:27.430387   410 net.cpp:151] Top shape: 16 832 7 7 (652288)
I0412 06:14:27.430393   410 net.cpp:151] Top shape: 16 832 7 7 (652288)
I0412 06:14:27.430398   410 net.cpp:159] Memory required for data: 883476048
I0412 06:14:27.430404   410 layer_factory.hpp:77] Creating layer inception_5b/1x1
I0412 06:14:27.430416   410 net.cpp:94] Creating Layer inception_5b/1x1
I0412 06:14:27.430423   410 net.cpp:435] inception_5b/1x1 <- inception_5a/output_inception_5a/output_0_split_0
I0412 06:14:27.430433   410 net.cpp:409] inception_5b/1x1 -> inception_5b/1x1
I0412 06:14:27.432953   410 net.cpp:144] Setting up inception_5b/1x1
I0412 06:14:27.432967   410 net.cpp:151] Top shape: 16 384 7 7 (301056)
I0412 06:14:27.432972   410 net.cpp:159] Memory required for data: 884680272
I0412 06:14:27.432981   410 layer_factory.hpp:77] Creating layer inception_5b/relu_1x1
I0412 06:14:27.432989   410 net.cpp:94] Creating Layer inception_5b/relu_1x1
I0412 06:14:27.432996   410 net.cpp:435] inception_5b/relu_1x1 <- inception_5b/1x1
I0412 06:14:27.433004   410 net.cpp:396] inception_5b/relu_1x1 -> inception_5b/1x1 (in-place)
I0412 06:14:27.433014   410 net.cpp:144] Setting up inception_5b/relu_1x1
I0412 06:14:27.433022   410 net.cpp:151] Top shape: 16 384 7 7 (301056)
I0412 06:14:27.433027   410 net.cpp:159] Memory required for data: 885884496
I0412 06:14:27.433032   410 layer_factory.hpp:77] Creating layer inception_5b/3x3_reduce
I0412 06:14:27.433044   410 net.cpp:94] Creating Layer inception_5b/3x3_reduce
I0412 06:14:27.433061   410 net.cpp:435] inception_5b/3x3_reduce <- inception_5a/output_inception_5a/output_0_split_1
I0412 06:14:27.433074   410 net.cpp:409] inception_5b/3x3_reduce -> inception_5b/3x3_reduce
I0412 06:14:27.434980   410 net.cpp:144] Setting up inception_5b/3x3_reduce
I0412 06:14:27.434996   410 net.cpp:151] Top shape: 16 192 7 7 (150528)
I0412 06:14:27.435001   410 net.cpp:159] Memory required for data: 886486608
I0412 06:14:27.435010   410 layer_factory.hpp:77] Creating layer inception_5b/relu_3x3_reduce
I0412 06:14:27.435019   410 net.cpp:94] Creating Layer inception_5b/relu_3x3_reduce
I0412 06:14:27.435025   410 net.cpp:435] inception_5b/relu_3x3_reduce <- inception_5b/3x3_reduce
I0412 06:14:27.435035   410 net.cpp:396] inception_5b/relu_3x3_reduce -> inception_5b/3x3_reduce (in-place)
I0412 06:14:27.435045   410 net.cpp:144] Setting up inception_5b/relu_3x3_reduce
I0412 06:14:27.435052   410 net.cpp:151] Top shape: 16 192 7 7 (150528)
I0412 06:14:27.435057   410 net.cpp:159] Memory required for data: 887088720
I0412 06:14:27.435062   410 layer_factory.hpp:77] Creating layer inception_5b/3x3
I0412 06:14:27.435091   410 net.cpp:94] Creating Layer inception_5b/3x3
I0412 06:14:27.435096   410 net.cpp:435] inception_5b/3x3 <- inception_5b/3x3_reduce
I0412 06:14:27.435119   410 net.cpp:409] inception_5b/3x3 -> inception_5b/3x3
I0412 06:14:27.440469   410 net.cpp:144] Setting up inception_5b/3x3
I0412 06:14:27.440485   410 net.cpp:151] Top shape: 16 384 7 7 (301056)
I0412 06:14:27.440491   410 net.cpp:159] Memory required for data: 888292944
I0412 06:14:27.440500   410 layer_factory.hpp:77] Creating layer inception_5b/relu_3x3
I0412 06:14:27.440510   410 net.cpp:94] Creating Layer inception_5b/relu_3x3
I0412 06:14:27.440515   410 net.cpp:435] inception_5b/relu_3x3 <- inception_5b/3x3
I0412 06:14:27.440526   410 net.cpp:396] inception_5b/relu_3x3 -> inception_5b/3x3 (in-place)
I0412 06:14:27.440536   410 net.cpp:144] Setting up inception_5b/relu_3x3
I0412 06:14:27.440543   410 net.cpp:151] Top shape: 16 384 7 7 (301056)
I0412 06:14:27.440548   410 net.cpp:159] Memory required for data: 889497168
I0412 06:14:27.440554   410 layer_factory.hpp:77] Creating layer inception_5b/5x5_reduce
I0412 06:14:27.440582   410 net.cpp:94] Creating Layer inception_5b/5x5_reduce
I0412 06:14:27.440588   410 net.cpp:435] inception_5b/5x5_reduce <- inception_5a/output_inception_5a/output_0_split_2
I0412 06:14:27.440598   410 net.cpp:409] inception_5b/5x5_reduce -> inception_5b/5x5_reduce
I0412 06:14:27.441097   410 net.cpp:144] Setting up inception_5b/5x5_reduce
I0412 06:14:27.441113   410 net.cpp:151] Top shape: 16 48 7 7 (37632)
I0412 06:14:27.441119   410 net.cpp:159] Memory required for data: 889647696
I0412 06:14:27.441128   410 layer_factory.hpp:77] Creating layer inception_5b/relu_5x5_reduce
I0412 06:14:27.441136   410 net.cpp:94] Creating Layer inception_5b/relu_5x5_reduce
I0412 06:14:27.441143   410 net.cpp:435] inception_5b/relu_5x5_reduce <- inception_5b/5x5_reduce
I0412 06:14:27.441150   410 net.cpp:396] inception_5b/relu_5x5_reduce -> inception_5b/5x5_reduce (in-place)
I0412 06:14:27.441159   410 net.cpp:144] Setting up inception_5b/relu_5x5_reduce
I0412 06:14:27.441166   410 net.cpp:151] Top shape: 16 48 7 7 (37632)
I0412 06:14:27.441171   410 net.cpp:159] Memory required for data: 889798224
I0412 06:14:27.441177   410 layer_factory.hpp:77] Creating layer inception_5b/5x5
I0412 06:14:27.441190   410 net.cpp:94] Creating Layer inception_5b/5x5
I0412 06:14:27.441198   410 net.cpp:435] inception_5b/5x5 <- inception_5b/5x5_reduce
I0412 06:14:27.441206   410 net.cpp:409] inception_5b/5x5 -> inception_5b/5x5
I0412 06:14:27.442294   410 net.cpp:144] Setting up inception_5b/5x5
I0412 06:14:27.442307   410 net.cpp:151] Top shape: 16 128 7 7 (100352)
I0412 06:14:27.442313   410 net.cpp:159] Memory required for data: 890199632
I0412 06:14:27.442322   410 layer_factory.hpp:77] Creating layer inception_5b/relu_5x5
I0412 06:14:27.442329   410 net.cpp:94] Creating Layer inception_5b/relu_5x5
I0412 06:14:27.442337   410 net.cpp:435] inception_5b/relu_5x5 <- inception_5b/5x5
I0412 06:14:27.442356   410 net.cpp:396] inception_5b/relu_5x5 -> inception_5b/5x5 (in-place)
I0412 06:14:27.442366   410 net.cpp:144] Setting up inception_5b/relu_5x5
I0412 06:14:27.442373   410 net.cpp:151] Top shape: 16 128 7 7 (100352)
I0412 06:14:27.442378   410 net.cpp:159] Memory required for data: 890601040
I0412 06:14:27.442384   410 layer_factory.hpp:77] Creating layer inception_5b/pool
I0412 06:14:27.442396   410 net.cpp:94] Creating Layer inception_5b/pool
I0412 06:14:27.442402   410 net.cpp:435] inception_5b/pool <- inception_5a/output_inception_5a/output_0_split_3
I0412 06:14:27.442410   410 net.cpp:409] inception_5b/pool -> inception_5b/pool
I0412 06:14:27.442453   410 net.cpp:144] Setting up inception_5b/pool
I0412 06:14:27.442461   410 net.cpp:151] Top shape: 16 832 7 7 (652288)
I0412 06:14:27.442467   410 net.cpp:159] Memory required for data: 893210192
I0412 06:14:27.442472   410 layer_factory.hpp:77] Creating layer inception_5b/pool_proj
I0412 06:14:27.442484   410 net.cpp:94] Creating Layer inception_5b/pool_proj
I0412 06:14:27.442490   410 net.cpp:435] inception_5b/pool_proj <- inception_5b/pool
I0412 06:14:27.442500   410 net.cpp:409] inception_5b/pool_proj -> inception_5b/pool_proj
I0412 06:14:27.443917   410 net.cpp:144] Setting up inception_5b/pool_proj
I0412 06:14:27.443931   410 net.cpp:151] Top shape: 16 128 7 7 (100352)
I0412 06:14:27.443936   410 net.cpp:159] Memory required for data: 893611600
I0412 06:14:27.443945   410 layer_factory.hpp:77] Creating layer inception_5b/relu_pool_proj
I0412 06:14:27.443954   410 net.cpp:94] Creating Layer inception_5b/relu_pool_proj
I0412 06:14:27.443961   410 net.cpp:435] inception_5b/relu_pool_proj <- inception_5b/pool_proj
I0412 06:14:27.443971   410 net.cpp:396] inception_5b/relu_pool_proj -> inception_5b/pool_proj (in-place)
I0412 06:14:27.443981   410 net.cpp:144] Setting up inception_5b/relu_pool_proj
I0412 06:14:27.443989   410 net.cpp:151] Top shape: 16 128 7 7 (100352)
I0412 06:14:27.443994   410 net.cpp:159] Memory required for data: 894013008
I0412 06:14:27.443998   410 layer_factory.hpp:77] Creating layer inception_5b/output
I0412 06:14:27.444006   410 net.cpp:94] Creating Layer inception_5b/output
I0412 06:14:27.444012   410 net.cpp:435] inception_5b/output <- inception_5b/1x1
I0412 06:14:27.444020   410 net.cpp:435] inception_5b/output <- inception_5b/3x3
I0412 06:14:27.444025   410 net.cpp:435] inception_5b/output <- inception_5b/5x5
I0412 06:14:27.444031   410 net.cpp:435] inception_5b/output <- inception_5b/pool_proj
I0412 06:14:27.444043   410 net.cpp:409] inception_5b/output -> inception_5b/output
I0412 06:14:27.444072   410 net.cpp:144] Setting up inception_5b/output
I0412 06:14:27.444080   410 net.cpp:151] Top shape: 16 1024 7 7 (802816)
I0412 06:14:27.444085   410 net.cpp:159] Memory required for data: 897224272
I0412 06:14:27.444092   410 layer_factory.hpp:77] Creating layer pool5/7x7_s1
I0412 06:14:27.444103   410 net.cpp:94] Creating Layer pool5/7x7_s1
I0412 06:14:27.444108   410 net.cpp:435] pool5/7x7_s1 <- inception_5b/output
I0412 06:14:27.444116   410 net.cpp:409] pool5/7x7_s1 -> pool5/7x7_s1
I0412 06:14:27.444144   410 net.cpp:144] Setting up pool5/7x7_s1
I0412 06:14:27.444152   410 net.cpp:151] Top shape: 16 1024 1 1 (16384)
I0412 06:14:27.444159   410 net.cpp:159] Memory required for data: 897289808
I0412 06:14:27.444164   410 layer_factory.hpp:77] Creating layer pool5/drop_7x7_s1
I0412 06:14:27.444173   410 net.cpp:94] Creating Layer pool5/drop_7x7_s1
I0412 06:14:27.444180   410 net.cpp:435] pool5/drop_7x7_s1 <- pool5/7x7_s1
I0412 06:14:27.444187   410 net.cpp:396] pool5/drop_7x7_s1 -> pool5/7x7_s1 (in-place)
I0412 06:14:27.444229   410 net.cpp:144] Setting up pool5/drop_7x7_s1
I0412 06:14:27.444238   410 net.cpp:151] Top shape: 16 1024 1 1 (16384)
I0412 06:14:27.444243   410 net.cpp:159] Memory required for data: 897355344
I0412 06:14:27.444249   410 layer_factory.hpp:77] Creating layer loss3/classifier
I0412 06:14:27.444260   410 net.cpp:94] Creating Layer loss3/classifier
I0412 06:14:27.444280   410 net.cpp:435] loss3/classifier <- pool5/7x7_s1
I0412 06:14:27.444309   410 net.cpp:409] loss3/classifier -> loss3/classifier
I0412 06:14:27.444437   410 net.cpp:144] Setting up loss3/classifier
I0412 06:14:27.444447   410 net.cpp:151] Top shape: 16 3 (48)
I0412 06:14:27.444453   410 net.cpp:159] Memory required for data: 897355536
I0412 06:14:27.444460   410 layer_factory.hpp:77] Creating layer loss3/classifier_loss3/classifier_0_split
I0412 06:14:27.444469   410 net.cpp:94] Creating Layer loss3/classifier_loss3/classifier_0_split
I0412 06:14:27.444475   410 net.cpp:435] loss3/classifier_loss3/classifier_0_split <- loss3/classifier
I0412 06:14:27.444483   410 net.cpp:409] loss3/classifier_loss3/classifier_0_split -> loss3/classifier_loss3/classifier_0_split_0
I0412 06:14:27.444491   410 net.cpp:409] loss3/classifier_loss3/classifier_0_split -> loss3/classifier_loss3/classifier_0_split_1
I0412 06:14:27.444532   410 net.cpp:144] Setting up loss3/classifier_loss3/classifier_0_split
I0412 06:14:27.444540   410 net.cpp:151] Top shape: 16 3 (48)
I0412 06:14:27.444546   410 net.cpp:151] Top shape: 16 3 (48)
I0412 06:14:27.444551   410 net.cpp:159] Memory required for data: 897355920
I0412 06:14:27.444556   410 layer_factory.hpp:77] Creating layer loss3/loss
I0412 06:14:27.444567   410 net.cpp:94] Creating Layer loss3/loss
I0412 06:14:27.444573   410 net.cpp:435] loss3/loss <- loss3/classifier_loss3/classifier_0_split_0
I0412 06:14:27.444581   410 net.cpp:435] loss3/loss <- label_val-data_1_split_4
…
