…
I0412 07:37:29.937237   917 net.cpp:323] The NetState phase (0) differed from the phase (1) specified by a rule in layer val-data
I0412 07:37:29.937256   917 net.cpp:323] The NetState phase (0) differed from the phase (1) specified by a rule in layer accuracy
I0412 07:37:29.937328   917 net.cpp:52] Initializing net from parameters:
state {
phase: TRAIN
}
layer {
name: "train-data"
type: "Data"
top: "data"
top: "label"
include {
phase: TRAIN
}
transform_param {
mean_file: "/opt/DIGITS/digits/jobs/20180412-073606-d98f/mean.binaryproto"
}
data_param {
source: "/opt/DIGITS/digits/jobs/20180412-073606-d98f/train_db"
batch_size: 64
backend: LMDB
}
}
layer {
name: "scale"
type: "Power"
bottom: "data"
top: "scaled"
power_param {
scale: 0.0125
}
}
layer {
name: "conv1"
type: "Convolution"
bottom: "scaled"
top: "conv1"
param {
lr_mult: 1
}
param {
lr_mult: 2
}
convolution_param {
num_output: 20
kernel_size: 5
stride: 1
weight_filler {
type: "xavier"
}
bias_filler {
type: "constant"
}
}
}
layer {
name: "pool1"
type: "Pooling"
bottom: "conv1"
top: "pool1"
pooling_param {
pool: MAX
kernel_size: 2
stride: 2
}
}
layer {
name: "conv2"
type: "Convolution"
bottom: "pool1"
top: "conv2"
param {
lr_mult: 1
}
param {
lr_mult: 2
}
convolution_param {
num_output: 50
kernel_size: 5
stride: 1
weight_filler {
type: "xavier"
}
bias_filler {
type: "constant"
}
}
}
layer {
name: "pool2"
type: "Pooling"
bottom: "conv2"
top: "pool2"
pooling_param {
pool: MAX
kernel_size: 2
stride: 2
}
}
layer {
name: "ip1"
type: "InnerProduct"
bottom: "pool2"
top: "ip1"
param {
lr_mult: 1
}
param {
lr_mult: 2
}
inner_product_param {
num_output: 500
weight_filler {
type: "xavier"
}
bias_filler {
type: "constant"
}
}
}
layer {
name: "relu1"
type: "ReLU"
bottom: "ip1"
top: "ip1"
}
layer {
name: "ip2"
type: "InnerProduct"
bottom: "ip1"
top: "ip2"
param {
lr_mult: 1
}
param {
lr_mult: 2
}
inner_product_param {
num_output: 3
weight_filler {
type: "xavier"
}
bias_filler {
type: "constant"
}
}
}
layer {
name: "loss"
type: "SoftmaxWithLoss"
bottom: "ip2"
bottom: "label"
top: "loss"
}
I0412 07:37:29.937386   917 layer_factory.hpp:77] Creating layer train-data
I0412 07:37:29.937858   917 net.cpp:94] Creating Layer train-data
I0412 07:37:29.937875   917 net.cpp:409] train-data -> data
I0412 07:37:29.937904   917 net.cpp:409] train-data -> label
I0412 07:37:29.937925   917 data_transformer.cpp:25] Loading mean file from: /opt/DIGITS/digits/jobs/20180412-073606-d98f/mean.binaryproto
I0412 07:37:29.939635   920 db_lmdb.cpp:35] Opened lmdb /opt/DIGITS/digits/jobs/20180412-073606-d98f/train_db
I0412 07:37:29.940305   917 data_layer.cpp:78] ReshapePrefetch 64, 1, 28, 28
I0412 07:37:29.940351   917 data_layer.cpp:83] output data size: 64,1,28,28
I0412 07:37:29.941682   917 net.cpp:144] Setting up train-data
I0412 07:37:29.941699   917 net.cpp:151] Top shape: 64 1 28 28 (50176)
I0412 07:37:29.941728   917 net.cpp:151] Top shape: 64 (64)
I0412 07:37:29.941733   917 net.cpp:159] Memory required for data: 200960
I0412 07:37:29.941743   917 layer_factory.hpp:77] Creating layer scale
I0412 07:37:29.941761   917 net.cpp:94] Creating Layer scale
I0412 07:37:29.941781   917 net.cpp:435] scale <- data
I0412 07:37:29.941808   917 net.cpp:409] scale -> scaled
I0412 07:37:29.941908   917 net.cpp:144] Setting up scale
I0412 07:37:29.941931   917 net.cpp:151] Top shape: 64 1 28 28 (50176)
I0412 07:37:29.941936   917 net.cpp:159] Memory required for data: 401664
I0412 07:37:29.941942   917 layer_factory.hpp:77] Creating layer conv1
I0412 07:37:29.941977   917 net.cpp:94] Creating Layer conv1
I0412 07:37:29.941998   917 net.cpp:435] conv1 <- scaled
I0412 07:37:29.942005   917 net.cpp:409] conv1 -> conv1
I0412 07:37:29.942256   917 net.cpp:144] Setting up conv1
I0412 07:37:29.942267   917 net.cpp:151] Top shape: 64 20 24 24 (737280)
I0412 07:37:29.942272   917 net.cpp:159] Memory required for data: 3350784
I0412 07:37:29.942291   917 layer_factory.hpp:77] Creating layer pool1
I0412 07:37:29.942299   917 net.cpp:94] Creating Layer pool1
I0412 07:37:29.942306   917 net.cpp:435] pool1 <- conv1
I0412 07:37:29.942312   917 net.cpp:409] pool1 -> pool1
I0412 07:37:29.942353   917 net.cpp:144] Setting up pool1
I0412 07:37:29.942361   917 net.cpp:151] Top shape: 64 20 12 12 (184320)
I0412 07:37:29.942366   917 net.cpp:159] Memory required for data: 4088064
I0412 07:37:29.942373   917 layer_factory.hpp:77] Creating layer conv2
I0412 07:37:29.942381   917 net.cpp:94] Creating Layer conv2
I0412 07:37:29.942387   917 net.cpp:435] conv2 <- pool1
I0412 07:37:29.942394   917 net.cpp:409] conv2 -> conv2
I0412 07:37:29.943205   917 net.cpp:144] Setting up conv2
I0412 07:37:29.943217   917 net.cpp:151] Top shape: 64 50 8 8 (204800)
I0412 07:37:29.943238   917 net.cpp:159] Memory required for data: 4907264
I0412 07:37:29.943248   917 layer_factory.hpp:77] Creating layer pool2
I0412 07:37:29.943255   917 net.cpp:94] Creating Layer pool2
I0412 07:37:29.943276   917 net.cpp:435] pool2 <- conv2
I0412 07:37:29.943298   917 net.cpp:409] pool2 -> pool2
I0412 07:37:29.943327   917 net.cpp:144] Setting up pool2
I0412 07:37:29.943333   917 net.cpp:151] Top shape: 64 50 4 4 (51200)
I0412 07:37:29.943338   917 net.cpp:159] Memory required for data: 5112064
I0412 07:37:29.943343   917 layer_factory.hpp:77] Creating layer ip1
I0412 07:37:29.943367   917 net.cpp:94] Creating Layer ip1
I0412 07:37:29.943373   917 net.cpp:435] ip1 <- pool2
I0412 07:37:29.943380   917 net.cpp:409] ip1 -> ip1
I0412 07:37:29.946719   917 net.cpp:144] Setting up ip1
I0412 07:37:29.946738   917 net.cpp:151] Top shape: 64 500 (32000)
I0412 07:37:29.946743   917 net.cpp:159] Memory required for data: 5240064
I0412 07:37:29.946753   917 layer_factory.hpp:77] Creating layer relu1
I0412 07:37:29.946768   917 net.cpp:94] Creating Layer relu1
I0412 07:37:29.946777   917 net.cpp:435] relu1 <- ip1
I0412 07:37:29.946785   917 net.cpp:396] relu1 -> ip1 (in-place)
I0412 07:37:29.946800   917 net.cpp:144] Setting up relu1
I0412 07:37:29.946807   917 net.cpp:151] Top shape: 64 500 (32000)
I0412 07:37:29.946812   917 net.cpp:159] Memory required for data: 5368064
I0412 07:37:29.946817   917 layer_factory.hpp:77] Creating layer ip2
I0412 07:37:29.946826   917 net.cpp:94] Creating Layer ip2
I0412 07:37:29.946831   917 net.cpp:435] ip2 <- ip1
I0412 07:37:29.946838   917 net.cpp:409] ip2 -> ip2
I0412 07:37:29.947921   917 net.cpp:144] Setting up ip2
I0412 07:37:29.947950   917 net.cpp:151] Top shape: 64 3 (192)
I0412 07:37:29.947957   917 net.cpp:159] Memory required for data: 5368832
I0412 07:37:29.947971   917 layer_factory.hpp:77] Creating layer loss
I0412 07:37:29.947980   917 net.cpp:94] Creating Layer loss
I0412 07:37:29.947986   917 net.cpp:435] loss <- ip2
I0412 07:37:29.948009   917 net.cpp:435] loss <- label
I0412 07:37:29.948016   917 net.cpp:409] loss -> loss
I0412 07:37:29.948035   917 layer_factory.hpp:77] Creating layer loss
…
I0412 07:37:29.948557   917 solver.cpp:181] Creating test net (#0) specified by net file: train_val.prototxt
I0412 07:37:29.948588   917 net.cpp:323] The NetState phase (1) differed from the phase (0) specified by a rule in layer train-data
I0412 07:37:29.948657   917 net.cpp:52] Initializing net from parameters:
state {
phase: TEST
}
layer {
name: "val-data"
type: "Data"
top: "data"
top: "label"
include {
phase: TEST
}
transform_param {
mean_file: "/opt/DIGITS/digits/jobs/20180412-073606-d98f/mean.binaryproto"
}
data_param {
source: "/opt/DIGITS/digits/jobs/20180412-073606-d98f/val_db"
batch_size: 32
backend: LMDB
}
}
layer {
name: "scale"
type: "Power"
bottom: "data"
top: "scaled"
power_param {
scale: 0.0125
}
}
layer {
name: "conv1"
type: "Convolution"
bottom: "scaled"
top: "conv1"
param {
lr_mult: 1
}
param {
lr_mult: 2
}
convolution_param {
num_output: 20
kernel_size: 5
stride: 1
weight_filler {
type: "xavier"
}
bias_filler {
type: "constant"
}
}
}
layer {
name: "pool1"
type: "Pooling"
bottom: "conv1"
top: "pool1"
pooling_param {
pool: MAX
kernel_size: 2
stride: 2
}
}
layer {
name: "conv2"
type: "Convolution"
bottom: "pool1"
top: "conv2"
param {
lr_mult: 1
}
param {
lr_mult: 2
}
convolution_param {
num_output: 50
kernel_size: 5
stride: 1
weight_filler {
type: "xavier"
}
bias_filler {
type: "constant"
}
}
}
layer {
name: "pool2"
type: "Pooling"
bottom: "conv2"
top: "pool2"
pooling_param {
pool: MAX
kernel_size: 2
stride: 2
}
}
layer {
name: "ip1"
type: "InnerProduct"
bottom: "pool2"
top: "ip1"
param {
lr_mult: 1
}
param {
lr_mult: 2
}
inner_product_param {
num_output: 500
weight_filler {
type: "xavier"
}
bias_filler {
type: "constant"
}
}
}
layer {
name: "relu1"
type: "ReLU"
bottom: "ip1"
top: "ip1"
}
layer {
name: "ip2"
type: "InnerProduct"
bottom: "ip1"
top: "ip2"
param {
lr_mult: 1
}
param {
lr_mult: 2
}
inner_product_param {
num_output: 3
weight_filler {
type: "xavier"
}
bias_filler {
type: "constant"
}
}
}
layer {
name: "accuracy"
type: "Accuracy"
bottom: "ip2"
bottom: "label"
top: "accuracy"
include {
phase: TEST
}
}
layer {
name: "loss"
type: "SoftmaxWithLoss"
bottom: "ip2"
bottom: "label"
top: "loss"
}
I0412 07:37:29.948745   917 layer_factory.hpp:77] Creating layer val-data
I0412 07:37:29.949105   917 net.cpp:94] Creating Layer val-data
I0412 07:37:29.949123   917 net.cpp:409] val-data -> data
I0412 07:37:29.949146   917 net.cpp:409] val-data -> label
I0412 07:37:29.949156   917 data_transformer.cpp:25] Loading mean file from: /opt/DIGITS/digits/jobs/20180412-073606-d98f/mean.binaryproto
I0412 07:37:29.950091   926 db_lmdb.cpp:35] Opened lmdb /opt/DIGITS/digits/jobs/20180412-073606-d98f/val_db
I0412 07:37:29.950991   917 data_layer.cpp:78] ReshapePrefetch 32, 1, 28, 28
I0412 07:37:29.951066   917 data_layer.cpp:83] output data size: 32,1,28,28
I0412 07:37:29.951802   917 net.cpp:144] Setting up val-data
I0412 07:37:29.951818   917 net.cpp:151] Top shape: 32 1 28 28 (25088)
I0412 07:37:29.951825   917 net.cpp:151] Top shape: 32 (32)
I0412 07:37:29.951830   917 net.cpp:159] Memory required for data: 100480
I0412 07:37:29.951838   917 layer_factory.hpp:77] Creating layer label_val-data_1_split
I0412 07:37:29.951848   917 net.cpp:94] Creating Layer label_val-data_1_split
I0412 07:37:29.951854   917 net.cpp:435] label_val-data_1_split <- label
I0412 07:37:29.951862   917 net.cpp:409] label_val-data_1_split -> label_val-data_1_split_0
I0412 07:37:29.951874   917 net.cpp:409] label_val-data_1_split -> label_val-data_1_split_1
I0412 07:37:29.951911   917 net.cpp:144] Setting up label_val-data_1_split
I0412 07:37:29.951920   917 net.cpp:151] Top shape: 32 (32)
I0412 07:37:29.951925   917 net.cpp:151] Top shape: 32 (32)
I0412 07:37:29.951930   917 net.cpp:159] Memory required for data: 100736
I0412 07:37:29.951936   917 layer_factory.hpp:77] Creating layer scale
I0412 07:37:29.951943   917 net.cpp:94] Creating Layer scale
I0412 07:37:29.951949   917 net.cpp:435] scale <- data
I0412 07:37:29.951956   917 net.cpp:409] scale -> scaled
I0412 07:37:29.951977   917 net.cpp:144] Setting up scale
I0412 07:37:29.952090   917 net.cpp:151] Top shape: 32 1 28 28 (25088)
I0412 07:37:29.952097   917 net.cpp:159] Memory required for data: 201088
I0412 07:37:29.952102   917 layer_factory.hpp:77] Creating layer conv1
I0412 07:37:29.952121   917 net.cpp:94] Creating Layer conv1
I0412 07:37:29.952127   917 net.cpp:435] conv1 <- scaled
I0412 07:37:29.952136   917 net.cpp:409] conv1 -> conv1
I0412 07:37:29.952342   917 net.cpp:144] Setting up conv1
I0412 07:37:29.952354   917 net.cpp:151] Top shape: 32 20 24 24 (368640)
I0412 07:37:29.952360   917 net.cpp:159] Memory required for data: 1675648
I0412 07:37:29.952373   917 layer_factory.hpp:77] Creating layer pool1
I0412 07:37:29.952381   917 net.cpp:94] Creating Layer pool1
I0412 07:37:29.952388   917 net.cpp:435] pool1 <- conv1
I0412 07:37:29.952394   917 net.cpp:409] pool1 -> pool1
I0412 07:37:29.952432   917 net.cpp:144] Setting up pool1
I0412 07:37:29.952440   917 net.cpp:151] Top shape: 32 20 12 12 (92160)
I0412 07:37:29.952445   917 net.cpp:159] Memory required for data: 2044288
I0412 07:37:29.952451   917 layer_factory.hpp:77] Creating layer conv2
I0412 07:37:29.952464   917 net.cpp:94] Creating Layer conv2
I0412 07:37:29.952471   917 net.cpp:435] conv2 <- pool1
I0412 07:37:29.952478   917 net.cpp:409] conv2 -> conv2
I0412 07:37:29.953477   917 net.cpp:144] Setting up conv2
I0412 07:37:29.953493   917 net.cpp:151] Top shape: 32 50 8 8 (102400)
I0412 07:37:29.953500   917 net.cpp:159] Memory required for data: 2453888
I0412 07:37:29.953510   917 layer_factory.hpp:77] Creating layer pool2
I0412 07:37:29.953522   917 net.cpp:94] Creating Layer pool2
I0412 07:37:29.953528   917 net.cpp:435] pool2 <- conv2
I0412 07:37:29.953536   917 net.cpp:409] pool2 -> pool2
I0412 07:37:29.953689   917 net.cpp:144] Setting up pool2
I0412 07:37:29.953701   917 net.cpp:151] Top shape: 32 50 4 4 (25600)
I0412 07:37:29.953706   917 net.cpp:159] Memory required for data: 2556288
I0412 07:37:29.953712   917 layer_factory.hpp:77] Creating layer ip1
I0412 07:37:29.953722   917 net.cpp:94] Creating Layer ip1
I0412 07:37:29.953727   917 net.cpp:435] ip1 <- pool2
I0412 07:37:29.953737   917 net.cpp:409] ip1 -> ip1
I0412 07:37:29.956763   917 net.cpp:144] Setting up ip1
I0412 07:37:29.956778   917 net.cpp:151] Top shape: 32 500 (16000)
I0412 07:37:29.956784   917 net.cpp:159] Memory required for data: 2620288
I0412 07:37:29.956794   917 layer_factory.hpp:77] Creating layer relu1
I0412 07:37:29.956806   917 net.cpp:94] Creating Layer relu1
I0412 07:37:29.956812   917 net.cpp:435] relu1 <- ip1
I0412 07:37:29.956820   917 net.cpp:396] relu1 -> ip1 (in-place)
I0412 07:37:29.956851   917 net.cpp:144] Setting up relu1
I0412 07:37:29.956859   917 net.cpp:151] Top shape: 32 500 (16000)
I0412 07:37:29.956864   917 net.cpp:159] Memory required for data: 2684288
I0412 07:37:29.956869   917 layer_factory.hpp:77] Creating layer ip2
I0412 07:37:29.956881   917 net.cpp:94] Creating Layer ip2
I0412 07:37:29.956885   917 net.cpp:435] ip2 <- ip1
I0412 07:37:29.956892   917 net.cpp:409] ip2 -> ip2
I0412 07:37:29.956995   917 net.cpp:144] Setting up ip2
I0412 07:37:29.957005   917 net.cpp:151] Top shape: 32 3 (96)
I0412 07:37:29.957010   917 net.cpp:159] Memory required for data: 2684672
I0412 07:37:29.957017   917 layer_factory.hpp:77] Creating layer ip2_ip2_0_split
I0412 07:37:29.957027   917 net.cpp:94] Creating Layer ip2_ip2_0_split
I0412 07:37:29.957033   917 net.cpp:435] ip2_ip2_0_split <- ip2
I0412 07:37:29.957041   917 net.cpp:409] ip2_ip2_0_split -> ip2_ip2_0_split_0
I0412 07:37:29.957049   917 net.cpp:409] ip2_ip2_0_split -> ip2_ip2_0_split_1
I0412 07:37:29.957093   917 net.cpp:144] Setting up ip2_ip2_0_split
I0412 07:37:29.957104   917 net.cpp:151] Top shape: 32 3 (96)
I0412 07:37:29.957110   917 net.cpp:151] Top shape: 32 3 (96)
I0412 07:37:29.957115   917 net.cpp:159] Memory required for data: 2685440
I0412 07:37:29.957120   917 layer_factory.hpp:77] Creating layer accuracy
I0412 07:37:29.957131   917 net.cpp:94] Creating Layer accuracy
I0412 07:37:29.957137   917 net.cpp:435] accuracy <- ip2_ip2_0_split_0
I0412 07:37:29.957144   917 net.cpp:435] accuracy <- label_val-data_1_split_0
I0412 07:37:29.957151   917 net.cpp:409] accuracy -> accuracy
…
